results/cnn_feature/baseline_hist_eq_affine/cnn_best.pt (torch, 472561 bytes, 24 tensors)

backbone.0.weight f4 [16, 1, 3, 3]
00000000: 5ae4 8e3e 01cf 973e 3a73 95bd cba6 813e
00000010: dd91 04be 29a9 783d 83d7 65be 07ba e73d
00000020: 2db8 8c3e 544a 96be c072 543e e0ad 783b
00000030: 72fe 6b3e e48f 88bb 37b1 1f3e 7e1b 1dbd
00000040: 084e 923e e0f4 b63d 0a43 10be cb48 8a3d
00000050: 0989 2cbe 78ff 0bbd fad9 37be e923 3d3e
00000060: 47e0 87be c1c2 43be a91e fdbd 42cf 52be
00000070: 90a1 c33c f431 afbe 9898 953e e6f7 96be
00000080: 389d 7c3e 8762 453d 82a8 fdbd 8128 423e
00000090: 944c db3c 207a 693e fcd7 2a3d f1ce 04be
000000a0: 99e8 ad3c 4a33 d3bd edb9 333e cdc8 913e
000000b0: 17c6 4a3e ede5 02be 390a 5b3e 9388 7d3d
000000c0: 86da 413e 1f9e 47be 2b6f adbe 8bee ebbd
000000d0: 7188 83be bab9 833e 57db a83d a302 153e
000000e0: d227 de3d 1ded 2abc a661 833e e448 6ebe
000000f0: b075 103c 64ef 74be e95f bf3d ed06 e1bd
00000100: e1a5 dd3d fee5 6ebd 971e 903e ef5a 46be
00000110: b3f5 42be d7b4 4bbe 7df2 9b3e 2256 ed3d
00000120: 8237 a73e 9210 86be bd06 b2be 3a75 7fbe
00000130: cf92 64be 93e8 ec3d 9a1d 013e 5ba9 8b3e
00000140: c08e 3bbe 6958 68be e19d 3a3e 5270 04be
00000150: 8b95 423e a3a1 a3bd bf8f 423e f134 8bbe
00000160: a231 2bbe b552 cd3d 6eea 903d 2f54 aebd
00000170: d3ec 473e 5fdc 623e d18f 7cbe 5cb6 3dbe
00000180: 5a56 973e a9e9 f7bd e7b7 02be 7a1b 92be
00000190: 5eed 45be 9848 443d c1e5 2dbd 5c76 8fbe
000001a0: 64dc 54bb 4803 6abe d6d8 9ebe 1c52 49be
000001b0: a745 7fbe a870 38be 1191 ac3e defa c63d
000001c0: 347c f13d cc09 a6be 8889 58be 277d 0bbe
000001d0: 05e4 473c b409 93be 367f c6bd dee9 32be
000001e0: 3e43 5e3c 4213 04be 2903 b3bc f822 75be
000001f0: 7fee 7bbe f47a 5cbe da6a d1bd 1319 81be
00000200: c804 953e 3223 89bd 9bff 913e 8de8 d83d
00000210: 2fbd 95be 5113 613e a7fb c8bd 9347 08be
00000220: 9196 9bbe 07b5 b6be 5067 b23d c6a6 ccbd
00000230: 6a4b d23d e496 85be 7e68 6b3e 3cdb 7abe
0.27908593 0.2965012 -0.07297368 0.25322565 -0.12946267 0.0607082 -0.22445492 0.11314779
0.27484265 -0.29353583 0.20746899 0.0037945434 0.23046282 -0.0041675437 0.15594946 -0.038356297
0.28575158 0.08933425 -0.14088073 0.067521654 -0.1684915 -0.03417918 -0.17954245 0.1847073
-0.26538298 -0.19117261 -0.123593636 -0.20586875 0.02388075 -0.342178 0.29217982 -0.29486006
0.24669349 0.048189666 -0.12385656 0.18960764 0.026769914 0.22800493 0.041709885 -0.12969567
0.021229075 -0.10312517 0.17551394 0.2847351 0.19802128 -0.12783022 0.21390618 0.061897825
0.18931016 -0.19493912 -0.33873877 -0.11520108 -0.25690034 0.25727636 0.08244961 0.14551787
0.10847439 -0.010432509 0.25660437 -0.23269993 0.008817121 -0.23919445 0.09344465 -0.10987649
0.108226545 -0.058324806 0.28148338 -0.19370626 -0.1903904 -0.19893204 0.3045844 0.11588694
0.32659537 -0.26184517 -0.34770766 -0.24947062 -0.22321628 0.115677975 0.12608948 0.27277645
-0.18316174 -0.22689976 0.18224289 -0.12933472 0.19002359 -0.07989814 0.19000147 -0.2718883
-0.16718152 0.10025541 0.07075964 -0.085121505 0.19523935 0.22154377 -0.24664237 -0.18526596
0.2955807 -0.12105114 -0.12765466 -0.28536588 -0.1932883 0.047920793 -0.04245544 -0.2801999
-0.0032479996 -0.22852814 -0.31024808 -0.19660228 -0.24928914 -0.18011725 0.33704427 0.09715818
0.11791268 -0.3242935 -0.21146214 -0.1362196 0.01220036 -0.2871834 -0.09692232 -0.17472026
0.0135658365 -0.12897971 -0.021852093 -0.23939121 -0.24602698 -0.21531278 -0.102254584 -0.25214443
0.2910521 -0.06696166 0.28515324 0.105912305 -0.29245898 0.21980025 -0.09813624 -0.13308553
-0.3038831 -0.35684988 0.087111115 -0.09992747 0.1026829 -0.26091683 0.2298908 -0.24497694

backbone.1.weight f4 [16]
00000000: 054e 803f 8aab 803f 684f 803f cc59 7c3f
00000010: 9d45 803f 653d 803f a09d 813f 93e7 7c3f
00000020: e191 803f 68bb 793f 3822 813f ae49 803f
00000030: 7b05 7f3f 5cc4 803f 59e6 7f3f 9849 813f
1.002381 1.005235 1.0024233 0.9857452 1.0021244 1.0018736 1.0126228 0.98790854
1.0044519 0.97551584 1.0088568 1.0022485 0.9961774 1.0059924 0.9996086 1.0100584

backbone.1.bias f4 [16]
00000000: d3bc 27bc d2bd 083c aa63 0a3b 9160 ce3b
00000010: d694 c13b 48ed 793c 8435 923c 71e3 843c
00000020: 1f78 c43b 51c8 5a3a 3209 78ba b3f0 89bc
00000030: a8e7 0dbc 6dcb cebb c4c7 423b 5423 1fbc
-0.01023789 0.008346038 0.0021116533 0.0062981327 0.005907635 0.015254326 0.017847784 0.016221734
0.005995765 0.00083458895 -0.00094618194 -0.016838407 -0.008661188 -0.0063108713 0.002972112 -0.009713013

backbone.1.running_mean f4 [16]
00000000: 20e3 893b fcfc 343a 4948 8ebb 6b12 65ba
00000010: d267 303b 33ca 06ba afb0 d33a c060 5db7
00000020: af6d e1b9 56ec 19bb d065 493b 869d d7bb
00000030: ae9a 45bb 29f0 d1bb 34a4 09bb c524 a4bb
0.0042079836 0.00069041527 -0.004342113 -0.0008738401 0.002691735 -0.00051418244 0.0016150678 -1.3195153e-05
-0.00042997065 -0.0023486814 0.003073085 -0.0065800576 -0.003015201 -0.006406803 -0.0021002414 -0.005009266

backbone.1.running_var f4 [16]
00000000: 5563 323f af69 cc3e b375 2f3f 06b8 163d
00000010: 666b 073f fab7 c83d 9a44 5b3d 970e f73b
00000020: 65fd 483e a829 4c3d 5bf6 983c f5f1 0640
00000030: 048a 8e3e e958 eb3f 791b e73c 2330 683f
0.6968282 0.3992438 0.6853897 0.036796592 0.5289825 0.09800716 0.05353222 0.007539581
0.19627912 0.049844414 0.018672159 2.108518 0.27839673 1.8386508 0.028211342 0.9069845

backbone.4.weight f4 [32, 16, 3, 3]
00000000: eb2c 66bb aced b03c abb6 0b3d f02b 8e3d
00000010: 4690 9a3d 4691 a0bd b573 973c 62f5 16bd
00000020: 2986 56bc 74ae 6cbd f27b 923d 226a 9cbd
00000030: 8658 283d 9d5a c73c 5c8a 393c 0682 50bd
00000040: a160 923d ba6b 193c 3873 5f3c ffcc 81bd
00000050: 478b e23c fd61 b7bb 62c8 19bd f922 673d
00000060: 9734 243c efb8 87bd ebe7 96bd 412f b4bc
00000070: a34c 273d fc52 29bd 2b15 36bd 5110 50bc
00000080: a2fd 98bd 458b d33c 58e6 5b3d fd81 d2bd
00000090: fcb5 c93c 379b 263d c28f 643a e918 fdbc
000000a0: 62b7 253d 8cb4 eb3c fd55 db3c 5abc 95bc
000000b0: 480a efbc 8b00 813c 961e 05bc baf8 42bd
000000c0: c912 563d c2bd 8c3d 9377 d8bc 4762 dfbc
000000d0: 0510 d3bc 30ab 2cbd a11d 2b3d 6162 0a3d
000000e0: 8934 aebd 34c1 b8bc 17ab 933d 722d ac3c
000000f0: 861f 6fbb f47f 45bd 391b 7dbd b692 83bd
00000100: f31e acbb 1677 663c cb3f 6a3d 214e 6e3d
00000110: 1efd 9dbd 1e56 2abd acd8 5fbb 7a5f ae3d
00000120: ca6c bb3c 65d3 98bc 4da9 653c 9489 98bc
00000130: 1b4d 42bd 7f6b 093d 0867 13bd a997 a3bc
00000140: 9d0f dfbd 22f8 303d a6b4 8a3d c193 043d
00000150: 2c3b 7dbd 7676 acbd 9e38 a5bd 0370 593d
00000160: 156c a23c 4196 263d 5f2a a43d 2bfd 723d
00000170: 0a31 1e3b d7fe 2bbd 5072 41bd a5a2 68bd
00000180: a2f8 3f3d 1f93 3cbd 6a61 79bc 382c 33bd
00000190: 99f1 cebb 2643 87bd fa7e 3cbd a635 d63c
000001a0: cc6e 26bd c41b 2c3d 9d2d 41bd 4a21 b7bd
000001b0: 6f30 8dbc b81c 04bd d138 ebbc 16a6 94bd
000001c0: 44bd 433d 3e1e 94bd c20a 073d eae3 a13c
000001d0: 2a0d ff3c ef8b 74bd faec 883d ff51 3fbd
000001e0: 60e6 223d 4011 983d fa73 e5bc 84b5 40bc
000001f0: db09 1fbd c33f c6bd 87c4 cc3c 67aa c2bd
00000200: bdd5 ff3c 87da 583d 3da0 a23d 252e 38bd
00000210: f418 9bbd d7ad 9b3c d056 c93c 780b a5bd
00000220: afc7 1ebc f3ad 67bd f653 b83b 31fd 23bd
00000230: d9ca 4abd ddf4 08bd cfda bbbd 18d4 293d
00000240: 592a 653d 14f9 75bc a949 7b3b 23f6 3fbd
00000250: 0aaf a6bd 1f13 9bbd c91c 3a3c a17d 59bd
00000260: 9ae3 64bd 8a9d 90bc 93f4 ecbc e6e4 5fbc
00000270: 89f4 4bbc 2f78 aabc 1a0e adbc b3e9 71bd
00000280: 838d 95bd e7da 973d 1fdc 4ebd d179 773c
00000290: 2c72 1cbd 6cc6 e0bb 6b71 8c3d bb4f d93c
000002a0: b8ce 99bd 533d d43c 17ee 8a3d 22e9 b03c
000002b0: a73f 823d bbbb 983d e6bf d1bc d7a0 9f3c
000002c0: 2852 89bd 02a6 9fbc 26e7 863d 3838 d33c
000002d0: e7e5 86bd a3ff 8ebd e7b3 2abd 3b70 cabd
000002e0: 4252 8fbd be61 85bc 3c39 103d 9028 c03b
000002f0: c0b2 73bd 76b2 a0bd 04e6 1b3d e764 8fbd
00000300: 0cb4 adbc 7fb0 f23c aa84 5cbd 5a96 ffbb
00000310: 8684 97bc 4d0b 05bd 6ead 39bd 2499 84bd
00000320: 45f1 3fbd 8c74 5bbd 588e 933d b4f4 17bd
00000330: d486 91bd 31a4 3c3c b46b c73c 9a0a 3f3d
00000340: c326 883d 177d 5f3d 47db 85bd f8e2 d83a
00000350: fbaa 2b3d dda4 3fbc 9970 4bbd 4566 ad3d
00000360: db3f 19bd 731e 3bbd c4f9 9dbd 70e4 0abc
00000370: 6d61 0e3d 4574 e33b 09f8 f13b e8c6 90bd
00000380: 6a44 b7bd cc12 c3bb 92b4 9c3d 42f5 2a3d
00000390: f1eb 50bd acbb 55bc b6d4 88bd 3a4f 86bc
000003a0: cc09 a33c 31dd 1f3d 2a56 7f3d afd9 69bd
000003b0: 3a47 4a3d d06e 99bd fadf 553d 2909 723d
000003c0: e6da 91bc b61f b53d d787 a0bd 666f 4bbd
000003d0: 627a 2b3d 032f dabc 1eea 08bd 9415 34bd
000003e0: 33fd 353d 64f9 0a3d 8b3f 983c 734c 72bd
000003f0: fa72 acbd 2922 e13b f51a 893c 4624 5bbd
-0.0035121988 0.021597706 0.034109753 0.06941974 0.07547049 -0.07840209 0.01848779 -0.03685511
-0.01309351 -0.05778356 0.07152547 -0.07637431 0.041100048 0.0243352 0.011324491 -0.05090525
0.07147337 0.009364063 0.01363831 -0.06337928 0.027654303 -0.005596398 -0.037544616 0.056429837
0.010022304 -0.0662707 -0.073684536 -0.021995189 0.04084457 -0.041338906 -0.04445378 -0.012699203
-0.074702516 0.025823245 0.05368647 -0.102786995 0.02462291 0.04067537 0.00087189313 -0.030895667
0.04045809 0.028772615 0.0267744 -0.01827829 -0.029179707 0.01574733 -0.008124968 -0.047600485
0.05226401 0.06872131 -0.026424205 -0.027268542 -0.025764475 -0.042155445 0.041776303 0.033785228
-0.08506114 -0.022553064 0.07210367 0.021017764 -0.0036487295 -0.04821773 -0.06179354 -0.06424467
-0.005252713 0.014066478 0.057189744 0.05817998 -0.07714294 -0.041586034 -0.0034156246 0.085143045
0.022879023 -0.018655488 0.014017415 -0.01862029 -0.047436815 0.033549782 -0.03598693 -0.019969778
-0.1089165 0.043205388 0.06772737 0.03236747 -0.06182401 -0.08421032 -0.080674395 0.05308534
0.019826928 0.040670637 0.08015894 0.05932347 0.0024138116 -0.04199108 -0.047228158 -0.056795735
0.046867974 -0.046038743 -0.015220979 -0.043743342 -0.006315422 -0.066046044 -0.04601953 0.026148628
-0.040633008 0.042018667 -0.04716264 -0.08941896 -0.017235009 -0.03225395 -0.028713616 -0.07258241
0.04778792 -0.07232331 0.032969244 0.019761998 0.031134207 -0.059703764 0.06685825 -0.046709057
0.039770484 0.07425165 -0.028009403 -0.011762027 -0.03882776 -0.0968013 0.024996055 -0.09505158
0.031229848 0.05294278 0.07940719 -0.04496588 -0.07573119 0.019003792 0.024577528 -0.08058828
-0.009691163 -0.056562375 0.0056252433 -0.040036384 -0.049509857 -0.033436645 -0.09172594 0.041462034
0.05594859 -0.015012998 0.0038343465 -0.046865594 -0.08138855 -0.075720064 0.011359402 -0.053098325
-0.05588112 -0.017653245 -0.028925216 -0.0136654135 -0.012448438 -0.020809261 -0.021124888 -0.059060764
-0.07302382 0.07414799 -0.050502893 0.015104727 -0.03819482 -0.006859591 0.0685757 0.026527276
-0.075101316 0.025908148 0.06783693 0.021595541 0.06359797 0.07457682 -0.0256042 0.019485874
-0.06705123 -0.019488338 0.06587057 0.025783643 -0.06586819 -0.069823526 -0.041675474 -0.098846875
-0.06998111 -0.016281959 0.035210833 0.0058642104 -0.05949664 -0.07846539 0.038061157 -0.070016675
-0.021204017 0.029625176 -0.053837456 -0.0077999057 -0.01849581 -0.03248148 -0.04533141 -0.06474522
-0.046860952 -0.053577945 0.07204884 -0.0370986 -0.071057945 0.011513756 0.024343349 0.04664097
0.06648018 0.054562654 -0.065359645 0.0016547134 0.041911107 -0.011697021 -0.04966793 0.08466772
-0.037414413 -0.045683336 -0.07713655 -0.008477315 0.03476088 0.0069413506 0.0073843044 -0.07069188
-0.08948596 -0.0059531685 0.076516286 0.041737802 -0.05100626 -0.013045233 -0.066811964 -0.0163952
0.019902132 0.039029304 0.06233803 -0.057092365 0.049384333 -0.07491839 0.052215554 0.059090767
-0.017804574 0.08843939 -0.078384094 -0.049666785 0.04186476 -0.026633745 -0.033426397 -0.04396589
0.044430923 0.033929244 0.018584987 -0.05915494 -0.084203675 0.0068705273 0.016736487 -0.05350139

backbone.5.weight f4 [32]
00000000: 9ede 823f 5763 823f 9f29 803f 281f 7b3f
00000010: 89da 7b3f 6135 823f 93d9 7b3f e8cd 7f3f
00000020: dacc 823f 57e8 793f f1d1 7e3f 73cb 813f
00000030: 778c 823f 0e5d 7d3f 33c9 843f 3897 813f
00000040: 79c2 7a3f 3bcd 863f 0516 813f 139c 7f3f
00000050: 99a1 803f 9282 7d3f 48ce 823f 8238 823f
00000060: 003a 7e3f 6b35 793f 6f3d 7b3f 1722 7f3f
00000070: f229 7d3f 1f34 823f 5b1c 803f 049c 7d3f
1.0224187 1.0186566 1.0012702 0.98094416 0.98380333 1.017254 0.98378867 0.99923563
1.0218766 0.9762015 0.99539095 1.0140213 1.0199116 0.98970115 1.0373901 1.0124273
0.9795299 1.0531381 1.0084845 0.99847525 1.0049316 0.9902736 1.0219202 1.0173495
0.9930725 0.97347134 0.98140615 0.9966139 0.9889213 1.0172156 1.0008653 0.99066186

backbone.5.bias f4 [32]
00000000: 0bfe 06bc 16d7 173c 8598 88bb e7f4 3bbc
00000010: afa1 0abc b31a 40bc 8c49 abbc 2bce 18ba
00000020: 5f54 25bc 9419 41bc b89e 5bbc 84dd c13c
00000030: 56e1 8dbc 0edf bf3b cbe4 8a3c ee93 2a3d
00000040: bdce 9a3b a0f0 fb3b 8f6b 9a3b 3f54 8abc
00000050: 9a4c d2bc 435e 1ebc 86c3 1cbc 4f3b e03b
00000060: ffc4 b8bc 163c acbb 6e3d 7ab9 205b bebc
00000070: 99c5 17bd 310a 6ebb 554f 92bc 9d71 57bb
-0.0082392795 0.009267589 -0.0041685724 -0.0114719635 -0.0084614 -0.011725116 -0.020909093 -0.0005829061
-0.010090916 -0.011785883 -0.013404541 0.023665197 -0.017319363 0.0058554476 0.0169548 0.041644983
0.004724352 0.007688597 0.004712529 -0.016885875 -0.025671292 -0.009666028 -0.009568101 0.0068430076
-0.022554873 -0.0052561862 -0.00023864742 -0.023236811 -0.03705368 -0.0036321993 -0.017860094 -0.0032874115

backbone.5.running_mean f4 [32]
00000000: 1b8e 04bf 164b 3cbf 3c76 b33e 1d72 1bbf
00000010: 81c4 8b3e c5b8 a4be 012f 58be 2e2f 083f
00000020: 6811 3dbe 8006 353e a5c6 343e 7d1b b93d
00000030: 5f52 30bf f2fd 433f 0b01 04bf 4910 b9bd
00000040: c1bc 83bd eda5 1dbe 8d44 c53e 10cf d2be
00000050: 85cf 1f3f a70e 813d a0b5 27bf 27b6 e2be
00000060: 5489 113e d5f1 cbbe 4e66 e2bd 3f76 d23d
00000070: f3a5 033f 19f4 95be 7d33 15bf cefd 283f
-0.51779336 -0.7355207 0.35051143 -0.60721 0.27298358 -0.32172218 -0.2111168 0.5319699
-0.18463671 0.17678261 0.17653902 0.09038446 -0.6887569 0.76559365 -0.5156409 -0.09036309
-0.06432486 -0.15395327 0.38528863 -0.411736 0.62426025 0.06301623 -0.6551151 -0.44279596
0.14212543 -0.3983294 -0.11054669 0.1027646 0.51425093 -0.29287794 -0.5828169 0.66012275

backbone.5.running_var f4 [32]
00000000: 0d93 283f 07e2 693e 31eb 613f 4728 cb3e
00000010: 2bdf 6b3e 7500 0e3e 0540 183f d492 d43e
00000020: b6c4 f83d 85f3 073f ad05 503d 6bb1 993d
00000030: 90bc b63e f4e7 e53e 860d 9f3e bc7a b43d
00000040: 924b 433e 399e 103e 587e 263e 0176 393e
00000050: d270 633e b4ad 043e acfd ae3e 1df5 163e
00000060: 1b49 6e3e a4cf 9d3f 15ce 693e 212a 8b3e
00000070: b085 8d3e 3360 843d 443c 723e 553e 633e
0.6584938 0.22840129 0.882495 0.39679167 0.2303435 0.13867362 0.59472686 0.4151827
0.12146895 0.53105956 0.050786663 0.07504543 0.35690737 0.4490353 0.31065005 0.08812472
0.19071797 0.14122857 0.16259134 0.18111421 0.22211006 0.12956887 0.3417791 0.14741941
0.23270075 1.2328992 0.2283252 0.2718058 0.27641058 0.06463661 0.23655802 0.22191747

backbone.8.weight f4 [64, 32, 3, 3]
00000000: 4513 a8bc 6ee0 3e3c 6785 393d c82d 30bd
00000010: 8a58 72bc 78ac 5c3d 3cd6 2a3c 878a 5a3b
00000020: 5492 123d 7495 1fbd 785a 1dbc 19e5 c2bc
00000030: 0454 0a3c b508 eabc 686f a8bc c021 2ebc
00000040: 0a0f 8e3b daa9 513c 083d 67bd 43a2 40bd
00000050: 32a2 65bd 0bcc c23c c048 1c3d 6c80 38bd
00000060: 8419 953c ce66 b93c 96dd 0cbc ef19 693c
00000070: 79fe 423d 9a96 603d 954c b03c 1e2a b2bc
00000080: 5944 57bd 2262 43bd 1fa0 c0bc 27ec 21bd
00000090: 1be5 043d 4bd1 6bbd 8707 903b 039f 61bc
000000a0: c326 223c 19ec 683d 8f46 323c e178 96bb
000000b0: 9809 65bc 8aca 09bd c0d7 73bd 0a8d 2d3c
000000c0: b8bc 26bd dfda 0f3d 93fb 3cbc a852 2b3d
000000d0: 6131 893d 84da d53c e36c a33c 833e ef3c
000000e0: 17ea e6bc 2df9 353d 4d7b 82bd c6c2 593d
000000f0: 2b66 ccbb 3670 97bb 3759 473d 929f 833c
00000100: f0b2 883d 7a03 43bc 7b3e dabc 44c8 7d3d
00000110: aea3 ddbc 1dd6 2b3d 21ce 6b3d b3a5 403d
00000120: 2d35 3bbc 782e 9fbb 45fd 0ebd 651e 09bd
00000130: e7fa a03b 456e ecbb ccab 0a3d 1903 693d
00000140: 86a8 143d 43c2 bbbc 0c4e 4e3d 551b 003b
00000150: b58c 203d ef67 4f3d bcf8 93bc 4f63 86bd
00000160: 7ecd 593d da10 e8bc 7355 473d f4ff 06bd
00000170: c969 f63a 22ae a33c 112d 94bb 3241 1e3d
00000180: 036b 42bd 8e03 b5bb 29d3 773b a735 6a3d
00000190: 850b 4b3d f1fb 813d 5e8d 133d 5c23 893d
000001a0: 8128 993b 99d9 5fbc 1c9c 543c cb2e 303d
000001b0: f4da 7cbb 03a4 5a3c 85d4 c23c e753 eb3c
000001c0: 8ace 4f3d fc7d e23c b150 503d ed67 96bc
000001d0: b7ce 39bd 1944 f13c 571c b83c b0b9 5f3d
000001e0: 3b5e d73c 144e 483b 605f e6bc 1d83 54bd
000001f0: aaf8 573c 0aee 783d 2570 203c b166 94bc
00000200: f98f b23c 6f55 babc 837c 913c 1a04 8abd
00000210: c3af 45bd 7b16 f8bc f551 6ebc 5b77 373c
00000220: f185 c63c 419b 38bd 65fc 03bc 2cf5 c23c
00000230: 7323 84bc 5d8b 823b ac99 a33c 20ff d2bc
00000240: 4350 0e3c ef43 003d 7226 863c cffe cbbc
00000250: 35a7 4cbd cdcc 1bbd 451a 79bc 8d85 e23b
00000260: 804a d13c d50a 1d3c 9e93 7d3d f270 52bc
00000270: 7d43 043c 954d aebc ed82 fe3b 4efa 893d
00000280: 6b64 6e3d 143b e33c 4993 3dbc accd 51bd
00000290: b788 31bd a1fd 1bbd c9c1 2f3d 1a99 55bc
000002a0: 885d 4f3b 3d6c 47bd 8712 4ebb 7a48 833d
000002b0: 4c95 a43c 6816 653b b990 4b3d 60bf 923d
000002c0: 9fb7 8b3d 1119 6abc 5c94 fb3c 282e 03bd
000002d0: ce6d 3abd 2082 c53c 4dcb 98bd ff8b 00bd
000002e0: e26a 853c c631 023d 0e17 4fbd 0f9a 40bd
000002f0: b8e6 07bd 0899 ce3b 20d7 c03b d7c4 823c
00000300: a881 6f3c efd7 cebc 2c18 063d d1bd a5bc
00000310: 66c6 1fbc efce 08bd 1812 b53c 7be3 e23c
00000320: 9540 0abb 223a 6f3d fde6 85bb 3f7d b23c
00000330: eac1 9b3d 6090 573d 3d0a 9cbb 5660 8abc
00000340: e8ee ee3c 2a12 a5bc bb64 a53a 494a d23c
00000350: 03c3 18bc 70f3 01bd 53ee 8fbd 4493 033c
00000360: f162 a6b9 f37d 11bc 765d 07bd 8456 703d
00000370: 2f90 043d f197 fdbc 094d 5bbd 83da 343d
00000380: 284e 043d 353c 6fbc 15e7 45bd 6fbb 183d
00000390: de36 1abd c9a9 dd3c 5b8e 55bd de5a 73bd
000003a0: a78f 79bd 1fb1 4e3d 1501 283d 300a 6fbd
000003b0: f99a 333d 8eb3 30bd c1cb 7cbd 5439 a53c
000003c0: e942 013d 4f38 0a3d 0cfb 8bb9 114a 2c3d
000003d0: 2e58 88bd cf27 2e3c 4059 b9bc ebe0 123b
000003e0: 59de 373d 5579 ddbc f120 413d c7ea 163c
000003f0: a6b8 093d 5346 f7bb 7745 bd3c f869 5b3d
-0.020517 0.011650188 0.045293238 -0.04301241 -0.014791617 0.053875417 0.010427054 0.003334673
0.03578408 -0.03896089 -0.009604089 -0.023790883 0.008442882 -0.028568605 -0.020560935 -0.010628164
0.004335289 0.012796843 -0.05645469 -0.047029745 -0.056062885 0.023778936 0.038155317 -0.045044348
0.018200643 0.022632029 -0.008597752 0.014227374 0.047605965 0.054831125 0.021520892 -0.021748599
-0.052555416 -0.04770101 -0.023513852 -0.039531853 0.032445055 -0.057572644 0.0043954286 -0.0137708215
0.009896937 0.056865785 0.01088108 -0.0045920466 -0.013979338 -0.033640422 -0.059531927 0.010592708
-0.04070732 0.03512084 -0.011534589 0.041826874 0.066988714 0.026105173 0.019949382 0.029204613
-0.028187795 0.044427086 -0.06371174 0.053164266 -0.0062377653 -0.004621531 0.048669066 0.0160673
0.066747546 -0.011902684 -0.026641121 0.061958566 -0.027055588 0.04195224 0.057569627 0.047033023
-0.011426252 -0.0048578344 -0.034909505 -0.033476252 0.0049127224 -0.0072152936 0.033855245 0.05688772
0.03629353 -0.02291978 0.0503674 0.001954754 0.03919669 0.05063623 -0.018062942 -0.0656191
0.05317449 -0.028328348 0.048665475 -0.03295894 0.0018799837 0.019980494 -0.004521974 0.038636394
-0.047465336 -0.0055241054 0.003781507 0.057180073 0.049571533 0.06346882 0.03602349 0.066961974
0.004674018 -0.013662719 0.0129766725 0.043013375 -0.0038582655 0.0133447675 0.023782978 0.028726531
0.05073408 0.027647965 0.050858203 -0.018360103 -0.045363154 0.029451417 0.022474451 0.054620445
0.02629005 0.0030564116 -0.02812165 -0.051882852 0.013181845 0.060773887 0.009792362 -0.018115373
0.021797167 -0.022745816 0.017759567 -0.067390636 -0.048263323 -0.030284157 -0.014545907 0.01119789
0.02423379 -0.045069937 -0.008055781 0.023798548 -0.016130185 0.0039838986 0.019970737 -0.025756419
0.008686128 0.031314787 0.016375754 -0.024901776 -0.04996415 -0.03803711 -0.015204017 0.006912893
0.02554822 0.009585102 0.061908357 -0.012844311 0.008072731 -0.021277228 0.0077670724 0.06737195
0.058201235 0.027738132 -0.01157076 -0.051221535 -0.043343272 -0.038083676 0.042909417 -0.013036991
0.0031641442 -0.04868721 -0.0031444149 0.06410308 0.020090722 0.0034955982 0.049698565 0.07165408
0.06822132 -0.014288203 0.030710392 -0.03202644 -0.045514874 0.0241099 -0.074606515 -0.03138351
0.016286317 0.03178575 -0.050559096 -0.04702192 -0.033179015 0.006304864 0.00588502 0.015963001
0.014618315 -0.02524945 0.032737896 -0.020232113 -0.009751892 -0.033400472 0.022103354 0.027696362
-0.0021095623 0.05840505 -0.004086374 0.021788238 0.076053455 0.05262792 -0.0047619627 -0.01689164
0.029166654 -0.020150263 0.0012618521 0.025670188 -0.009323838 -0.0317263 -0.070278786 0.008030716
-0.00031735704 -0.008880126 -0.033048116 0.058676258 0.032364067 -0.03095624 -0.053540263 0.0441537
0.032301098 -0.014601757 -0.04831608 0.037288126 -0.03764998 0.027058499 -0.052137714 -0.05941283
-0.060928013 0.050461885 0.041016657 -0.058359325 0.043848965 -0.043139987 -0.061717752 0.020168938
0.03155795 0.033745106 -0.0002669919 0.042062823 -0.06657444 0.010629608 -0.022625566 0.0022411894
0.04488978 -0.027035395 0.047150556 0.009211249 0.03362336 -0.007546225 0.023104412 0.053567857

backbone.9.weight f4 [64]
00000000: 5670 7e3f 76f7 7d3f 08cf 7a3f 7f7f 783f
00000010: 48e2 813f 7ec3 7f3f 4aac 7a3f c037 7b3f
00000020: 6832 813f 1bbe 813f 006b 823f 1ed3 7c3f
00000030: 20b8 7d3f 2020 813f 1460 7b3f 08ee 7b3f
00000040: 346e 773f 6e45 833f 56ff 793f 655e 843f
00000050: d508 7f3f 0565 7f3f eb27 853f 1a8d 803f
00000060: 5052 813f ce07 833f 91e3 803f d8ec 803f
00000070: 0197 7f3f 9ded 803f 8dd4 7f3f 5f2c 803f
00000080: c29a 7b3f 1685 7b3f 56d3 7e3f 92c5 783f
00000090: b426 823f a92f 7f3f 4afa 7b3f 0191 773f
000000a0: 549d 823f 9871 813f 6539 7b3f 2f0f 863f
000000b0: 893e 813f f3ef 7c3f a30a 813f badb 843f
000000c0: 5557 833f 7513 7f3f 0886 833f 7959 813f
000000d0: a783 7f3f b03b 833f df70 823f 2793 7d3f
000000e0: 9f38 783f a2c8 803f 4eb6 783f 3d09 7a3f
000000f0: 2b96 7c3f 0192 7c3f 0f81 823f f1e3 823f
0.9939016 0.9920572 0.97972155 0.97069544 1.014718 0.9990767 0.9791914 0.9813194
1.0093508 1.013614 1.0188904 0.9875964 0.9910908 1.0087929 0.9819348 0.9841008
0.9665253 1.0255563 0.97655237 1.0341307 0.9962285 0.9976352 1.0402807 1.0043061
1.0103245 1.0236757 1.0069448 1.0072279 0.9983979 1.0072514 0.999337 1.0013541
0.98283017 0.9824995 0.99541223 0.9717647 1.0168061 0.996821 0.98428786 0.96705633
1.0204263 1.0112791 0.9813445 1.0473384 1.0097209 0.98803633 1.0081371 1.0379555
1.0261027 0.99639064 1.0275278 1.010543 0.9981026 1.025259 1.0190696 0.9905266
0.96961397 1.0061228 0.97153175 0.97670346 0.9866664 0.98660284 1.0195636 1.0225812

backbone.9.bias f4 [64]
00000000: 0eb3 5cbd 0d29 87bd ff66 32bd 503f 24bd
00000010: 2ac3 09bb ab1b 87bc 27ea 1bbd c255 01bd
00000020: ecd6 33bd bfbd c1bc 7605 19bd 8fac a6bb
00000030: d0f1 2fbd 97b6 5fbd 798e 47bd c559 4dbd
00000040: 4652 04bd 6aae 06bd 7f79 3fbd 891b 82bc
00000050: 955d fa3b d15d 12bd bc38 dcbc 3dec b7bc
00000060: 8503 1bbc 68bb a7bc 1afc d5bc 2218 27bd
00000070: a9e1 cabc cc6c 19bd 921e 7639 1e86 41bd
00000080: ff42 37bd f887 48bd 7909 fabc 4e11 70bd
00000090: 83ba 6c3b 90e9 0fbd b266 73bd 1a24 3abd
000000a0: c982 e3bc 8682 b3bc 5ba0 8ebc ecd5 cebc
000000b0: 25c5 2ebc c3fe 4fbd 548e 87bd adf2 aa3c
000000c0: 42f1 8dbc 7b5c a8bc 8638 efbc 6661 13bb
000000d0: 426e 6cbd 61d3 ccbc eae8 35bd d20f 7bbd
000000e0: fb40 04bd 15fb c6bc bfa9 dfbc b494 eebc
000000f0: a060 ccbc 5dfd 60bd d436 08bb c08d 8f3c
-0.053881697 -0.06599627 -0.043555256 -0.040099442 -0.0021020868 -0.016492685 -0.038065102 -0.031575926
-0.043906137 -0.023650048 -0.037358724 -0.0050864886 -0.04295522 -0.05461749 -0.048719857 -0.05013444
-0.032305025 -0.032881178 -0.046746727 -0.01588227 0.0076405504 -0.035734 -0.026882522 -0.022451514
-0.009461288 -0.020475104 -0.026121188 -0.0407945 -0.024765806 -0.037457272 0.00023471777 -0.047247045
-0.044741627 -0.048957795 -0.030522095 -0.058610253 0.0036121912 -0.035134852 -0.05942411 -0.045444585
-0.027772324 -0.021912824 -0.017410448 -0.02524849 -0.01066712 -0.05078007 -0.06618944 0.02086767
-0.017326955 -0.02055191 -0.029201757 -0.0022488474 -0.057722338 -0.025003137 -0.044411577 -0.061294384
-0.032288533 -0.024289647 -0.027302621 -0.029123642 -0.024948418 -0.054929126 -0.0020784633 0.017523646

backbone.9.running_mean f4 [64]
00000000: 06a9 1c3f fb4f 833f 7d50 3c3f 3cc4 9a3f
00000010: 8a03 f0bb f8c2 c0be a818 df3e 8093 41bf
00000020: 9954 13bf e024 8fbe 6f5b 8b3e 8488 76be
00000030: b3ff 203f 6114 95be 5a84 b13e a5aa a03f
00000040: 4fc8 083e 6b19 d7be c05c 5bbf 49d4 c03d
00000050: 13d2 20bf e801 603e ea32 2bbe e45a cfbe
00000060: a8ea 553e e3f7 3dbf 3987 acbe 96c8 843e
00000070: f8a0 133f f93e 35bf de75 b7bf 35a1 f03e
00000080: 45a0 a03d b2df 933e f447 21bf f37d e43d
00000090: 0bf6 dfbe 68f0 1dbd 37bd 5dbe df47 a73f
000000a0: e2ba 483f 9878 c4be c7b6 833d db74 f93e
000000b0: 49b3 cc3d 5b9a d9be b860 263d 62c2 5dbf
000000c0: bdea 1ebf 6d90 38bd 7563 3ebf d382 c2be
000000d0: 9296 873e 6b5a 9abe 4c70 a1bd 5ce9 8cbe
000000e0: 08fd 273f b0c4 5d3e b71e 8c3d 32ef 3b3f
000000f0: c92c 2c3f 2336 183f dd58 c5be 7650 c4be
0.6119541 1.0258783 0.73560315 1.2091136 -0.0073246406 -0.3764875 0.435735 -0.7561569
-0.5755096 -0.2795782 0.27218196 -0.24075514 0.62890166 -0.2911711 0.3467129 1.2552077
0.13357662 -0.4201158 -0.856884 0.0941549 -0.6282055 0.21875727 -0.16718641 -0.40499032
0.20890296 -0.7420637 -0.33696917 0.25934285 0.57667494 -0.70799214 -1.4332845 0.4699799
0.07843069 0.28881603 -0.63000417 0.111568354 -0.43742403 -0.038559347 -0.21654211 1.3068808
0.7841016 -0.38373256 0.064313464 0.48721966 0.099951334 -0.42500576 0.040619582 -0.8662473
-0.6207693 -0.04505961 -0.7437051 -0.37990436 0.26482064 -0.30147108 -0.07882747 -0.2752179
0.6562047 0.21657062 0.06841796 0.7341186 0.67255837 0.59457606 -0.3854436 -0.38342637

backbone.9.running_var f4 [64]
00000000: c1f2 f73d 07a4 6f3e 3f47 1b3e 02ac bd3e
00000010: 1b00 993e f963 113e c51c e33e 6f3a 663e
00000020: defd de3d 146c 883e f16a 123e 7ca8 603e
00000030: 8e13 1f3f b9ce 1a3e 967c aa3e d34c a93e
00000040: 79de 5f3e 4321 4c3e 77c4 bb3e e7d5 303e
00000050: 4ed6 9b3e d503 7b3e 10e2 6d3e 3bf7 083f
00000060: 237b f13d fd18 803e eec5 143e 5a13 2a3e
00000070: 618a ad3e acf3 293e b743 ba3e 5849 723e
00000080: 1ed9 833e 8049 973e 73a2 c23e a3ac 1b3f
00000090: 4677 9b3e 7e81 013e 4b8a 4e3e 9348 2a3e
000000a0: 20fc 403e 38cc 7f3e 9a45 393e f3fd fa3d
000000b0: 9da9 c33e 5a5a 443e 7c42 883e 7c0c 1d3e
000000c0: 2ace 033e bded 473e 112e 223e 30fc 8e3e
000000d0: 82fd 533e 16cf 1c3e cb0a 1e3e dbe1 b63e
000000e0: 58a4 583e 78bf d73d ff60 c33e 31e2 003f
000000f0: b2eb 3e3e 0727 dd3e b7a2 423e de5f 7f3e
0.121068485 0.23402415 0.15163897 0.37045294 0.29882893 0.14198293 0.44357887 0.22483228
0.10888265 0.26644957 0.14298607 0.21939272 0.62139213 0.15117921 0.33298177 0.33066425
0.2186221 0.19934563 0.36673328 0.17269097 0.3043694 0.2451318 0.23230767 0.53502244
0.117910646 0.25019065 0.14528629 0.16608945 0.33894637 0.1659686 0.36379787 0.23660791
0.25751585 0.29548264 0.38014564 0.608103 0.30364436 0.12647054 0.20169942 0.16629247
0.18846178 0.24980247 0.18092957 0.12255468 0.38215342 0.19175091 0.26613224 0.15336794
0.12871614 0.19524284 0.15837885 0.2792678 0.20702174 0.15313372 0.15433805 0.3571919
0.21156442 0.10534567 0.3815994 0.5034514 0.18644598 0.43193838 0.19007383 0.24938914

backbone.12.weight f4 [128, 64, 3, 3]
00000000: 0372 c7bc c10b 213d 61e7 803c e0ce dd3c
00000010: 3ce1 123c d6e4 4e3c 18e5 d4bc 588c a8bc
00000020: 222f 323d 2a20 193c 5cea c2bb b6de 8abb
00000030: 2595 09bd 8c90 fc3c b36b 163d d10a d4bc
00000040: 6ded 273b a325 03bd c9ef dabc d083 043b
00000050: 4657 d4bc 490e 07bd 96d4 6bbc 5d98 0dbd
00000060: 8f26 0f3c 1bf9 b3bc cdbe dd3c d4e8 953c
00000070: 7940 1d3d fa77 b0bc 8ddc a23c 86aa 0e3d
00000080: aae8 743c 05b1 2b3b 4540 f33c 0dba b13c
00000090: 1ae4 abbc 4881 37bd f22e 1abd 0aba 9a3c
000000a0: ee16 fc3c 28bd daba c990 89bc 0f0d bf3c
000000b0: 10a1 70bc 0999 82bc e99b 3dbd 83ab 8d3b
000000c0: 7229 3cbd 52e0 edbb 37d1 d0bb 8de8 483c
000000d0: 183b a33c 13b4 5bbd 95fc ba3b 32e8 0ebd
000000e0: 854a a3bc ab36 2f3c b783 b8bc 3e53 163d
000000f0: e600 303c feaf e63b 61e7 b53c b349 dcbc
00000100: 1d36 b63c 6a30 9f3c 7044 d5bb a05e 8a3b
00000110: e7d5 9d3c 74b8 473d f203 093c 9caf 0b3d
00000120: cac7 143d ea2f 33bc 4c17 f8bc ef5c 2c3c
00000130: 0f64 403d 09aa c0bc 6282 95bc d286 2e3d
00000140: 0222 79bc efc0 0dbc 6104 123c 6132 683d
00000150: 4394 253d 8633 063d c90b 003d 5ecf cabb
00000160: 48b9 00bc 35cf 4f3d f957 ec3a 4b8d 003c
00000170: af6a efbb e0cc 14bd d974 913b 408d 2e3b
00000180: 15f3 113b 1899 943a 0fd3 b0bc 8f3a 8bbc
00000190: 7dc2 71bc 406a 823b 72b4 96bb b58d 123d
000001a0: e1b7 0ebd 2b44 ebbb d270 453c dbff 09bd
000001b0: b85f bebc 22ba 963c a8e1 dabc d058 c33b
000001c0: 2683 bdbc db58 82bc 81a0 acbb fb27 0abc
000001d0: e2bd bc3c 9611 a83c e205 983c 4584 ffbb
000001e0: 31c0 393d f499 c4ba 8d60 043d 2d0a 84bc
000001f0: c8af dd3c fc9f 253d 9c6e 543c 69a1 a33c
00000200: f1ca 07bd e301 d7bc 1d3f 343c 6d5c a03b
00000210: 8fa2 e6bc 5134 99bc ab4e 67bc 6a21 0bbc
00000220: f1b1 a73c 0590 093d 7728 3c3c 5772 4ebc
00000230: 35fb bdbc c483 0f3d 2f2c e93b 6b1a bfbc
00000240: a82d 25bd 18bd febc 8d5b d63c 7310 c0bc
00000250: 98f8 0bbd e86e e1bc f101 92bc 7245 8abb
00000260: a749 0bbd ef64 d23c 7ec4 e33a b023 3abc
00000270: 7b10 26bc 3fe1 41bb 0221 423d 9b01 9a3b
00000280: 7c32 c33c 5725 e4bc 4241 7c3c fc22 fdba
00000290: a1ba 3cbc b0a2 dc3b 55c0 99bc d2bb ffbc
000002a0: 87ff 98bc 585d fc3b f01a f43c b9ff 5dbb
000002b0: 3320 343d 2dec 92bb f39f 793d 0114 143d
000002c0: 9d95 5dbc 6f8e 043c f9fe 533d a481 513d
000002d0: db13 8b3c 1982 833b 0a3f 7dbb 68b0 b5bc
000002e0: 4dd3 c73b d589 c5bc f000 dd3b 6027 5cbc
000002f0: 06a8 efbc 7e46 aa3b 7b7d 5c3c 3518 e0bc
00000300: 4772 b6bc 8c2f 56bc 4039 8bbc d161 033d
00000310: 2e1c 3e3a e494 60bc d2e6 9bbc ee7c b9bc
00000320: add2 933c a76a 333c 3466 a73c 8fcb 893c
00000330: 7871 353d 1a4a b63c 2199 1c3d e29b 13bd
00000340: 9aea ce3c 65a0 d6bc 896e 58bc 926f 3abd
00000350: 5b5c bd3c 0cbb d2bc 164d 2fbd 8343 a0bc
00000360: f75a 43bc 7ae0 c5ba 33ee 2f3c e6fd 66bd
00000370: 895a c2bc 4cfe c03b 51eb c4bc 938d c4bc
00000380: 3a83 333d e471 0bbc a69a 013d f6e3 d33c
00000390: fe27 adbc ab84 b3bc a398 d8bc 5526 c33c
000003a0: e26f efbc 6a74 ca3a 1e45 113b 6830 363c
000003b0: 45ff dabb 6e63 a7bc 378a 59bc 50ec 3d3c
000003c0: 2af9 543c 389b ac3c e098 613c 04da 453b
000003d0: 1350 103d 639c 193d 9290 6e3c 4179 623d
000003e0: 8cd2 273c e767 333d b04e 0bbb 1056 393d
000003f0: b1cd 833c 576b b03c 9e17 203d 7b36 d3bc
-0.024346357 0.03931785 0.01573533 0.027076185 0.008964833 0.012627801 -0.025988147 -0.020574734
0.04350198 0.009346047 -0.005948348 -0.004237975 -0.0335895 0.030830644 0.036723804 -0.025884064
0.0025623695 -0.032018315 -0.026725667 0.0020220168 -0.025920521 -0.032972608 -0.014393946 -0.034569133
0.00873722 -0.021969369 0.02706852 0.018299498 0.038391564 -0.021541584 0.019880557 0.034830593
0.01494805 0.002619804 0.029693732 0.021695161 -0.02098279 -0.044801027 -0.037642427 0.018887538
0.030772652 -0.0016688453 -0.016792672 0.023321657 -0.014686838 -0.015942113 -0.046291266 0.0043234243
-0.045937963 -0.007259407 -0.0063725966 0.012262476 0.019925639 -0.05363853 0.0057063797 -0.034889407
-0.019932995 0.010694186 -0.022523744 0.03670048 0.010742402 0.007040023 0.022205057 -0.026890611
0.0222426 0.019432265 -0.0065084025 0.004222706 0.019267036 0.048759893 0.008362757 0.03410302
0.036323346 -0.010936717 -0.030284546 0.010520204 0.046970423 -0.02351858 -0.018250648 0.042609043
-0.015205862 -0.008651956 0.008912177 0.05668867 0.040424597 0.03276398 0.03126124 -0.006189271
-0.0078566745 0.050734717 0.0018031589 0.007846187 -0.007306419 -0.036328197 0.004438978 0.0026634485
0.0022270132 0.0011337129 -0.021585016 -0.016995696 -0.014755842 0.003979951 -0.0045991475 0.035779674
-0.03484333 -0.007179757 0.012050824 -0.03369127 -0.023239002 0.018399302 -0.02671893 0.005961515
-0.023133826 -0.01591151 -0.005268157 -0.008432384 0.023039762 0.020516198 0.018557493 -0.00779775
0.045349304 -0.0014999495 0.03231864 -0.016118133 0.027061358 0.040435776 0.012965824 0.019974427
-0.033152524 -0.026246017 0.0110013755 0.0048938305 -0.028153686 -0.018701704 -0.014117877 -0.008491853
0.020470591 0.033584613 0.011484257 -0.012600503 -0.023191074 0.03503777 0.007115863 -0.023328027
-0.040326744 -0.031096026 0.026166702 -0.023445344 -0.034172624 -0.027518705 -0.017823191 -0.0042197043
-0.034005787 0.025682895 0.0017377285 -0.011361048 -0.010135765 -0.002958372 0.04739476 0.0046998984
0.023827784 -0.027849836 0.015396418 -0.0019312794 -0.011519105 0.006733261 -0.018768469 -0.03121749
-0.018676532 0.007701557 0.029798001 -0.0033874346 0.04397602 -0.0044837208 0.060943555 0.03615189
-0.01352444 0.008090599 0.051756833 0.051149026 0.016977241 0.0040133116 -0.003864231 -0.022178844
0.006098187 -0.024113575 0.0067444965 -0.013437122 -0.029254925 0.0051963916 0.013457651 -0.027355293
-0.022271289 -0.0130728595 -0.016995072 0.032075707 0.0007252124 -0.013707373 -0.019030962 -0.022642579
0.018044794 0.010950721 0.020434476 0.016820697 0.044297665 0.022252131 0.038231973 -0.036037333
0.025258351 -0.026199529 -0.013209947 -0.045516558 0.023115328 -0.025723957 -0.042798124 -0.019563442
-0.011923543 -0.0015096806 0.010737943 -0.05639448 -0.023724811 0.0058896895 -0.024037989 -0.02399329
0.04382632 -0.00851104 0.031641625 0.025865536 -0.021137234 -0.021913847 -0.02643997 0.02382199
-0.029228155 0.0015446071 0.0022166441 0.011119939 -0.0066832625 -0.020433154 -0.013277582 0.011591986
0.0129988585 0.021070108 0.013769358 0.0030189762 0.035232615 0.037502658 0.014560835 0.055291418
0.010243069 0.04380026 -0.0021256618 0.04524809 0.016089292 0.021535559 0.039085023 -0.025782814

backbone.13.weight f4 [128]
00000000: c375 863f e108 8b3f 4626 893f 375f 863f
00000010: 2cb1 8b3f bb94 893f b5f7 863f 7006 8b3f
00000020: 0ccc 863f d811 8c3f d646 893f d68d 8a3f
00000030: 4e98 883f dd61 8a3f dae7 883f 0e62 8b3f
00000040: c746 883f 15b8 893f a901 893f 4aec 893f
00000050: 86ba 883f add8 893f 7b2e 893f f1f3 883f
00000060: 8be8 893f c768 883f 7553 873f ad64 8a3f
00000070: a748 873f ebde 893f 1958 873f b9cc 863f
00000080: 8ad4 883f 09c0 893f cfe3 883f 963a 883f
00000090: 3001 8a3f 3fe6 873f cfda 863f 2c53 8d3f
000000a0: 7706 883f 8cf8 883f 0ce7 863f 4ef8 853f
000000b0: 5c61 8a3f f7ad 853f fbb2 893f 5e7a 8a3f
000000c0: 3325 893f c987 8a3f 84b9 873f a2e5 873f
000000d0: 0789 8b3f d33e 883f b48f 8b3f 77c9 873f
000000e0: 33f5 883f 2af6 893f fd69 8b3f a4de 893f
000000f0: b71e 853f 1487 863f d827 883f d199 873f
00000100: 78dc 873f a3ed 873f 92de 8a3f 7c53 893f
00000110: 0a77 893f 5593 8b3f bccb 883f ed8e 863f
00000120: 2470 893f de3f 893f 134f 883f 86e3 873f
00000130: 056e 883f 47fd 883f 126f 8a3f 60aa 883f
00000140: bbd3 883f a17e 893f e19b 893f e2c7 883f
00000150: a78a 883f 5a80 8b3f fe00 883f 4d48 883f
00000160: 83c8 863f cf1c 843f c1f3 8a3f 3540 8a3f
00000170: bd73 883f 4f1a 883f e50b 873f 1d49 883f
00000180: 5b50 863f 161d 893f 91bc 893f 1e0a 893f
00000190: eb14 8b3f cf05 863f db96 893f c54d 8a3f
000001a0: d307 8b3f 5264 8a3f aa12 883f 8c8d 883f
000001b0: d04b 893f 1fcc 873f e15e 8a3f 2c0a 8a3f
000001c0: e6cd 893f 179d 8a3f 3a5c 893f 85a4 883f
000001d0: 8148 873f 4d89 893f c160 863f 5866 853f
000001e0: cf89 8a3f d2fe 873f 8ce7 863f 8ce5 863f
000001f0: 6d27 883f 2042 8d3f ad2b 883f 3b5b 8b3f
1.0504688 1.0862085 1.0714805 1.0497807 1.0913444 1.0748514 1.0544344 1.086134
1.053102 1.0942945 1.0724742 1.0824535 1.067148 1.0811116 1.0695755 1.0889299
1.06466 1.0759302 1.0703632 1.0775235 1.0681922 1.0769249 1.071731 1.0699445
1.0774091 1.0656976 1.0572344 1.0811974 1.0569047 1.0771154 1.057376 1.0531226
1.0689862 1.076173 1.0694522 1.0642879 1.0781612 1.061714 1.0535525 1.1041007
1.0626973 1.070085 1.053926 1.0466402 1.0810962 1.0443715 1.0757746 1.0818594
1.0714477 1.0822688 1.060349 1.0616953 1.0901192 1.0644172 1.090323 1.0608357
1.0699829 1.0778248 1.089172 1.077107 1.0399998 1.0509973 1.0637159 1.0593816
1.0614157 1.0619396 1.0849173 1.0728602 1.0739453 1.0904337 1.0687175 1.0512367
1.0737348 1.0722616 1.0649132 1.061631 1.0658575 1.0702294 1.0815146 1.0676994
1.0689615 1.0741769 1.0750695 1.0685999 1.0667313 1.0898545 1.0625303 1.0647064
1.0529941 1.0321292 1.0855638 1.0800844 1.066032 1.0633029 1.0550505 1.0647312
1.0493273 1.0712001 1.0760671 1.0706213 1.0865759 1.0470523 1.0749162 1.0804983
1.0861763 1.0811865 1.0630696 1.0668197 1.0726261 1.0609168 1.0810205 1.0784354
1.076596 1.082919 1.073127 1.0675207 1.0569001 1.0745026 1.0498277 1.0421858
1.0823306 1.062464 1.0539412 1.0538802 1.0637032 1.1035805 1.0638329 1.0887216

backbone.13.bias f4 [128]
00000000: 01a7 cf3c 3a2f 473d f5bc 5c3d b5d2 c43c
00000010: 9913 7d3d ef46 443d 12e9 053d 721c 493d
00000020: 73e4 a33c 6bfa 793d 0455 243d 9b61 413d
00000030: be5a 2b3d d690 303d 0aea 1f3d 8e92 543d
00000040: ab41 103d 382c 313d f77b 423d 81ef 483d
00000050: 10c0 283d f354 4e3d 4684 4e3d e0b0 1c3d
00000060: 88cb 4e3d 8762 1d3d e957 183d 123c 5a3d
00000070: 8086 fc3c d8f5 453d e6d6 e03c 6d07 e63c
00000080: 05b1 2c3d 5645 5e3d 61d4 0d3d 828f 333d
00000090: 0a49 413d 08e9 e43c 7395 023d b76b a03d
000000a0: 9625 ea3c 0b03 353d ce1b 033d ad94 833c
000000b0: 8f52 393d fd92 443c 4040 6e3d a05a 623d
000000c0: 2aa1 073d 3e5c 5e3d c7d3 033d 782f 483d
000000d0: bfde 583d b80a 0b3d 9ff8 8e3d 732a 113d
000000e0: 2db4 4a3d 4d49 643d 890a 733d b11e 403d
000000f0: b4c9 193c 4d14 173d 17f5 3c3d ca26 303d
00000100: 2bb6 053d 0f54 073d db4f 7a3d daed 353d
00000110: 0125 5c3d 937e 743d d5e3 2b3d 24d1 fe3c
00000120: a65f 573d 805c 3a3d 4d88 ea3c 1ac4 253d
00000130: 7509 403d a127 313d 922d 5f3d 1985 2c3d
00000140: cbdc 213d 97e9 3a3d 1612 023d 3620 133d
00000150: bf9a 263d 9795 6e3d 6b47 e73c a026 363d
00000160: 343e 1b3d cf08 213c 2301 763d c37c 5a3d
00000170: 2131 013d ea3d 3e3d 27ba 133d 5d61 4d3d
00000180: 38cd ed3c 6d1b 473d b5b1 4d3d 7658 233d
00000190: cb09 4f3d f06e e83c 04f0 4b3d cfba 2d3d
000001a0: 63f6 573d 2f12 6c3d 2c0a 153d 50fb 373d
000001b0: ee3e 243d caaf 073d 9251 5b3d 9d41 623d
000001c0: 12b2 5e3d 4817 513d aae1 3e3d ef10 593d
000001d0: 0d57 0f3d 8faa 133d bf02 b63c b19a 6d3c
000001e0: f322 0f3d 9469 013d 03be 083d 337c c83c
000001f0: 6d0f 103d 27c7 6b3d b948 1b3d c805 6d3d
0.025348188 0.048629023 0.05389114 0.024026254 0.061786268 0.04791921 0.032692976 0.049099393
0.020006394 0.061029833 0.04012014 0.047212224 0.041834585 0.043106876 0.039041556 0.051897578
0.035218876 0.04325506 0.047481503 0.049056534 0.04119879 0.050373983 0.050419115 0.03825462
0.05048707 0.03842404 0.037193213 0.053279944 0.030825853 0.048330158 0.027446222 0.028079713
0.042161006 0.054265343 0.03462637 0.04383803 0.047188796 0.02794315 0.031880807 0.07833045
0.028582375 0.044192355 0.03200894 0.016062105 0.04524475 0.011997935 0.058166742 0.055262208
0.033112682 0.054287188 0.03218439 0.048873395 0.052946802 0.03394577 0.069810145 0.035440873
0.049488235 0.055733968 0.05933622 0.04690427 0.009386469 0.036884595 0.046132173 0.043005742
0.032644432 0.03303915 0.061111312 0.044416286 0.053746227 0.059691023 0.041965324 0.031105585
0.05258145 0.04549837 0.028629446 0.04047022 0.04688402 0.043250684 0.05448682 0.04211912
0.039517205 0.045632925 0.03175553 0.03591939 0.04067492 0.05824813 0.028232297 0.04447043
0.03790112 0.00982876 0.060059678 0.05334164 0.031540994 0.046445765 0.0360662 0.05014168
0.02902852 0.04861014 0.050218303 0.039879285 0.05054645 0.028373212 0.049789444 0.042414483
0.052725207 0.05763453 0.036386654 0.044917405 0.040099077 0.03312663 0.05354459 0.055238355
0.05436904 0.051047593 0.04660193 0.052994665 0.034995127 0.03605133 0.022218106 0.014502213
0.03494544 0.031594828 0.033384334 0.024473285 0.03517096 0.057562973 0.03791115 0.05786684

backbone.13.running_mean f4 [128]
00000000: 1335 273f aafd 94bd 674e 013e ffb2 1a3f
00000010: f3b8 f23e d928 283f 4874 0b3f 0326 863e
00000020: 7005 4e3e db7d 1c3f 88e9 033f 2aa2 203f
00000030: f719 1c3f 13b2 433e 61ed 9a3e 99c0 9f3e
00000040: 9de6 033d c0a2 563f f23d c73e 6c56 8cbe
00000050: e770 e13e 77fb b1be 577f 13bf 8f70 ffbd
00000060: 2b50 28be 66ac 483f 1deb dcbd c28b a23c
00000070: b596 2a3f cdfa 7a3e 3346 27be 4646 9b3e
00000080: b28e 6c3e b5cb 5d3c 1c17 ba3e 5223 8bbd
00000090: 7ca6 ccbd 0b10 ea3e 3f91 1a3f 49a0 8e3e
000000a0: 3e16 a7bd b2cf 493f d12f 723e beae ea3e
000000b0: da66 97bd bc32 a83e bbf3 af3a 6186 bc3e
000000c0: c45d cc3e e9de 613f 7fb8 703e 8f14 d6be
000000d0: 93b0 ddbd a6d3 393f fb4a 973e 9d49 eebd
000000e0: 3901 0cbe c233 c13e 7e0d 433f bfe1 173f
000000f0: 53be b43e 754b 28be 086b 48bf 5f66 0ebf
00000100: 5717 b6be 8c28 5a3f eb22 a23f 0f01 2dbe
00000110: c372 7ebe e695 21be 90dd 593f 2129 293e
00000120: 4886 863e 70f5 5b3e 3e4b 8e3e 2ce8 a43e
00000130: e499 703e 1aec 1cbe b05f cf3d b336 443d
00000140: 73ab 5a3f 5d88 c7be 62ab 563f 2cd2 9b3e
00000150: 143c d93e ffb3 503e 9e1b 5fbd e44d 3e3f
00000160: 9445 b7be a8f2 113f e926 8f3e b823 b33e
00000170: abe2 a73b 2bd9 c63d fe5f c13e e8d5 ff3e
00000180: bbb2 0a3f 28d1 093d 3d76 233e 11e8 893c
00000190: 769f 11bd 704f 0cbe 5a91 0b3f ad09 3a3f
000001a0: 476b 3c3f 07d4 0fbc 3ee0 3bbd a9b2 b93e
000001b0: ce18 323f 64bc 9a3e 93e9 e3be cd4f 313f
000001c0: 854a 083d f9f3 79be b160 a73e c119 693f
000001d0: 81b9 883b 5251 2e3f f888 823e a326 4c3f
000001e0: 134a a63e af14 c13e b3f4 893e 78af a4be
000001f0: 7622 c03e 9858 2f3f 1857 1a3f 2260 fa3e
0.6531536 -0.07274945 0.12627564 0.60429376 0.4740673 0.6568733 0.54474306 0.26200876
0.20119262 0.6112954 0.51528215 0.6274744 0.6097712 0.19110899 0.3025923 0.31201628
0.03220235 0.83842087 0.38914448 -0.27409685 0.4403145 -0.34762165 -0.5761618 -0.12472641
-0.16436832 0.7838806 -0.10787032 0.019842032 0.6663621 0.24509735 -0.16335373 0.30327052
0.23101309 0.013537337 0.36345756 -0.06793846 -0.09992692 0.45715365 0.6037788 0.27856663
-0.08158539 0.7883254 0.23651053 0.45836443 -0.07392664 0.32851207 0.0013424078 0.36821273
0.39915287 0.8823076 0.2350788 -0.4181256 -0.108246945 0.72588575 0.29549393 -0.11635134
-0.13672341 0.377348 0.7619246 0.59328836 0.35301456 -0.16435035 -0.78288317 -0.55624956
-0.35564682 0.8521812 1.2666906 -0.16894935 -0.24848466 -0.15779838 0.851037 0.16519596
0.26274323 0.21480346 0.2779178 0.32208383 0.23496205 -0.1532444 0.10125673 0.047903728
0.8541786 -0.38971224 0.8385526 0.30433786 0.42428648 0.20381163 -0.054469697 0.743376
-0.3579527 0.5701089 0.27959374 0.3498819 0.0051234565 0.0970939 0.3776855 0.49967885
0.5417897 0.033646733 0.15963073 0.01683429 -0.035552464 -0.13702178 0.54518664 0.72671014
0.7360119 -0.008778579 -0.04586815 0.3626912 0.695691 0.30221856 -0.4451414 0.6926239
0.033274192 -0.24409474 0.32690957 0.9105492 0.0041725044 0.68092835 0.25495124 0.79746455
0.3247839 0.37711093 0.26944503 -0.32165122 0.37526292 0.6849456 0.60289145 0.4890147

backbone.13.running_var f4 [128]
00000000: 4ed0 5a3e c95f 753e 37de 3a3e 8914 833e
00000010: f271 613e 5613 593e 8222 5f3e 0246 7a3e
00000020: b886 123e 908f 8c3e a186 623e a786 783e
00000030: feda 833e 0138 843e d6df 453e 6373 583e
00000040: cfd2 943e 4b4f 433e 2602 6f3e 2fc1 433e
00000050: 036c 4d3e 27bc 6b3e be10 4d3e febd 953e
00000060: 7b08 5e3e fe5b 883e d4db 233e a913 9b3e
00000070: 8fab 693e c482 5d3e c661 4b3e 7c7c 6f3e
00000080: 2caa 5a3e 1fad 343e 60dc 7d3e 891c 5a3e
00000090: f117 9e3e 3b79 833e d60d 453e 9ed8 593e
000000a0: 10ef b03e cb54 773e 981e 8c3e 10eb ac3e
000000b0: 4ccc 643e d602 843e fa18 2c3e 9d44 a23e
000000c0: 84df 583e 737d 6b3e 46e1 553e 2df4 563e
000000d0: 2859 8c3e caca 813e 7fae 1f3e 8d54 733e
000000e0: 9418 1f3e 58d3 393e bfad 463e 0741 9a3e
000000f0: 43ab e03e 2457 583e 62ae 203e 187e 4d3e
00000100: 1df5 8a3e f25e 553e 92dc 623e 54f2 203e
00000110: df1e 2a3e a5fa 6e3e d325 a83e 4cd5 813e
00000120: cc60 7d3e b950 4e3e 3f69 973e 7a94 513e
00000130: a40a 573e 7a8c 6f3e b7c2 4c3e 991f 0e3e
00000140: f6f5 713e e731 2c3e d1cc 783e 394b 473e
00000150: 476c 1e3e 60d1 4c3e 3ade 9c3e 824e 423e
00000160: 4907 493e 6b20 863e 9ba8 653e 23d1 443e
00000170: 1f50 503e 8ec5 293e 7ea6 633e ddd0 383e
00000180: 5703 4f3e ab88 633e c455 443e f218 b23e
00000190: 9971 5f3e acac 593e ab4b 2e3e 84b7 843e
000001a0: 56ea 523e c768 503e 475e 303e 937f 793e
000001b0: 74fe 523e 6693 6f3e df55 593e 15b3 6d3e
000001c0: 3b98 3f3e b446 8c3e 741b 733e 2e5e 973e
000001d0: 3c71 943e a010 303e a0a5 8f3e 6884 963e
000001e0: 482b 743e 9398 643e bb51 553e d473 8a3e
000001f0: 9d42 7e3e 441a 8e3e a3d4 623e e355 5c3e
0.21368524 0.2396232 0.1824883 0.25601605 0.22016123 0.21198782 0.21790507 0.24440768
0.14309204 0.2745328 0.2212167 0.24270116 0.25753015 0.25823978 0.19323668 0.21137767
0.29067084 0.19073217 0.23340663 0.19116662 0.20060734 0.23020993 0.20025918 0.29246515
0.21682923 0.26632684 0.16001827 0.30288437 0.2281935 0.21631914 0.19861516 0.23387331
0.21353978 0.17644165 0.24791098 0.21299948 0.3087764 0.2567843 0.19243559 0.21274039
0.3455739 0.2415344 0.2736709 0.33773088 0.22343558 0.25783414 0.16806403 0.31692973
0.21179014 0.22997074 0.20886716 0.20991583 0.2741177 0.25350028 0.15593909 0.23762722
0.1553672 0.18147027 0.19402216 0.30127737 0.43880662 0.21126992 0.15691522 0.20067632
0.27140132 0.20837 0.22154453 0.15717441 0.16613339 0.23337801 0.32841358 0.25358045
0.24743956 0.20147981 0.29572484 0.20466796 0.21000153 0.23393431 0.19996153 0.13879241
0.23628983 0.16815911 0.24296881 0.19462289 0.15470992 0.20001745 0.30638295 0.18975261
0.19631685 0.26196608 0.22427599 0.19220404 0.20343064 0.16579267 0.2223148 0.18048425
0.20216118 0.22220103 0.19173342 0.34784657 0.21820678 0.21257275 0.17021053 0.2592126
0.20597205 0.2035247 0.17223464 0.24365072 0.20604879 0.23396072 0.21224163 0.23212846
0.18710415 0.27397692 0.23740941 0.2956404 0.2899264 0.17193842 0.2805605 0.29397893
0.23844635 0.22323827 0.20831959 0.27041495 0.24830098 0.27754414 0.22151427 0.21517138
