results/cnn_feature/baseline_hist_eq_affine/cnn_refit.pt (torch, 473171 bytes, 24 tensors)

backbone.0.weight f4 [16, 1, 3, 3]
00000000: 397e a53d e2a4 4a3e 2dc2 53be 75b5 37bd
00000010: 6e72 fdbc 3e41 a63e 26aa 843d 3e44 e8bd
00000020: b7f9 47be b028 0f3e 81de a8be 4691 213e
00000030: baae 4dbe 4fab c63d 5623 9f3e a0a4 43bc
00000040: fb02 523e 4d0e 03bd ba54 8b3e 89ff 2cbe
00000050: 228d 97be cc9d 46be 3375 913e bc78 abbe
00000060: fa66 98bd e66c 83be 2fec aebe b978 89be
00000070: d172 543d 71f5 063d bd83 d0be 5598 3a3d
00000080: 684c 9fbd 2915 8ebe 6a0d 60bd 07b8 d83d
00000090: acac cbbd b972 84be d795 92be cbb4 36be
000000a0: ff3f 853e b701 82be 4483 923e df05 8e3e
000000b0: 9f3c 843e a385 a0be fac1 48be bb1c dbbd
000000c0: 8cd0 e13d 8243 14bc 85ab 6a3d daec 8cbe
000000d0: d32f 3d3e 9561 8ebc 1108 113e df50 79be
000000e0: ddeb 96be a2b9 13bc d211 ce3d 6faa dabd
000000f0: dc37 3b3e 4a43 1a3e 2b21 37bc f841 6a3e
00000100: 995f ae3c fcf4 743e 7768 ae3d a561 cebd
00000110: be66 113e d7d8 2a3e 42ba b4bc 14b1 a3bd
00000120: e857 42be 2972 a0bd 5d44 62be d3f5 593c
00000130: 12ae 89be eeca a3be 287d adbe 9190 b23d
00000140: cf60 4cbe 6f3f d33c cb3d 433e 6f4f 133e
00000150: 185c 08be 9d50 873e 363b 463d 86cb a13e
00000160: f6a9 6b3e 1489 343e 8b39 093d dc4c 9a3e
00000170: b942 403d 41fc 813e 8afa 773e fdf2 16be
00000180: 1319 a13e 4481 47bd b72f 5abe 0732 a33e
00000190: 6596 363e b553 773e 5b2b 91be ab0b 5a3e
000001a0: a2d6 073e ab91 bb3d c551 f03d eaa2 dfbd
000001b0: aa9e e93d c843 52be 53ad d9bc dd3e a03e
000001c0: ecb8 723e 7e1e a43e db5a 3f3e 3303 2b3e
000001d0: 2a9c ae3e 6fbb 53be 5daf 143e de7f 323e
000001e0: 1f42 92bb 9c7f fd3c 5f60 e2bd d7af 4cbe
000001f0: 6cd7 893e 8296 213e 5d2f 51be 10a3 8ebe
00000200: d179 81be 158a 223e 5901 1abe bca8 58be
00000210: 2095 43be b20b 8a3e bee1 66be 3f96 513e
00000220: 9962 6e3e cc4e 75be d4d4 99be 1401 80be
00000230: b8bd 7f3e 7174 443e 371c 4dbe 92b4 b6bb
0.08080716 0.1978946 -0.20679541 -0.044850785 -0.030938353 0.3247165 0.06477766 -0.11341141
-0.19528852 0.13980365 -0.32982257 0.15778074 -0.20086184 0.09700643 0.31081647 -0.011941105
0.2050895 -0.03199606 0.2721308 -0.16894354 -0.29599863 -0.19396132 0.28409728 -0.3349055
-0.07441516 -0.2566902 -0.3416457 -0.26849917 0.05186731 0.032948915 -0.40725508 0.04555543
-0.07778245 -0.2775052 -0.054700293 0.105819754 -0.09945044 -0.25868776 -0.28629944 -0.17842405
0.26025388 -0.25391933 0.28615773 0.27738854 0.258275 -0.31351957 -0.19605246 -0.10698839
0.11026105 -0.009049298 0.05729248 -0.27524453 0.18475275 -0.017380515 0.14163233 -0.24347256
-0.29476824 -0.009016426 0.10061993 -0.10677039 0.18283027 0.15064731 -0.011177341 0.22876728
0.021285819 0.23921579 0.08516019 -0.10077218 0.1419935 0.1668428 -0.02206147 -0.07992759
-0.18978846 -0.07834274 -0.22096391 0.013303238 -0.26890618 -0.3199076 -0.3388455 0.0871898
-0.19958805 0.025787083 0.19066541 0.1438577 -0.13316381 0.2642869 0.04839631 0.3160059
0.23014054 0.17630416 0.033502143 0.30136764 0.04693863 0.25387767 0.24216667 -0.1474113
0.31464443 -0.04870726 -0.21307264 0.31874105 0.17830808 0.24153025 -0.2835339 0.21293513
0.1326547 0.09158643 0.11734346 -0.10919745 0.11407216 -0.20533669 -0.026571905 0.3129796
0.23703355 0.32054514 0.18687002 0.16700439 0.3410352 -0.20676969 0.14520021 0.1743159
-0.0044634487 0.030944638 -0.110535376 -0.19988953 0.26922166 0.1578007 -0.20428224 -0.27858782
-0.2528825 0.15872987 -0.15039577 -0.21158117 -0.19099855 0.26962048 -0.22547051 0.2046747
0.232798 -0.2395584 -0.30045187 -0.25000823 0.24974716 0.19185044 -0.20030294 -0.005575725

backbone.1.weight f4 [16]
00000000: 7291 803f a967 813f 69e7 7a3f 9de0 7d3f
00000010: 8d8c 813f f30f 7e3f cc4d 7f3f 1fba 813f
00000020: 522b 803f b794 803f 8423 803f 37f5 7d3f
00000030: 0a6f 803f 6f38 7d3f ec2b 7f3f c9b2 7e3f
1.0044386 1.010976 0.98009354 0.9917086 1.0121018 0.99243087 0.99728084 1.0134925
1.001322 1.0045384 1.0010839 0.99202293 1.0033886 0.98914236 0.99676394 0.99491554

backbone.1.bias f4 [16]
00000000: cc71 e73c 7a70 843b 540a f5bb 759b 47bc
00000010: 943f 93ba da88 543c 87e6 293c ffff d83c
00000020: dbee d63b aca3 56bc 4c7f 9abb ee70 e5bc
00000030: fed0 8fbb 90a4 993c abf1 923c 667c 8e3c
0.028252505 0.0040417286 -0.007478038 -0.01218306 -0.0011234158 0.012972081 0.010369903 0.026489256
0.0065592355 -0.013100546 -0.004714882 -0.02800795 -0.0043889275 0.018755227 0.017937502 0.017393302

backbone.1.running_mean f4 [16]
00000000: 93f9 693a 1b36 a73a 13f2 c5bb cb41 10bc
00000010: e0d5 88ba d270 cebb a2e5 6839 f05f d53b
00000020: df6f 32bc 241f 073c 7377 f43b 370b dc3b
00000030: 8383 203c 437d 47b9 1c82 03bc df98 6439
0.0008925434 0.0012757214 -0.0060408204 -0.008804749 -0.0010439716 -0.0063000703 0.00022210789 0.006511681
-0.01089093 0.008247171 0.0074605285 0.006715204 0.00979698 -0.00019024783 -0.008026626 0.00021800723

backbone.1.running_var f4 [16]
00000000: ebf7 263c 997a f23d ca02 973f 55d3 313f
00000010: 64e9 213d 5b9d 9e3e 1721 e53c 18ff dd3e
00000020: def0 0840 37ea c03f b8a2 1d3f a264 463f
00000030: 68cf fd3f 76c5 9a3d 2d06 8e3f fcb0 a53c
0.010190944 0.1183979 1.1797726 0.6946309 0.03952922 0.30979428 0.02796988 0.43358684
2.1397014 1.5071477 0.61576414 0.77497303 1.982892 0.07557194 1.1095635 0.020225994

backbone.4.weight f4 [32, 16, 3, 3]
00000000: dec3 0fbc aa06 46bc 1a17 803d c2dd 4ebc
00000010: 9b6c 0dbd b1f0 103c f74f 37bb 8a59 563d
00000020: ee38 2bbc c872 edbc 6fd9 5bbb 014a a93b
00000030: f7b7 813d 0e0d a5bd 93c3 923c 20e2 e23c
00000040: 81ee 9d3d a948 893d 48c5 8b3d a7a8 36bd
00000050: e37d ee3c 04f1 573d 74f3 8a3d 8bde b43b
00000060: ac96 0e3c 2aaa a43c e63d a4bd 6951 16bb
00000070: 5ae5 913d 36b4 183d 6c6d adbc 09f7 afbd
00000080: 544d 463d fb54 68bd f9d6 a1bd 834c 1b3d
00000090: e262 99bd fcb9 40bd c250 783d 87ca 9dbd
000000a0: 1cb9 89bc 5ffc 3cbd 5bdf 52bd 6778 a53b
000000b0: 7a7a 103c 7b62 8f3d 982b 043d 1078 1abd
000000c0: d2f2 a8bd 6482 9c3d ef6c 9fbd 2e04 98bd
000000d0: 42a7 8b3d 06e5 cdbc f22e 82bd e380 663c
000000e0: 8306 1cbc de81 8dbc a7cd 733d 84e1 473d
000000f0: d13f 9d3d 5ec4 7f3d e247 343c e312 90bd
00000100: 3a5e c6bc 5bad f53c 0adb d23b 5431 adbc
00000110: 7d08 63bb 7f32 3b3d d352 86bc 3497 6dbb
00000120: 3e40 b7bc 3322 91bd bb8f 9dbc ad99 c6ba
00000130: 27a5 603d 0876 64bd d9bc f7bc 9352 9bbd
00000140: 374a 6dbd aa71 8f3d a877 553d df8e 93bd
00000150: 0b0a 3d3d 19fb 123d 3f66 983c 7574 82b8
00000160: 8ea6 95ba 1f10 933c 981f a3bb d21c f13c
00000170: a914 783d c6f2 523d f691 e5bc 5ac0 a5bd
00000180: abda b73c 97ea 5fbd 4ac7 a3bd d627 aabc
00000190: 0d02 9bbd 7486 73bd 76fb 173b d1e3 1ebc
000001a0: 87bb 863d 59f6 dbbc 94ff 4bbd 6b62 10bd
000001b0: afcb 083c f7ac d1bc 8436 febc e139 283d
000001c0: 1a1e 933d c01a 783d b985 8a3c a327 1bbd
000001d0: 4062 113d f283 6d3d bc6c 5cbd 757f 28bd
000001e0: 6749 a9bc e2f5 1c3c ceab a83d ffc2 483d
000001f0: 40f1 783d 61b9 ce3d ac22 e23c 901b 383d
00000200: b014 853c 26ec 7a3d 922a 273c 60ff 47bb
00000210: 1a24 b13c d71e 84bd a13e 723c a909 20bd
00000220: 8a9e 113b 123d 72bc 3d67 4c3d bf24 a8bd
00000230: 5452 043c 1272 d4bc 986e 4c3d c1cf 37bd
00000240: 1b89 a8bd 5d12 123d df21 84bd 64f0 fb3c
00000250: c248 a3bd 9c81 95bc 0f56 c9bd 6d55 5dbd
00000260: 5b7b aabb 7d2c acbc b2f0 8fbd f0dc 0a3d
00000270: 376b 883d 0032 aa3d 6b1b 26bd e450 643d
00000280: 6aee debc 90b6 d83c 3762 833d 3719 863c
00000290: a16d 973c 8c7f 6cbd 6581 91bd 593f 7f3d
000002a0: b762 87bd 8145 19bd e035 acbc b7c5 5fbd
000002b0: 5766 1cbd 46b0 62bd 6c7c a8bd ec31 a7bd
000002c0: 80fa 183d 243f adbd ecd7 12bd 1d20 493d
000002d0: 4ee5 923c 6ca0 c23b bab3 343d f8e5 663d
000002e0: e203 1a3c db92 123d c49e 403c c407 2dbc
000002f0: 4253 593c edc1 66bd 6edd 5f3c 69e4 5bb9
00000300: 4ed8 7bbc 94e1 6c3d 9958 183d a493 7c3b
00000310: 2396 f4bc d961 8ebd 281d 673d 7ee6 d13a
00000320: bb95 fd3b 7fb4 7a3d 1eed b03d c289 6dbd
00000330: 95d6 51bd 9971 533b e649 f23c e3b9 29bd
00000340: 4318 583d 0352 26bd 2b13 e8bc 75a3 a53d
00000350: 5885 333d 4803 693d a053 89bd 33b5 443d
00000360: 1804 2a3d 65dd 12bd f979 78bd 5970 14bd
00000370: 99c3 923d 4ebf 1b3d a4a5 e53b 961c 24bd
00000380: 7569 a3bc 19ef afbd 060f 83bb 23a3 ae3c
00000390: 3953 e13c 45c2 81bd f471 0d3d 04f7 7fbd
000003a0: 91f8 b33d 909b 28bd 610b e73c f167 953d
000003b0: 5de4 60ba 295b 983d d94c 6c3c 2e0a 923c
000003c0: f6f0 6b3d 0a52 acbc 33c9 983d ec72 333c
000003d0: 4675 dbbc 0dcd 5b3d 7a9b 883d 9d90 cabc
000003e0: edbb 243c 3d65 123d 60e6 3cbd b6ae 5f3d
000003f0: a0c4 fcbc d11e b0bc 9d8e cbbc 1c29 46bd
-0.008774726 -0.01208655 0.06254406 -0.012626113 -0.034527402 0.008846448 -0.0027971247 0.052331485
-0.010450585 -0.028985396 -0.0033546349 0.0051662927 0.06333917 -0.080591306 0.017915523 0.027695715
0.07711507 0.06703312 0.06824738 -0.044594433 0.029112762 0.052720085 0.06784716 0.0055196933
0.008702915 0.020100672 -0.08019619 -0.0022936708 0.071238235 0.037281238 -0.02117034 -0.0859204
0.04841359 -0.05672167 -0.07902331 0.037914764 -0.074895635 -0.04705237 0.06062389 -0.07704645
-0.0168119 -0.046139117 -0.05148254 0.0050497535 0.008818263 0.070012055 0.032268137 -0.037712157
-0.08249439 0.076420575 -0.07784449 -0.07422672 0.06819011 -0.025133621 -0.0635661 0.014068815
-0.009523037 -0.01727384 0.059522297 0.048799053 0.07678188 0.06244313 0.011003466 -0.07034852
-0.024214853 0.029989889 0.006434803 -0.021141686 -0.003464251 0.045702454 -0.016396916 -0.0036253454
-0.0223695 -0.07086601 -0.019233575 -0.0015152 0.054845 -0.055776626 -0.030241417 -0.07584109
-0.057932105 0.070041016 0.052116066 -0.07204985 0.046152156 0.035883997 0.018603442 -6.220575e-05
-0.0011417435 0.017952023 -0.0049781315 0.029432688 0.060566578 0.051501058 -0.028023701 -0.08093329
0.022443136 -0.05466708 -0.07996996 -0.020770948 -0.075687505 -0.059454396 0.0023190654 -0.00969787
0.06578737 -0.026850866 -0.049804285 -0.03525011 0.008349343 -0.025595171 -0.031031854 0.041070823
0.07183476 0.060572386 0.016909467 -0.037879597 0.03549409 0.05798716 -0.053814635 -0.041137177
-0.020664884 0.009580107 0.08235894 0.049014088 0.06077695 0.10093952 0.027604423 0.04494816
0.016245216 0.061260365 0.010203021 -0.0030517206 0.02162366 -0.06451195 0.01478544 -0.039071713
0.002221974 -0.014785068 0.049903143 -0.08210134 0.008076269 -0.0259333 0.049910158 -0.044875864
-0.08229276 0.035662044 -0.06451773 0.030754276 -0.07972862 -0.01825028 -0.098308675 -0.054036546
-0.0052026934 -0.021017307 -0.07028331 0.03390211 0.066610746 0.08310318 -0.04055349 0.055741206
-0.027213294 0.02645424 0.06415217 0.016369445 0.018484892 -0.057738826 -0.07104758 0.062316272
-0.06610625 -0.0374198 -0.021021783 -0.054631915 -0.038183536 -0.05534389 -0.082268566 -0.08163819
0.03734827 -0.08459309 -0.03585045 0.04910289 0.017931607 0.005939534 0.044116713 0.05637166
0.00940034 0.035784584 0.011756603 -0.0105609335 0.013264479 -0.056337286 0.013663633 -0.00020970557
-0.015371395 0.057832316 0.03719387 0.003854015 -0.029856747 -0.06952257 0.05642429 0.0016014127
0.0077387965 0.06120729 0.086389765 -0.057992704 -0.051230032 0.0032263754 0.029576253 -0.04143704
0.052757513 -0.040605556 -0.028329452 0.080878176 0.04382834 0.056887895 -0.06705403 0.048024368
0.04150781 -0.03585567 -0.060663197 -0.036239956 0.071662135 0.03802424 0.0070082713 -0.040066324
-0.019947747 -0.08590526 -0.0039995937 0.021318024 0.027505504 -0.06335882 0.034532502 -0.06249143
0.08787645 -0.04116398 0.028203668 0.07295216 -0.00085789507 0.074392624 0.014422619 0.01782712
0.057602845 -0.021035213 0.07460251 0.0109526925 -0.026789319 0.05366235 0.0667028 -0.02472716
0.010054571 0.03574108 -0.04611814 0.054609977 -0.030855477 -0.02149907 -0.024848277 -0.04837905

backbone.5.weight f4 [32]
00000000: a0ae 7e3f 6930 7b3f badb 7f3f a4d9 843f
00000010: f110 7c3f 72a9 823f ff4c 803f b43a 823f
00000020: 081f 803f b67b 7a3f db81 803f 0c9b 843f
00000030: ef02 7f3f cee0 7e3f b2f9 7e3f 5cca 7f3f
00000040: da07 7f3f 22cd 823f 64c2 7e3f 589b 7f3f
00000050: 5db7 7e3f c8ef 803f 8176 7f3f 27a8 7e3f
00000060: b0a1 7b3f 871c 7f3f e549 803f 3db5 823f
00000070: 3497 823f 006b 803f ae01 803f 4974 7b3f
0.99485207 0.98120743 0.9994465 1.0378919 0.9846335 1.0207961 1.0023497 1.0174165
1.000947 0.9784502 1.0039629 1.0359817 0.9961385 0.99561775 0.99599755 0.9991815
0.99621356 1.0218852 0.99515367 0.9984641 0.9949854 1.0073175 0.997902 0.9947533
0.9829359 0.99652904 1.0022551 1.021156 1.0202394 1.0032654 1.0000513 0.9822431

backbone.5.bias f4 [32]
00000000: 9820 fbbb dd0a 9dbc 85df f0bc ea08 24bc
00000010: eb11 b9bc f627 79bc a040 843b 80f1 f4bb
00000020: 014e 8dbc bf94 6a3c e9ee bdbc c15e 4e3c
00000030: 492b 01bc 00a4 69bb 2f97 d3bb 7e15 33bc
00000040: 8075 423b 182b 343c 7066 6fbc eccc 803c
00000050: d502 46bc 2603 dbbc 1be6 a9bb f86c 23bc
00000060: 8de7 c5bc b5e5 36bc 6b97 323c 8694 18bc
00000070: 7941 8cbc 6469 7cbc b658 22bd d281 84bb
-0.0076637976 -0.01917022 -0.029403457 -0.010011891 -0.022591552 -0.015207281 0.004036024 -0.007475078
-0.01724911 0.01431769 -0.02318521 0.012595833 -0.007883855 -0.003565073 -0.0064572315 -0.010930417
0.0029672086 0.0109966025 -0.014611825 0.015722714 -0.012085636 -0.0267349 -0.0051849014 -0.009974711
-0.024158264 -0.011163165 0.010900359 -0.0093127545 -0.017121064 -0.015405986 -0.039635383 -0.004043796

backbone.5.running_mean f4 [32]
00000000: b000 a63d af4f 26be cb30 133f 6529 fcbe
00000010: 34b3 2b3e c62e 02be 4e1f 02bf f2ac 573d
00000020: 688c 323d d1de 53be 8b07 a53e ce20 27bf
00000030: cbe1 603e 3362 1d3e ef53 0f3f 033d 0b3d
00000040: c96e 9a3d f4aa d1be a984 393e f503 43be
00000050: bc27 ec3e 5393 473e b385 73be 9c66 573f
00000060: 220d 3b3f 6a1a aebe b01f f0be 30a2 0bbf
00000070: e1a9 08be 29e0 adbe 13f2 313c d364 ae3e
0.081056 -0.16241334 0.5749633 -0.49250332 0.1676758 -0.12713155 -0.5082902 0.052655168
0.043590933 -0.20690466 0.32232317 -0.6528443 0.21961133 0.15369491 0.5598745 0.033993732
0.07540662 -0.4095074 0.18117012 -0.19044478 0.46124065 0.19489793 -0.23781471 0.84140944
0.73066914 -0.34004527 -0.46899176 -0.54544353 -0.13346054 -0.33960083 0.010860938 0.34061298

backbone.5.running_var f4 [32]
00000000: 8801 a53d b4cb 873e 4458 0a3e a822 913e
00000010: 5a22 483f ce44 1a3e 6c5e 7f3e a307 2a3e
00000020: 5faa 263e d47a c83d adfc 733d fd78 933e
00000030: 394f ca3e adee be3d 8279 913e cb35 653e
00000040: 60e7 a03d 6e1e fe3d 9ba2 dd3e b22f 3c3d
00000050: e130 ff3d 1f8f 053e 33f1 d53d b695 8e3e
00000060: 9a27 ab3e 2dcc ea3e ffb2 2d3e fa55 073e
00000070: 973f 8b3d 8579 413e 6f69 453e a9e7 c53e
0.08056933 0.265226 0.13510233 0.28346753 0.78177416 0.1506531 0.24938363 0.16604476
0.16275929 0.097890526 0.059567142 0.28803244 0.39513567 0.093228675 0.28413016 0.22383802
0.07856631 0.12408148 0.4328812 0.045943923 0.12460495 0.13042878 0.10446396 0.27848595
0.3342865 0.458589 0.16962813 0.13216391 0.06799238 0.18894012 0.19278501 0.38653305

backbone.8.weight f4 [64, 32, 3, 3]
00000000: ab00 b53c c669 debc ee78 633c 3c5a 24bc
00000010: 7360 02bc dc8d 3dbd 1dd6 6c3d c8fc 513d
00000020: b851 263a df1f 1fbd 027b 043c 124a f1bc
00000030: ac8d c1bb 66f4 48bd 7ea4 3dbd d9f2 063d
00000040: 13a2 56bd b6ef 5fbd 1ea7 d2bc 468b 0c3c
00000050: 488d 59bd d328 28bd 1f55 0b3c 52a7 05bc
00000060: bae4 88bd 5dd1 fbbc 817c 2fbd b72d 24bd
00000070: c205 91bd d90e 36bd 09a3 7fbd 96e8 93bd
00000080: d5b7 adba 28a8 acbd f6ad babc bcce 8abd
00000090: ebfe 403c 46fd 54bc 50a4 e43c 59eb 3b3d
000000a0: ab1d 2ebd 98b1 b6bb d304 ce3c 9e15 52bd
000000b0: d240 0d3d ab79 99bd 424f e4bc ced9 61bd
000000c0: 8252 9dbd ac32 3bbd 5528 6ebd 186b 22bc
000000d0: 2659 65bc ed8e 973c 3611 b83c aa86 603d
000000e0: 67f4 623d 2f65 183d ba0e 15bd 331f 5f3d
000000f0: 9f06 bfbc 10bc 21bd d396 15bd 0991 3c3b
00000100: c5c8 d13c a2c3 f63b 0187 2ebb 4310 92bd
00000110: aa6a debc aea8 8dbc 49da 7a3c bbb0 d4bc
00000120: cb8f 2a3c 7965 7d3c 6c2c 79bb dd4a 2c3d
00000130: 5a29 a6bb 8165 0cbd eb7d 82bc 3ff9 853d
00000140: 14c2 af3b f97a 013d c69c 00bd 6ccb 19bd
00000150: dfa0 243d 10de 763b 90d5 c0bb 4561 223c
00000160: 2827 343c 84dc 61bd 5f13 0c3d 6852 47bd
00000170: 03b6 b0bb 2a31 38bd 5772 04bd ff8f 1abd
00000180: b510 8d3c a8e6 333b 7309 eebb bc97 ee3c
00000190: 7b75 48bd 3688 5fbb e065 84bd ba9e 68bd
000001a0: b49e ee39 a534 8abc f4e0 46bd 8086 54bc
000001b0: c57c 473c 31b2 4d3d ac22 ccbc d1a0 ef3c
000001c0: 9720 983c 37c8 62bc 02f6 653d cb9d 21bd
000001d0: 73e4 5f3d 1378 1a3d f8d5 99bc a7f3 ef3c
000001e0: defd 34bc 554d 003d cc36 8d3c dd73 133d
000001f0: 5ab0 c53c 0ff0 0fbd f98f a03c 7e48 463d
00000200: bc1e c33c a8de fd3c 8b5c e2bc 29d1 873a
00000210: 3076 e1bb 83e1 3b3d dd91 33bd 6069 4eb9
00000220: 109a 03bc f265 f03c 3f26 233d d06c 95bd
00000230: fada 043d ad66 97bb 2372 60bd 448c 34bb
00000240: 476f 36bc 37b4 3b3c 3ab2 4e3b 9982 00bc
00000250: 73b5 3bbd f0bf 693b 5e7a 10bd 9cae b7bc
00000260: e4c0 5bbd 8565 6fbd 9e54 7ebd 3c19 34bd
00000270: 16d4 13bd c822 233d 650b 2b3b 6d01 343d
00000280: 7a90 bf3c fe74 533d 0ec3 293d f23e f8bc
00000290: a0e5 fbbb dbd4 bc39 e2bc 353d 72a1 193b
000002a0: f1cf 13bd 0244 65bc ccb2 2abd 25af d0bc
000002b0: d496 2e3d 9c16 d43c 4df3 8dbc 3948 da3c
000002c0: cf9a d8bc e98a b43c 5f5a 8fbc ecac 533d
000002d0: ac42 983c 2146 b63c fb48 ddbc 348c 93bc
000002e0: c16c 8bbc 71a2 bbbc c9f8 81bc 1245 12bd
000002f0: af0f 8bbc 17f0 80bc 2f1e d13c 2971 ecbc
00000300: 9d93 d13c 8411 bb3c 7e29 fabc cf33 393d
00000310: 1551 06bd ac87 8a3c f942 abbd e6a5 1b3c
00000320: d173 8ebd ff81 ca3a 939b 83bd 0a1e 8dbd
00000330: 170f 3e3c e10d 52bc 1be9 85bc eaa5 b1bc
00000340: 21b6 6fbd 08f9 04bc 4308 283d 2787 be3c
00000350: 8046 29bd 6659 1a3d c6da 90bd d566 7fbd
00000360: ef35 ef3b 0b33 823c d5a6 4fbd 60e4 fa3c
00000370: 340c f9bc ae63 bfbc bb07 613d 86ff 453d
00000380: 5f90 3fbd d988 ffbc 73ac 22bd 6bb0 88bb
00000390: 22e6 1abd f602 e5bc f3cc 8bba d7f6 2e3c
000003a0: d754 1dbd ea81 473d 8bda 8cbc fc22 8b3c
000003b0: 52d0 c0bc ef1d 2abd 1f3b d33c 2c6f 92bc
000003c0: 8441 263d ea75 f13a dbaa dbbc ef1a 1dbd
000003d0: 0924 803b 51ba ca3b f282 58bb a642 93bd
000003e0: a0a1 09bd cb5a 88bd 6ec7 b1bd 8135 5dbd
000003f0: a443 55bd 0d78 323d 4e32 723c d777 993c
0.022095045 -0.027150046 0.013883812 -0.010031279 -0.007957566 -0.046277866 0.05782138 0.05126646
0.00063445745 -0.038848754 0.008085968 -0.029454265 -0.005906781 -0.0490612 -0.04629945 0.03294644
-0.05240066 -0.054671966 -0.025714453 0.008578127 -0.053113252 -0.041054558 0.008504181 -0.008157568
-0.06684251 -0.03073948 -0.042843346 -0.04008266 -0.07081176 -0.044447754 -0.06241134 -0.072220966
-0.0013253639 -0.08430511 -0.02278803 -0.06777713 0.011779527 -0.012999838 0.027910382 0.045878742
-0.042508762 -0.00557537 0.025148785 -0.051290147 0.034485646 -0.074939094 -0.027869824 -0.055139355
-0.07681753 -0.04570262 -0.058143932 -0.009913228 -0.013998305 0.01850077 0.022469144 0.054815926
0.05540886 0.03720587 -0.036390997 0.054473113 -0.023318587 -0.03948599 -0.03652079 0.002877297
0.02560843 0.0075306455 -0.0026630762 -0.07132008 -0.02715047 -0.017292347 0.015310832 -0.025963178
0.0104102595 0.0154660875 -0.0038020862 0.042063583 -0.0050708475 -0.03427649 -0.015929183 0.065416805
0.005363712 0.031611416 -0.03139951 -0.037547514 0.04019248 0.003766898 -0.0058848336 0.009910886
0.010995664 -0.05514194 0.03419816 -0.048662573 -0.0053927912 -0.04496876 -0.032335605 -0.03773498
0.01721988 0.0027450714 -0.00726431 0.029125087 -0.048940163 -0.0034108288 -0.064647436 -0.056792
0.0004551314 -0.016870806 -0.048554376 -0.01297152 0.0121757435 0.050218765 -0.024918877 0.029251488
0.018570228 -0.01384168 0.056142814 -0.039457124 0.054661226 0.037712168 -0.018778786 0.029290987
-0.011046855 0.03132375 0.017238043 0.035999168 0.024131943 -0.035141047 0.019599902 0.048408978
0.023818366 0.03098996 -0.027632019 0.0010362017 -0.006880544 0.04586936 -0.043840278 -0.00019684946
-0.008032337 0.029345486 0.039831396 -0.07296145 0.032435395 -0.004620394 -0.05479635 -0.0027549425
-0.011134929 0.011456541 0.0031539337 -0.007843637 -0.04582734 0.0035667382 -0.03527295 -0.022422127
-0.05365075 -0.058446426 -0.062092416 -0.043969378 -0.036090933 0.03982809 0.002609932 0.043946672
0.023384321 0.051625244 0.041445784 -0.030303452 -0.0076872855 0.00036016744 0.044369586 0.0023442176
-0.03608698 -0.013993265 -0.04167442 -0.02547414 0.04262431 0.025889687 -0.017327929 0.026645767
-0.026441006 0.022038894 -0.017499147 0.051678583 0.01858648 0.022250237 -0.027012339 -0.01801119
-0.017019631 -0.022904607 -0.0158657 -0.0357104 -0.016975252 -0.015739484 0.025527088 -0.028862553
0.025583083 0.0228355 -0.030537363 0.045215424 -0.03279217 0.016910397 -0.083623834 0.0095000025
-0.06955684 0.0015450119 -0.06426158 -0.06890495 0.011600277 -0.012820692 -0.016346505 -0.02168556
-0.0585233 -0.008116014 0.041023504 0.023257805 -0.041327 0.037682913 -0.07072978 -0.062353928
0.0073001306 0.01589348 -0.050696213 0.030626476 -0.030401327 -0.02336296 0.054939013 0.04833939
-0.046768542 -0.031193184 -0.03971524 -0.0041714213 -0.037817128 -0.027955513 -0.0010665938 0.010678968
-0.038410988 0.04870788 -0.017194053 0.016984455 -0.023536835 -0.041532453 0.025785027 -0.017875277
0.040589824 0.0018421982 -0.026814869 -0.038355764 0.0039105457 0.0061867614 -0.0033037034 -0.071904466
-0.033601403 -0.066579424 -0.08680616 -0.054006103 -0.05206646 0.04357152 0.014782501 0.018733902

backbone.9.weight f4 [64]
00000000: 2bac 803f b284 833f aaed 803f b079 7f3f
00000010: ba8b 833f 58df 7e3f a222 7c3f caa7 7c3f
00000020: 1496 7e3f 376d 823f e2d2 7a3f db0b 7c3f
00000030: df12 7d3f a4b6 7f3f 7af3 783f 1f57 7a3f
00000040: 665e 853f 2ca2 783f 3435 863f 4fa3 7f3f
00000050: 30e7 7f3f 872c 833f a064 823f 03e9 7e3f
00000060: 9595 7f3f e113 833f 5ace 843f faa3 7d3f
00000070: 23f7 803f 7fd6 803f 4885 783f 6030 813f
00000080: 529b 813f 8d94 7f3f 1291 813f 3242 803f
00000090: dc82 773f eee5 803f 531b 813f 99df 823f
000000a0: d188 7d3f ef18 803f bbf4 7a3f 6060 803f
000000b0: 9385 783f ff57 7e3f 4d12 813f 5a01 733f
000000c0: 99e7 803f b4d7 803f 2735 7c3f e868 7e3f
000000d0: 2f93 7a3f 0415 803f 6e17 7a3f c8b5 7b3f
000000e0: 0b47 7b3f 4a7b 823f c918 793f 9106 833f
000000f0: 9583 793f 177f 7b3f 631c 843f a4c3 793f
1.0052541 1.027487 1.0072529 0.99795055 1.0277016 0.99559546 0.98490345 0.98693526
0.9944775 1.018958 0.9797803 0.9845559 0.9885692 0.9988806 0.97246516 0.97789186
1.0419433 0.97122455 1.0484986 0.99858564 0.9996214 1.0247964 1.0186958 0.995743
0.9983762 1.0240442 1.0375473 0.99078333 1.007542 1.0065459 0.9707837 1.0092888
1.0125525 0.99836046 1.0122397 1.0020201 0.9668405 1.0070169 1.0086464 1.0224487
0.9903689 1.0007609 0.9802968 1.0029411 0.9707882 0.9935302 1.008371 0.9492394
1.0070678 1.0065827 0.98518604 0.99378824 0.97880834 1.0006413 0.97692 0.9832425
0.9815528 1.0193875 0.97303444 1.0236379 0.97466403 0.982408 1.0321163 0.9756415

backbone.9.bias f4 [64]
00000000: 0c1b 18bd 52ac 00bd edd6 b0bc 2b25 8fbc
00000010: 3e44 f03b 46f1 9abc f670 82bd ca92 96bd
00000020: 1a0e 12bd 3a46 acbc d54b 3abd 5f33 dfbb
00000030: 8c27 b0bc c041 a6bc 6419 36bd d49f 0abd
00000040: 06c3 87bc ace7 09bd d9c8 c1bb 8ee0 58bd
00000050: 89cc 26bd efad 41b9 3d20 4ebd 36a8 3fbd
00000060: 48f4 cfbb aeb4 39bd de74 bebc 2ddb 34bd
00000070: 6eb4 4bbc 0451 42bd fcbc 0abc 4558 adbc
00000080: 19fb 6ebd d5cb b4bc 5043 60bb 7b59 30bc
00000090: e4e8 96bd bae6 0ebd b644 14bd 47c0 53bc
000000a0: b95b 81bd b77d 3ebd 17fb bebc 254a 70bd
000000b0: 3859 8fbd e9e1 8dbc 51b8 093c 0c81 6cbd
000000c0: 4905 1cbd 05b8 ebbc 6b2a d7bc e8a1 0dbd
000000d0: b9be 87bd bc7d c0bc 4d82 11bc 305c 7cbd
000000e0: a280 67bd 8c32 38bd 985b 30bd 96e6 b4bc
000000f0: c5f9 5abc 6a1d d0bc 0a42 c9bc 558a 41bd
-0.03713517 -0.031414337 -0.02158686 -0.017473778 0.007332354 -0.018913876 -0.06369202 -0.073522165
-0.03565798 -0.02102958 -0.045482475 -0.006811544 -0.021503232 -0.020295024 -0.044457808 -0.03384383
-0.016572487 -0.033668205 -0.0059138355 -0.052948527 -0.040722404 -0.0001847071 -0.050323714 -0.046791278
-0.0063462593 -0.045338325 -0.023249086 -0.044154335 -0.0124331545 -0.047440544 -0.008467909 -0.021160254
-0.058344934 -0.022069851 -0.003421981 -0.010763521 -0.07368639 -0.034888007 -0.03619834 -0.01292426
-0.06316323 -0.04650661 -0.023313088 -0.05866446 -0.06999439 -0.017319636 0.008405761 -0.057740256
-0.038090978 -0.02877427 -0.026265344 -0.034578234 -0.06628174 -0.023497455 -0.008881164 -0.061611354
-0.05651916 -0.04497008 -0.0430561 -0.022082608 -0.013365214 -0.02540465 -0.024567623 -0.047251064

backbone.9.running_mean f4 [64]
00000000: 2229 83bf c25c 09bf 697c c9bd ec0d 65bf
00000010: 93ae 88bf 8ea7 20bf b2c1 ebbe 6de1 983e
00000020: 25dd be3d c263 83bf 92f7 8abe 38df 06bf
00000030: e566 73bf f1f9 28be e1f5 08bf a8b0 80bf
00000040: 79de 60bf c2c2 bf3e 473b 9ebe 426c 223f
00000050: c80c be3e 8c6c 51bf 106f 4d3e 4fde 16be
00000060: 9d67 3c3d f34c 04bf 315c e7be 32a6 0cbe
00000070: ac57 a3be 97a6 88bf ec45 4b3f 0ef9 a53d
00000080: c85a 08bf 5d85 79be 5444 bdbe 669b 3ebf
00000090: c13b 59bf 03ec 58bf 7967 cfbe c2b9 31bf
000000a0: 4679 3f3e db0d 10bf faa1 89bd 482f a5bd
000000b0: 1d5f 853f fa57 8ebc aae0 40bf 5989 9abe
000000c0: ddef 69bf e5e4 5cbf 0553 d5be 9f62 2dbf
000000d0: 7520 e63e 28b7 d33e 39ad 01be a773 4cbf
000000e0: 58a4 88be 65e7 723d bfeb d9be b7d9 953e
000000f0: 0d09 8e3d bfb3 733d e90b 5bbe 065b 8f3f
-1.0246928 -0.5365716 -0.098381825 -0.8947437 -1.0678276 -0.6275567 -0.46046215 0.29859486
0.09319524 -1.0264819 -0.27142006 -0.52684355 -0.9507888 -0.16501595 -0.5350018 -1.0053911
-0.87839466 0.37453276 -0.309046 0.6344644 0.37119126 -0.81806254 0.20061898 -0.14733241
0.04599725 -0.51679915 -0.45187524 -0.13735273 -0.31902826 -1.0675839 0.7940357 0.08104144
-0.5326352 -0.2436728 -0.36966193 -0.7445587 -0.848568 -0.84735125 -0.4050863 -0.6942407
0.18698606 -0.5627114 -0.06720348 -0.08065659 1.0419651 -0.017375935 -0.7534281 -0.30182913
-0.9138163 -0.86286765 -0.416649 -0.6772861 0.44946638 0.41350675 -0.12663735 -0.7986397
-0.26687884 0.059302706 -0.42562672 0.29267666 0.0693532 0.05949759 -0.21391262 1.1199653

backbone.9.running_var f4 [64]
00000000: eaa5 783e aaed 2e3e 1544 483e 9fd0 b23e
00000010: a60f 8f3e af25 e73e 3764 873e abbc 193e
00000020: d30b b23e 1451 a63e 951e 6f3f dbe5 b23e
00000030: 7340 a13e 4719 c13e 1132 243f a668 413e
00000040: aa1e 8c3e f1b9 c13e 5eec 413e 948f 433e
00000050: fe37 1b3f 0638 a43e 56ec 423e fac7 923e
00000060: cc39 7e3e 3600 2d3e 372e 463e 52ae 183e
00000070: c326 b03e a75e 383e 097e 893e c65e a53e
00000080: b49c 513e aa9c 2f3e dc7d e23e c90b b63e
00000090: af81 2d3f c25f aa3e 516d 683e cd5c 743e
000000a0: 03ba 843e 4231 7b3e 6dde 653e b755 c63e
000000b0: bfd6 dd3e 7ff3 1b3e 2048 693e 95cc 8f3f
000000c0: 2d73 fe3e ed0d bc3e 0ec5 453e 4881 383e
000000d0: 9b0d 2b3f 87f1 9f3e 4a98 9c3e 0fa0 8e3e
000000e0: 9108 403e 2c18 8f3e d2d5 943f 7e40 053e
000000f0: 7ae6 1a3f cb5b a73e c50b 5a3e fa6a 263f
0.24282041 0.17082849 0.19557221 0.3492479 0.27941626 0.45145938 0.26443645 0.15013377
0.34774646 0.32483733 0.9340604 0.3494099 0.31494483 0.37714598 0.64138895 0.18887576
0.27367145 0.37837175 0.18937823 0.1909774 0.6063231 0.32073992 0.19035468 0.28668195
0.24826735 0.16894612 0.19353567 0.14910248 0.34404573 0.18004857 0.2685397 0.3229887
0.20469934 0.17149606 0.44236648 0.35555866 0.67776006 0.33276182 0.22697951 0.23863526
0.25923166 0.24530509 0.2244813 0.3873727 0.433279 0.15229605 0.2278142 1.1234308
0.49697247 0.36729375 0.19313452 0.18018067 0.66817635 0.31238958 0.30584937 0.2785649
0.18753268 0.2794813 1.1627753 0.13012883 0.6050793 0.3268722 0.21293552 0.65006983

backbone.12.weight f4 [128, 64, 3, 3]
00000000: 4b18 32b9 266d a63c 716a 5e3c 80bb ef3c
00000010: ea5b 593c 506a 0c3d 6e72 083d 7b52 0fbb
00000020: 7a09 9abb edf8 303c 52d4 2f3d 9740 803c
00000030: b4f4 193d 20ee 683c f672 033d ff94 6cbc
00000040: 6315 99bb 34e3 793c 906e 25bc 8da1 453c
00000050: c60f ccbc 6a34 babb 6f5b 693c e6cb ecbc
00000060: ef2a b53c 74a9 02bd ddec 253c 4aaf 8f3c
00000070: b210 17bb edee df3a bbae 943c 93c6 043d
00000080: 211c 593c 1065 ff3b 1e1e 2c38 87e0 d73c
00000090: eac7 4cbc bb8d 36bb 46ae 87bc 1a03 01bd
000000a0: af7c 2dbd 87ab e03a 15ba 13bd 0bcc 77bc
000000b0: 6900 0abd b11c d73b 83cc d83a 6c3f bd3c
000000c0: 0eb4 c53c b2f5 ebbc b093 1dbc deba a8bc
000000d0: 36f4 153b 9b45 42bd 0191 403b a1a0 d8bc
000000e0: 80ae 4ebd ad58 6abc c9cb 9ebc 3f6d 32bd
000000f0: 9aaa a33c 265c f0bc 1237 203c 359f 01bd
00000100: e158 823c ddd4 d9bc c7d6 393c 8471 de3c
00000110: 1950 603c 0e9b bf3c d1aa ffbc a03d 0bba
00000120: 87d6 4d3d 9cf7 1b3c 08f6 e13c c4b9 ae3c
00000130: 9bf3 303d 3eb4 113d 10f3 24bc d76c 523c
00000140: aea6 91bc 86a3 63bd bffa 86bd 5cd1 cfba
00000150: 313b 583c 6471 3cbd a4fa 363a cbc0 06bd
00000160: 94e2 57bb ddc0 69bd 8c6c 16bd ebe8 28bd
00000170: e270 14bd 590b a3bc 7496 4bba 00a2 49bd
00000180: 2f02 4bbd 74f0 bcbc e383 31bd fa96 583d
00000190: c931 223d b7a8 253d b664 1ab8 b8f1 a23b
000001a0: 0303 383c cecd 283d 288d 323d dc83 4fbd
000001b0: d900 dfbc 5e60 f1bc e175 1bbd 7628 b73a
000001c0: f3db 25bc e102 10bd c21f e63c 97a6 0a3d
000001d0: 9cbc 453c efc5 3dbd c1c2 18bb d68a 2fbd
000001e0: a809 0dbd 033e 92bb bc96 a43c fd3e 66bc
000001f0: 8bc2 99ba ea39 06bb 3aab 633b 0020 d73b
00000200: 41ff f3ba 8645 913c 746c 7c3c eb9a 393a
00000210: 47d1 acbc 6e18 873c 28a6 01bc 0252 093c
00000220: a93c 0b3d 41c8 823c cda3 fb3c 1ef6 963c
00000230: 606b d7bc 71dc 623c dd6c a03c 3eb8 203d
00000240: b6a1 99b9 e41b 7cbd f117 3dbd 878b debc
00000250: d397 7ebd db23 4dbd 4cbe 60bd 1dfe 6bbc
00000260: d316 d6bc 6dff 4d3c 662a 163d 3022 2f3c
00000270: 1760 0bbc bbaf ab3c 2a60 b33a 988a 79bb
00000280: bb30 313d 21b8 6f3d 9f6e bcbb a60f 873b
00000290: 216e 3d3d 9118 c13c bf9f 8cbb ea9d 413c
000002a0: d4e6 c63c 34c1 3e3d d7c7 e83c c07a e7bc
000002b0: ac28 12bd 4658 ff3b 9e92 9b39 7d72 eb3a
000002c0: 8ee7 e0bc 68fe 8fbb 66ef 3abc 650d 1abd
000002d0: 2725 3cbd cbc8 07bc ad70 643c ae56 dbbb
000002e0: 6e46 41bc 2b1f 18bd 8495 44bd 35b0 4dbc
000002f0: bfc4 033c 7216 dabc 7eb9 183b dcbc 4b3c
00000300: 6e27 79bc 34f1 033d b2dc ffbc c4a9 7d3c
00000310: 3454 01bc 9fd1 673b 1450 55bc 25d6 583b
00000320: 9453 ef37 09b3 c7bc 7c8d 96bb d1e8 4fbd
00000330: 96cf c9bc 64f8 08bd 0120 9f3c e502 633d
00000340: 0b15 833c a167 bfbc 002e fc3b 9d43 00bc
00000350: 05aa 1bbc 99d1 5e3c 64ec 753b bdcb b8bb
00000360: 7420 2b3d ffdf 1bbc 670a 603d 99b4 10bc
00000370: 401f a03c e417 f4bb a697 2a3d fd64 933c
00000380: 3ae7 153d 8496 0b3c 513e 3c3c e4d5 d43b
00000390: 3668 ba3c 5e9f 52bb bb3c 183d c9cc a23c
000003a0: ec71 973c 5bed 943c 4a0d f73b 22bb cf3c
000003b0: 4e53 bb3b 7a7d eebc d12b c03c 6023 543c
000003c0: 1f14 99bb 377f 333d 7b32 963c 47c7 afbb
000003d0: bacc b8bc dbad 00bd c162 eebb 05af 2e3c
000003e0: 431f 3abb d7ba 63bb 0f62 963b df13 6fbc
000003f0: 5462 c93c faf7 073d f3da b9bc 4a39 7f3c
-0.00016984453 0.020315718 0.013575182 0.029264212 0.013266543 0.034281075 0.033312254 -0.002186923
-0.0047008367 0.010801536 0.042927094 0.015655799 0.037586883 0.01421693 0.032092057 -0.01443982
-0.004671739 0.015251923 -0.010097161 0.0120624425 -0.024909865 -0.005682518 0.014242991 -0.02890582
0.022115199 -0.031899884 0.010127273 0.017539639 -0.0023050723 0.0017084755 0.018149724 0.032415938
0.013251335 0.00779403 4.1036044e-05 0.02635218 -0.012498835 -0.0027855474 -0.016562592 -0.0314971
-0.042355236 0.0017140963 -0.036066134 -0.015124331 -0.033691797 0.0065646996 0.0016540441 0.023101531
0.024133708 -0.02880368 -0.009617731 -0.020596918 0.0022881157 -0.047429662 0.0029383304 -0.026443781
-0.050459385 -0.0143033685 -0.019384282 -0.043561216 0.01997881 -0.029340815 0.009778755 -0.031645972
0.015911521 -0.026590759 0.011342711 0.027153738 0.013690972 0.023389366 -0.031209381 -0.0005311612
0.050253417 0.009519484 0.027583137 0.021328814 0.04320107 0.035572283 -0.010067716 0.012843332
-0.017779674 -0.05557587 -0.06590795 -0.0015855241 0.013197706 -0.046006575 0.00069800974 -0.032898705
-0.0032941448 -0.057068694 -0.036724612 -0.041237753 -0.036240466 -0.019902872 -0.0007766255 -0.04922676
-0.04956263 -0.023063876 -0.043338668 0.052878357 0.03959826 0.040444102 -3.6810256e-05 0.004972663
0.011231187 0.041211896 0.04359165 -0.05066286 -0.027222084 -0.029464897 -0.037954215 0.001397385
-0.010123241 -0.035158996 0.028091315 0.03385028 0.012068894 -0.046331342 -0.0023309442 -0.042857014
-0.034433037 -0.004462959 0.020091407 -0.0140531035 -0.0011730952 -0.0020481297 0.003473951 0.006565094
-0.00186155 0.017733347 0.015406717 0.00070802745 -0.021095885 0.016491141 -0.00791315 0.008381369
0.033993397 0.01596463 0.030717755 0.018427905 -0.026296318 0.013846503 0.01958316 0.039238207
-0.00029302918 -0.061550036 -0.04616541 -0.027166141 -0.06215651 -0.050083023 -0.05486898 -0.014403847
-0.02613393 0.012573105 0.036661528 0.010689303 -0.008506796 0.020957818 0.0013685275 -0.0038076993
0.043259364 0.05852521 -0.0057504917 0.0041217385 0.046247605 0.023571284 -0.004291504 0.011817435
0.02427999 0.04657097 0.028415604 -0.028256774 -0.03568332 0.0077925054 0.00029673142 0.0017963197
-0.027454164 -0.0043943413 -0.011409616 -0.03761043 -0.04593387 -0.008287619 0.01394288 -0.0066936826
-0.011796577 -0.0371391 -0.04799415 -0.012554218 0.008042513 -0.02662203 0.0023303921 0.012435164
-0.015207155 0.03221245 -0.031233165 0.01548237 -0.007893611 0.0035372747 -0.01301958 0.0033086624
2.852994e-05 -0.024377363 -0.004594503 -0.05075914 -0.024635118 -0.03344001 0.01942444 0.055422682
0.016001245 -0.023364844 0.0076959133 -0.00782862 -0.009500985 0.013599777 0.0037524933 -0.005639522
0.041778997 -0.009513854 0.05469742 -0.00883212 0.019546151 -0.007449137 0.04164853 0.01799249
0.036597468 0.008519772 0.011489467 0.0064952243 0.02275477 -0.0032138447 0.037167292 0.01987304
0.01848694 0.018179586 0.007539426 0.025357787 0.005716718 -0.029112566 0.023458393 0.012947887
-0.004671588 0.043822493 0.018334618 -0.005364332 -0.022558559 -0.0314158 -0.007274956 0.010661845
-0.002839998 -0.0034748816 0.004589326 -0.01459214 0.02458302 0.033195473 -0.022687411 0.015577624

backbone.13.weight f4 [128]
00000000: 8eff 8d3f dc8e 8b3f 772c 893f 34a9 893f
00000010: 9d64 8f3f 0aa7 8b3f 4266 863f 823e 8e3f
00000020: da17 8f3f af7c 8a3f 322e 893f a367 8c3f
00000030: dc0b 8d3f 6e04 8b3f 8b13 893f 7a12 8f3f
00000040: 544c 8d3f 3e34 8d3f 7ebc 8b3f 1d51 8d3f
00000050: b66d 8e3f 627b 8e3f c59b 8c3f a2e7 893f
00000060: 96a3 8d3f 1860 8d3f 19e1 8c3f 1775 8c3f
00000070: 4f9e 8a3f 3ab6 8b3f 2fb0 8b3f 33ba 8c3f
00000080: db68 8a3f 83cd 8a3f 5baa 8c3f 26ef 8f3f
00000090: fc42 8c3f 741f 8c3f 948f 8a3f 8864 8c3f
000000a0: de5e 893f c001 8b3f c2c4 8c3f 4581 8b3f
000000b0: a28d 8b3f 91f9 893f 5e02 8a3f 9319 893f
000000c0: b2eb 8e3f ca83 8d3f 5941 8c3f 89b6 8b3f
000000d0: 1cb4 883f 6534 893f abe0 8b3f 0f33 8a3f
000000e0: d4de 8d3f 1362 8a3f 7f75 8f3f e3e9 8d3f
000000f0: a292 8a3f 7bce 8a3f 410c 8e3f 6ffd 8c3f
00000100: 014b 8a3f 3870 8a3f 2b47 8a3f f1e8 893f
00000110: 01c0 8b3f d9e7 8b3f cfac 8e3f 94ca 8c3f
00000120: 806b 8c3f 5b18 883f b0e7 8a3f 417f 8e3f
00000130: 594e 8d3f 4958 8c3f 6d07 8a3f dd1c 8b3f
00000140: 7b68 8c3f a0b4 8a3f d16c 8d3f 94de 8a3f
00000150: 23fa 8a3f 429a 8e3f c2fc 8d3f 93ab 8b3f
00000160: dd52 873f 8c35 8c3f f405 8d3f 80de 8b3f
00000170: 2f08 893f 6280 923f 37cf 8d3f 1bd8 8e3f
00000180: 87bd 8a3f 6d1c 8c3f 9a94 8c3f 4c53 8d3f
00000190: 7774 8a3f 9201 8c3f 5a67 8d3f b1ee 8d3f
000001a0: 37f0 8b3f 2709 8b3f 3a99 8b3f a14e 8c3f
000001b0: ce49 8e3f f899 8a3f f36c 8b3f 327c 8a3f
000001c0: 9f59 8d3f 46de 8a3f 0ead 8d3f 5891 883f
000001d0: 965f 8a3f b022 8c3f a414 8c3f bb90 8d3f
000001e0: 702d 8b3f b88d 8c3f 940a 8f3f d328 8d3f
000001f0: 36af 8b3f b245 8d3f 4878 8e3f 98f0 8c3f
1.1093614 1.0902972 1.0716695 1.0754762 1.120258 1.0910351 1.0499957 1.1112826
1.1179154 1.08193 1.0717223 1.0969127 1.1019244 1.0860727 1.0709089 1.1177514
1.1038918 1.1031568 1.0916898 1.1040379 1.1127231 1.1131403 1.0985037 1.0773814
1.1065547 1.104495 1.1006194 1.0973233 1.0829562 1.0914986 1.0913142 1.0994323
1.0813249 1.0843967 1.0989488 1.1244857 1.0957942 1.0947099 1.0825067 1.096818
1.0732076 1.0859909 1.0997546 1.0898825 1.0902598 1.0779287 1.0781972 1.071093
1.1165679 1.1055844 1.0957443 1.091508 1.0679965 1.0719115 1.0927938 1.0796832
1.1083627 1.081118 1.1207732 1.1087002 1.0825999 1.0844263 1.109749 1.1014842
1.0804139 1.0815496 1.0802969 1.0774213 1.091797 1.0930129 1.1146487 1.0999322
1.0970306 1.0632433 1.0851955 1.1132585 1.1039535 1.0964442 1.0783516 1.0868183
1.0969385 1.0836372 1.1048833 1.0849175 1.0857586 1.1140826 1.109276 1.0911735
1.0572163 1.0953841 1.1017442 1.0927277 1.0705622 1.1445429 1.1078862 1.11597
1.0839089 1.0946175 1.098285 1.1041045 1.0816792 1.0937979 1.1047165 1.1088468
1.0932683 1.0862168 1.0906136 1.0961496 1.1116273 1.0828238 1.0892624 1.0819151
1.1042975 1.0849082 1.1068437 1.0669355 1.081042 1.0948086 1.0943799 1.1059793
1.0873241 1.0980749 1.1175103 1.1028084 1.0912845 1.1036894 1.1130457 1.1010923

backbone.13.bias f4 [128]
00000000: 8f6e a43d e398 8f3d d6e8 353d 3e00 303d
00000010: 604e c13d 9424 893d bbe2 c43c c9f3 a43d
00000020: 4458 af3d b45f 5f3d d6f9 083d 630b 723d
00000030: 512d 783d db8b 7b3d a929 1c3d 8369 b73d
00000040: 9ac3 693d 6f74 913d a426 4f3d 0d7f 993d
00000050: 1504 883d 28c5 953d 13dd 893d a21d 433d
00000060: 6fc7 8e3d b40b 8c3d 50eb 323d ecb4 673d
00000070: 76d5 783d 0356 643d 3717 613d fee1 723d
00000080: fc3c 463d 2512 3c3d 9f95 843d 7406 ac3d
00000090: 49af 813d 4972 783d 335a 183d f1c4 7e3d
000000a0: 1f59 113d c9b5 523d 9253 843d c2cf 033d
000000b0: fc74 6a3d 0f9a 183d 2d9d 623d ab5e 0e3d
000000c0: 4344 b93d f4a8 943d efab 6b3d 5eb9 5c3d
000000d0: 27de 3b3d d88f 2f3d 93ae 8e3d f52f 4d3d
000000e0: f1c4 a13d 99c4 563d 58fb a33d 6d33 a93d
000000f0: eebf 573d 2cf9 473d 460f 8d3d 4746 813d
00000100: 18a9 413d 2789 2c3d 6d75 503d 9ab1 4a3d
00000110: 850a 393d d7d3 763d 1254 9c3d d1b7 893d
00000120: e51d 603d e206 fd3c 671e 823d 21a9 883d
00000130: 3d2d a63d b3b6 833d cc52 0b3d 0f6b 673d
00000140: 5a53 7c3d dbc6 453d fc1f 623d 3f32 753d
00000150: cd0c 503d 70de b03d edb2 a33d a692 6d3d
00000160: 7dc4 dc3c 606f 763d b318 883d c294 563d
00000170: 5b4e 1f3d c793 c63d b30b 9a3d d44e 963d
00000180: 48bc 473d a9fa 833d 2f16 803d 7ef9 8f3d
00000190: b74e 413d 98b3 6a3d c338 8c3d e22c 7d3d
000001a0: f745 813d c7a3 473d df71 5b3d 6535 673d
000001b0: 5af0 b33d 912f 683d e2b8 3b3d f159 543d
000001c0: 59a0 833d 134f 4d3d b038 943d 0bd8 0d3d
000001d0: a4ae 1e3d 4e57 823d da20 8a3d c994 953d
000001e0: c54a 383d 6f0e 913d ec4f ac3d da79 853d
000001f0: 8e4b 843d 8cf2 813d 09a1 933d b01c 833d
0.080289 0.07011583 0.044411503 0.04296898 0.09438777 0.0669643 0.024033895 0.08054311
0.08561757 0.05453463 0.033441387 0.05909289 0.060590092 0.061412673 0.038125668 0.08955672
0.057071306 0.07102286 0.05057396 0.07494936 0.066414036 0.07312995 0.0673162 0.047635682
0.06971633 0.0683817 0.043681443 0.056569025 0.060750447 0.05574609 0.05495378 0.059297554
0.048398003 0.04591574 0.064738505 0.08399668 0.06332261 0.060655866 0.037195396 0.062199537
0.035485383 0.051442895 0.06461252 0.032180555 0.05724047 0.037256297 0.055325676 0.03475825
0.09046223 0.07258788 0.057537016 0.053887717 0.045866158 0.04286179 0.06966891 0.050094564
0.07898892 0.052433584 0.080069244 0.08261762 0.052673273 0.048821613 0.06887679 0.063122325
0.0472804 0.042122986 0.050893236 0.04948578 0.045176048 0.06026062 0.07633223 0.06724513
0.05471601 0.030887071 0.06353455 0.06672884 0.08114097 0.064313315 0.034014508 0.056498583
0.061602928 0.048285346 0.055206284 0.05986237 0.050793458 0.086361766 0.07993112 0.058001183
0.026949162 0.06016481 0.06645336 0.05238796 0.038893085 0.09696155 0.07521763 0.07339254
0.048763543 0.06444294 0.06254231 0.07030009 0.04719421 0.05730018 0.06846764 0.06181038
0.06312173 0.048740175 0.053575393 0.056447405 0.08786078 0.056685988 0.045830615 0.051843587
0.06427068 0.05012424 0.07237375 0.034629863 0.03874077 0.06364308 0.06744547 0.07303769
0.04499318 0.07082831 0.084136814 0.06517382 0.064597234 0.0634509 0.072084494 0.06401956

backbone.13.running_mean f4 [128]
00000000: c41e fb3d 5e1d 3d3f dc04 2bbe fe35 0cbc
00000010: 5208 c8bd 0ec7 0ebe daad 27bf 1ec9 8b3c
00000020: e3d2 87be 9284 4bbe dd58 823f d236 4abd
00000030: 2f3a b4bd abd3 9dbe 7e99 8a3f 4518 2abe
00000040: 39e9 d73d 8757 a03e 0f30 2d3e 7725 b23e
00000050: de05 723e 8041 043d 5cf0 2d3f 6b28 523e
00000060: 659f 4b3e d6c2 423f a5d0 9ebc 1184 2d3f
00000070: ac8a 00bf 0b42 623e 04b9 96be 6d9c d5be
00000080: 13f4 9ebe d34d 99be cc1b 283e fb02 bf3e
00000090: 342a cd3e 0031 6ebd 643b f33e a5d2 bb3e
000000a0: 7adf ab3e a78b b13e edd7 003f fd29 363f
000000b0: 388d fd3e 64f7 94bd 32be 213e 59af 2a3f
000000c0: 8476 163d e08e 903e f3be 4a3f abce 3f3f
000000d0: 4295 693f 23d7 153f 9d98 60bd 768d 3b3e
000000e0: ceaa 4d3f 5ea9 5e3d 2fe3 3b3f 8416 fd3e
000000f0: a7da 14bb 58d4 a43f d683 c1bd 13de 5a3d
00000100: 60d1 1b3f 148c 883f 4476 293f 048c c6be
00000110: e088 453f bd0d 103f b377 2bbe 45b4 bf3e
00000120: de16 803f d63d 00be 1616 cb3e eb03 8f3e
00000130: eb87 56be 1d3c debe a86a 78be e442 833e
00000140: 2b3a e3bd ee9b 223f 006a c63e d09b f53e
00000150: 7d8d fd3d 5fa1 a8be afac 28bd 983b 683f
00000160: 5b91 3abf 0c45 423f a2ed da3d 0242 69bd
00000170: 8cb3 26bd f89c 093f 623d 24be 126e bdbd
00000180: 0e7e 4c3f 4031 503e c769 523f 5202 293f
00000190: b9df 113e fc08 2a3f d108 5f3a a571 103e
000001a0: 8a93 93bd f80c a83e f39f 973f 9d1a 4a3f
000001b0: fb43 23bc 55c5 9f3e f726 93bd efdf 893f
000001c0: c978 8b3e 6781 93be 0b88 84bf 192a 693e
000001d0: a6d1 7d3e 99ac 3ebf 1c58 983f d434 ae3c
000001e0: 9b23 013f 846f 42bd 0369 27bf e85c fd3e
000001f0: c4a3 903e 8861 a53e 5b15 bf3b 417f 74bd
0.122617275 0.73872936 -0.16701072 -0.008557795 -0.09767212 -0.13943121 -0.6549965 0.017063674
-0.2652808 -0.1987479 1.0183369 -0.049368687 -0.0880016 -0.30825552 1.0828092 -0.1661082
0.105425306 0.31316778 0.16912864 0.34794208 0.2363505 0.03228903 0.67944884 0.2052323
0.19885023 0.76078546 -0.019386599 0.6777964 -0.50211596 0.22095506 -0.2943803 -0.41720906
-0.3104559 -0.29942188 0.16416854 0.3730696 0.4007126 -0.0581522 0.4750625 0.36684147
0.33568937 0.3467686 0.50329477 0.7115782 0.49521804 -0.072737485 0.1579521 0.6667381
0.03673412 0.28234005 0.79197615 0.74924725 0.91243374 0.585314 -0.054833043 0.18315682
0.8033875 0.05436074 0.7339353 0.4943124 -0.0022713335 1.2877302 -0.09448974 0.053434443
0.60866356 1.0667748 0.66196084 -0.38778698 0.7716198 0.5627096 -0.1674488 0.37442222
1.0006979 -0.12523589 0.39665288 0.27932677 -0.20950286 -0.43405238 -0.24259436 0.2563697
-0.11095079 0.6351918 0.38752747 0.47970438 0.123805024 -0.32935616 -0.04118031 0.9071593
-0.72878045 0.7588661 0.10689856 -0.056947716 -0.040698573 0.5375514 -0.1603904 -0.0924951
0.79879844 0.20331287 0.82192653 0.66019166 0.142455 0.6641996 0.00085080886 0.14105852
-0.07205875 0.32822394 1.1845688 0.7894686 -0.009964938 0.3120524 -0.07185166 1.0771464
0.2724059 -0.28809664 -1.0354017 0.22769965 0.24787006 -0.74482113 1.1901889 0.021265425
0.50444955 -0.04746963 -0.6539461 0.49484944 0.28249943 0.32300973 0.005831403 -0.05969167

backbone.13.running_var f4 [128]
00000000: e727 e63d 5153 273e 1355 143e 0b36 313e
00000010: 99cc 243e 2e6b 0d3e c386 143e 9745 123e
00000020: 1bb5 053e d68b 483e 32fb 293e ca29 093e
00000030: 9dc9 ec3d c432 1a3e 4acd 113e 7ff8 1b3e
00000040: 0130 133e 485d 093e 45ff fd3d 13e6 c73d
00000050: c3d6 143e f761 d03d 31b1 033e d4e3 523e
00000060: cee7 103e c8a2 183e b3ca 193e e6e6 173e
00000070: 86e4 ec3d f977 513e ad36 153e d44e 393e
00000080: 4295 3f3e 0eca 263e 4373 f33d 1b10 393e
00000090: 9206 bb3d 5658 113e b140 573e cfbc 133e
000000a0: fe79 f43d 155e 743e 722e 393e 3e47 123e
000000b0: 9d6a de3d 7e25 523e 087d ee3d b62f 5d3e
000000c0: ea27 ce3d 6579 083e 4ff9 543e 64b0 103e
000000d0: 1b39 693e 8015 d73d 58c5 3e3e 7164 073e
000000e0: a79c 0a3e cd4d 193e 34f7 ee3d 9977 183e
000000f0: 617f 013e d171 2e3e a97b 2e3e ec27 fa3d
00000100: c202 fb3d 1d0c 123e d988 0d3e ff7c 143e
00000110: 5036 253e 8b9a 073e 3bc2 083e 0f4d 183e
00000120: 2039 1c3e e878 3d3e ed53 193e 7576 1b3e
00000130: 6d39 0d3e 6ca6 1f3e 17a7 b83d 1823 c63d
00000140: 9557 013e b5a7 2a3e 7b0f ff3d e993 153e
00000150: 955a 243e 8d3b 353e 43f0 ea3d ca1f 393e
00000160: dd3b 1f3e 0726 143e d190 e63d 5bff 063e
00000170: 0398 723e 5f3f 273e 3147 d03d 3336 423e
00000180: 91a0 ea3d 6298 ca3d 5f1a 1c3e e7e7 003e
00000190: 58a1 303e e84d 323e 5b06 d93d 804c 343e
000001a0: 3cab ef3d b15c 4a3e 057e 253e 2599 133e
000001b0: 181c 213e 0f2f 1a3e 8b29 013e 070d 4e3e
000001c0: 0dd0 fa3d 48e7 073e b47b 243e 0b86 043e
000001d0: dc03 123e c132 2b3e 92e2 f63d 6abc 283e
000001e0: cbf7 353e 91d9 e43d f572 f33d dd63 123e
000001f0: e51d fa3d 3deb de3d a084 053e 5696 1c3e
0.112380795 0.16340376 0.14485578 0.17305772 0.16093673 0.13810417 0.14504533 0.14284359
0.13057368 0.19584593 0.1659973 0.13394848 0.11561892 0.15058428 0.14238468 0.15231512
0.14373781 0.1341449 0.124022044 0.0976068 0.1453505 0.10174935 0.12860562 0.20594722
0.14150926 0.14905846 0.1501873 0.14834175 0.11567025 0.20455922 0.14571638 0.18096477
0.18709281 0.16288015 0.11887219 0.1807255 0.091321126 0.14193854 0.21020772 0.14427494
0.11937331 0.23864014 0.18084124 0.14284989 0.108601786 0.20522115 0.116449416 0.21600232
0.10066207 0.13327558 0.20798229 0.14129788 0.2277569 0.10502148 0.18629968 0.13221909
0.1353632 0.14971085 0.11668244 0.14889373 0.12646247 0.17035605 0.1703936 0.12214646
0.122563854 0.14262433 0.13821734 0.14500807 0.16134 0.13242547 0.13355343 0.14873146
0.15256166 0.18503153 0.14973421 0.15181907 0.13791437 0.15590829 0.09016245 0.09674662
0.12631066 0.16665538 0.124541245 0.14607204 0.1605018 0.17698498 0.114716075 0.18078533
0.1555018 0.14467631 0.1125809 0.13183348 0.236908 0.16332768 0.10169829 0.18965988
0.11456407 0.09892346 0.15244435 0.12588464 0.17249048 0.17412531 0.10596915 0.17607307
0.11702582 0.19761921 0.16161354 0.14413889 0.15733373 0.15057014 0.12613504 0.20122157
0.12246714 0.1327182 0.16062814 0.12941758 0.14259285 0.1671858 0.120549336 0.16478124
0.17770307 0.1117431 0.11887161 0.14295907 0.12212733 0.10884712 0.13038874 0.15291724
