results/cnn_feature/baseline_hist_eq/cnn_refit.pt (torch, 473171 bytes, 24 tensors)

backbone.0.weight f4 [16, 1, 3, 3]
0	0x3e8bb545	0.27286735
1	0x3e2a2036	0.1661385
2	0xbea62e90	-0.324574
3	0xbe3b444c	-0.18287772
4	0x3da1f4be	0.07908009
5	0x3e4ffe40	0.20311832
6	0xbdf408e1	-0.11915756
7	0x3e01caa7	0.12674962
8	0x3e14e776	0.1454142
9	0x3dc0c905	0.094133414
10	0x3e4fb98b	0.20285623
11	0xbd8c528d	-0.06851683
12	0xbc2d4c01	-0.010577203
13	0xbe803f61	-0.25048354
14	0x3e0b6f8c	0.1361677
15	0xbd849486	-0.06473641
16	0x3d6e9959	0.058251712
17	0xbe16f781	-0.14742853
18	0x3e114602	0.14186862
19	0xbd3abafa	-0.04558847
20	0x3da9f36c	0.08298382
21	0xbe810e37	-0.25206158
22	0x3e319e24	0.17345482
23	0xbd0de6c4	-0.034643903
24	0x3c863b32	0.016385648
25	0xbe935613	-0.28776607
26	0x3e8be828	0.2732556
27	0xbe6d8f46	-0.23199186
28	0xbe818832	-0.2529922
29	0x3d981d0f	0.074274175
30	0xbe9ebffb	-0.31005844
31	0xbe4ddd38	-0.2010392
32	0x3c200bfa	0.00976848
33	0xbe6ef315	-0.23334916
34	0xbe9b3cfc	-0.30319965
35	0x3deead2b	0.11654123
36	0xbea24472	-0.31692845
37	0x3e71330f	0.23554634
38	0x3c95f3c2	0.01830471
39	0xbdc065bd	-0.09394405
40	0x3b829063	0.0039844974
41	0xbdc9a4d2	-0.0984589
42	0x3d63c15d	0.055604327
43	0x3df43d33	0.11925735
44	0x3ea941a9	0.33057907
45	0xbeabd123	-0.33557996
46	0xbe08acea	-0.13347211
47	0xbdc81ce4	-0.097711354
48	0xbe828653	-0.25493106
49	0xbe548c2c	-0.20756596
50	0xbe5640e1	-0.20923187
51	0xbe462c0b	-0.19352739
52	0x3dae1e42	0.08501865
53	0xbe9a1499	-0.3009384
54	0xbe9dc7ac	-0.308164
55	0x3c24d61d	0.010060814
56	0xbe6b2927	-0.22964917
57	0x3ea29953	0.31757602
58	0x3e9c35b0	0.3050971
59	0x3e884602	0.26615912
60	0x3e8d4e3b	0.27598748
61	0x3b296e3f	0.0025853065
62	0xbe575fc2	-0.21032622
63	0xbe2c763a	-0.16841975
64	0xbe75a8c2	-0.23990157
65	0x3e0d6fd7	0.13812195
66	0xbe4fb7df	-0.20284985
67	0xbe61763f	-0.22017764
68	0xbe8b2f4b	-0.2718452
69	0xbe357c0a	-0.17723098
70	0x3d0edeed	0.034880567
71	0x3e07b6e2	0.13253358
72	0xbe7fdd94	-0.24986869
73	0x3d16d3bb	0.036823016
74	0x3ddde370	0.10834396
75	0x3e9ed04f	0.31018302
76	0xbe5a94e5	-0.21345861
77	0xbea11c7b	-0.3146704
78	0x3e8ab3f1	0.2709041
79	0xbd9cf139	-0.07663197
80	0x3dfc377b	0.123152696
81	0xbe8d9219	-0.27650526
82	0xbe82efd0	-0.25573587
83	0x3ea5ea82	0.32405478
84	0x3bc21428	0.005922813
85	0x3e2b9e7b	0.16759674
86	0xbe19b3a3	-0.15009932
87	0x3e9b5f25	0.30346027
88	0xbe9c15d7	-0.30485412
89	0x3e7a81f7	0.2446364
90	0x3e7aeb87	0.24503909
91	0xbd07d104	-0.033158317
92	0x3da6aa0d	0.08137903
93	0xbe8797d3	-0.2648302
94	0xbdbfe936	-0.09370653
95	0x3ea513b1	0.32241586
96	0x3e21e786	0.15810975
97	0x3d8ce8e5	0.068803586
98	0x3e646318	0.22303426
99	0x3de7743a	0.11301465
100	0xbdebc24d	-0.11511669
101	0x3de5cfe2	0.11221291
102	0xbe8f8701	-0.28032687
103	0xbe4144f5	-0.18873961
104	0xbd9d8e58	-0.076931655
105	0xbdf6e126	-0.120546624
106	0xbe4f4027	-0.20239316
107	0x3e785a7e	0.2425327
108	0xbe109e5f	-0.14122914
109	0x3e0bf5f5	0.13668044
110	0x3e3aad1f	0.18230103
111	0xbead99ce	-0.33906406
112	0x3e80dea0	0.2516985
113	0xbdc6c91a	-0.09706326
114	0xbe8fc882	-0.28082663
115	0x3e9a35ab	0.3011907
116	0x3e3b1576	0.18269905
117	0xbe56fee8	-0.20995677
118	0xbe21af81	-0.15789606
119	0xbea3371b	-0.3187798
120	0x3d4e3684	0.05034496
121	0xbe96cda7	-0.29453775
122	0xbe41ef82	-0.18939021
123	0xbe88b550	-0.2670083
124	0xbdbd9549	-0.092569895
125	0x3d26dff4	0.040740922
126	0xbe5e502b	-0.21710269
127	0xbd9bc523	-0.0760596
128	0xbe012c60	-0.12614584
129	0x3e15015a	0.14551297
130	0xbda11a5e	-0.07866357
131	0xbde90195	-0.11377255
132	0xbe7e3538	-0.24824989
133	0xbe123d72	-0.14281252
134	0x3e57228d	0.21009274
135	0xbea9c074	-0.33154643
136	0x3e192467	0.14955293
137	0x3d4c4ca9	0.049877796
138	0x3d8a546a	0.06754382
139	0xbd9bda12	-0.07609953
140	0xbe6130e8	-0.21991313
141	0x3d8e00ce	0.06933747
142	0x3d38f52e	0.045155697
143	0xbe849c6a	-0.25900584

backbone.1.weight f4 [16]
0	0x3f80dd1c	1.0067477
1	0x3f7ab2c3	0.9792902
2	0x3f82e248	1.0225306
3	0x3f7cb800	0.9871826
4	0x3f7eb08c	0.9948814
5	0x3f7b55f7	0.98178047
6	0x3f822115	1.0166346
7	0x3f7e9c77	0.99457496
8	0x3f82a542	1.0206683
9	0x3f7fc9ae	0.99917114
10	0x3f80447a	1.0020897
11	0x3f7e5da5	0.9936164
12	0x3f800062	1.0000117
13	0x3f7cec93	0.98798484
14	0x3f7c0c99	0.9845672
15	0x3f7c6b07	0.9860081

backbone.1.bias f4 [16]
0	0xbbb6f2c6	-0.00558314
1	0x3d1bb4da	0.03801427
2	0xbd24656f	-0.040135797
3	0xbd443c2d	-0.04790895
4	0xbc9c5000	-0.019081116
5	0xbc1f00c7	-0.009704775
6	0x3cc15fb6	0.023605209
7	0x3bf3d9d8	0.0074417405
8	0x3cd82083	0.02638269
9	0x3a4fba43	0.00079241785
10	0x3c3e9b62	0.011633726
11	0x3b0dd935	0.0021644358
12	0xbc6271c0	-0.013821065
13	0xbc55f4f4	-0.01305889
14	0xbd3f4ed0	-0.04670602
15	0x3bcfd6b5	0.0063427337

backbone.1.running_mean f4 [16]
0	0x3a7dd5df	0.00096830534
1	0x3a7102c4	0.00091938325
2	0x3935501b	0.00017291347
3	0xbc1980b7	-0.009369067
4	0xbb0334f1	-0.002002057
5	0xbc2bf169	-0.010494568
6	0x3a0bd899	0.0005334705
7	0xbbd35db0	-0.0064503774
8	0x3afeb298	0.0019431887
9	0xb9fb61a4	-0.000479472
10	0x3b60e777	0.0034317651
11	0xbb1f540b	-0.0024311568
12	0xbb821e96	-0.0039709313
13	0xbc06330e	-0.008190883
14	0xbba45a90	-0.0050156787
15	0xbb316328	-0.0027067158

backbone.1.running_var f4 [16]
0	0x3e0a831b	0.13526575
1	0x3bd2e07c	0.006435452
2	0x3c2ab562	0.010419222
3	0x3fdc3d60	1.720623
4	0x3da2a65d	0.079418875
5	0x4023d106	2.5596328
6	0x3e4f22c5	0.20228107
7	0x3f6b98e4	0.9203017
8	0x3c2fb5ec	0.010724526
9	0x3c809361	0.015695276
10	0x3ef3f987	0.47651312
11	0x3e8d159b	0.27555546
12	0x3d8e7f53	0.06957879
13	0x3ffd3314	1.9781213
14	0x3ece4360	0.40285778
15	0x3e780225	0.24219568

backbone.4.weight f4 [32, 16, 3, 3]
0	0x3d8d7156	0.06906383
1	0xbc264c20	-0.010149986
2	0x3d156d31	0.036481086
3	0x3d2f0bee	0.042735986
4	0x3d26cd38	0.040723056
5	0xbb06b7d8	-0.0020556357
6	0x3b0bcb72	0.002133098
7	0x3d829208	0.063755095
8	0x3d22d410	0.03975302
9	0x3d09bebf	0.033629175
10	0xbd8f9a5d	-0.07011864
11	0x3d50e56d	0.051000047
12	0x3ad2cb1e	0.0016082262
13	0x3d028b26	0.031870984
14	0x3ca97cf9	0.020689474
15	0xbd3e3c5e	-0.04644429
16	0x3d25c380	0.040469646
17	0x3d3f129a	0.0466486
18	0xbc11f575	-0.008908619
19	0xbd2f21f4	-0.04275699
20	0xbdd63df2	-0.10461034
21	0xbc886dfb	-0.016654005
22	0x3da3f51a	0.08005734
23	0x3d8f4fc5	0.06997637
24	0xbc28dd15	-0.010306616
25	0x3d4730dc	0.04863058
26	0xbd47af53	-0.048751187
27	0xbc940a95	-0.018071452
28	0x3d564f96	0.052321993
29	0xbd255564	-0.040364638
30	0xbc11a4dc	-0.008889403
31	0x3da5b13f	0.08090448
32	0x3d95d261	0.07315517
33	0xbc858b82	-0.016301874
34	0x3d7138e8	0.05889216
35	0x3cddb183	0.027062183
36	0x3d1ba451	0.0379985
37	0x3d0a9e8b	0.033842605
38	0x3da09435	0.07840768
39	0x3d44e63a	0.048071124
40	0xbb58678e	-0.0033020708
41	0xbd9a4ff5	-0.07534782
42	0x3d1d32bc	0.038378462
43	0xbcf36fc3	-0.029716378
44	0xbc9760d8	-0.018478796
45	0xbb12c84f	-0.0022397225
46	0x3d8cb88d	0.06871138
47	0xbd85ba13	-0.065296315
48	0xbb30e6aa	-0.0026992955
49	0x3b4ea662	0.0031532277
50	0xbc8d3aca	-0.017239947
51	0xbdb23a13	-0.08702483
52	0x3d754f82	0.059890278
53	0xbd39d779	-0.045371506
54	0x3d43b327	0.047778275
55	0xbbcd3e84	-0.006263556
56	0xbbb01093	-0.0053730696
57	0xbd8793c1	-0.06619979
58	0xbd392e1e	-0.045209996
59	0xbcd05f88	-0.025436178
60	0x3b485f1f	0.0030574275
61	0xbd52bb53	-0.051448178
62	0xbd468764	-0.048468962
63	0xba2df067	-0.0006635249
64	0xbc866e34	-0.01640997
65	0x3d436116	0.04770001
66	0xbdb2c084	-0.08728126
67	0x3c731064	0.014835451
68	0x3dc24992	0.09486689
69	0x3d96cc71	0.07363213
70	0x3c8d41ad	0.01724323
71	0xbd2ba1af	-0.04190224
72	0xbc9649fc	-0.018345825
73	0x3d8111c0	0.06302214
74	0x3d5b137f	0.05348539
75	0x3d9f3ad2	0.07774891
76	0x3d4843e4	0.04889287
77	0x3d1df314	0.038561895
78	0x3d893c6f	0.0670098
79	0xbb344ab6	-0.0027510352
80	0x3d8c0061	0.0683601
81	0x3c2a3e10	0.010390773
82	0x3d42af54	0.047530487
83	0x3cbe64e4	0.023241468
84	0x3dc8ae1e	0.09798835
85	0x3c28473e	0.010270892
86	0x3d2b7d8d	0.04186778
87	0xbda7b4c0	-0.08188772
88	0x3d621d85	0.055203933
89	0xbcec723a	-0.028863061
90	0xbd20b687	-0.03923657
91	0xbd370dd2	-0.044690914
92	0x3d12dad9	0.03585324
93	0x3d5467c0	0.051856756
94	0x3ca015b2	0.019541595
95	0x3db17198	0.086642444
96	0x3d182a1c	0.037149534
97	0x3d1b440a	0.037906684
98	0x3d9efa42	0.07762577
99	0xbd590fd3	-0.052993607
100	0xbdad9416	-0.08475511
101	0x3c5a187d	0.0133115025
102	0xbd74e408	-0.05978778
103	0x3d880268	0.06641084
104	0xbd5cb584	-0.053884044
105	0x3d36f173	0.044663858
106	0x3cdc1dee	0.02686974
107	0xbd22db6d	-0.039760042
108	0x3d33329b	0.043749433
109	0x3ce28618	0.027651832
110	0x3d23cb0b	0.03998856
111	0x3c3db9d6	0.011579951
112	0xbc2524e4	-0.010079596
113	0x3dacb8fe	0.08433722
114	0x3d6069fa	0.054788567
115	0x3dab8b86	0.08376221
116	0x3d8becca	0.06832273
117	0xbccaf24d	-0.024773741
118	0xbd8cd8e2	-0.068773046
119	0xbcee8271	-0.029114934
120	0xbcaed6cc	-0.021342658
121	0x3d2b0750	0.04175502
122	0x3db1ebb9	0.08687539
123	0xbda4836d	-0.0803288
124	0x3cba52c7	0.02274455
125	0x3c4c5f70	0.012473926
126	0x3ce069f9	0.027394282
127	0xbc848c41	-0.01618016
128	0x3d47120d	0.0486012
129	0xbd9750f8	-0.073884904
130	0xbc35360b	-0.011060248
131	0xbd1d3e7e	-0.038389675
132	0x3d6856cc	0.0567234
133	0xbd7403c2	-0.059573896
134	0xbd8a1da0	-0.06743932
135	0xbd42d3b7	-0.04756519
136	0xbd9c694f	-0.076372735
137	0x3d4dd86a	0.050255217
138	0xbd419f14	-0.04727085
139	0x3d4a90ea	0.049454607
140	0xbd8046f9	-0.06263537
141	0x3da43c08	0.080192626
142	0x3c521fbd	0.01282495
143	0x3cb8e4d7	0.022570057
144	0x3d3f45cd	0.046697427
145	0xbda88412	-0.082283154
146	0xbd5f3358	-0.054492325
147	0xbdb74cf8	-0.089502275
148	0x3b702569	0.0036643392
149	0x3da843ad	0.08216033
150	0xbd4d9792	-0.050193377
151	0xbdb3d1e7	-0.0878027
152	0xbd83f78a	-0.06443699
153	0x3bd3216a	0.0064431923
154	0x3d2a4465	0.041569132
155	0xbde4ab4f	-0.11165487
156	0xbc14f906	-0.009092575
157	0x3d4b855c	0.04968773
158	0xbc8720aa	-0.016495068
159	0xbc3b1105	-0.011417632
160	0x3d1cc83c	0.038276896
161	0xbcf1b814	-0.02950672
162	0xbd2e90f9	-0.042618725
163	0x3c9aa28e	0.01887634
164	0xba90ae87	-0.0011038341
165	0xbbe09ee5	-0.006854879
166	0x3ba95feb	0.005168905
167	0x3cc225ac	0.023699604
168	0xbce71331	-0.028207393
169	0x3dbcc810	0.092178464
170	0xbca830f0	-0.020531148
171	0xbd880da9	-0.066432305
172	0x3d2467e4	0.04013814
173	0x3c7fccb4	0.01561277
174	0x3d8cfca0	0.06884122
175	0x3d8eb788	0.069685996
176	0xbd44d4f3	-0.048054647
177	0xbd6d6a11	-0.05796248
178	0xbcea4361	-0.028596582
179	0x3cf86e48	0.030326024
180	0x3d381bb2	0.044948287
181	0x3cd7da7e	0.026349302
182	0x3bf590f9	0.0074940887
183	0xbd8210b3	-0.063508414
184	0xbcb5b52a	-0.022181112
185	0x3d8f8a3a	0.070087865
186	0xbd55024e	-0.05200415
187	0xbd45d139	-0.048295233
188	0x3d847c01	0.06468964
189	0xbab61412	-0.001389148
190	0x3cf15b87	0.029462589
191	0xbd962348	-0.07330948
192	0x3d0846f4	0.03327079
193	0x3d42e3f2	0.047580667
194	0x3ca727c3	0.020404702
195	0xbd3d8e65	-0.046278376
196	0x3d991571	0.07474793
197	0x3c898b44	0.01679004
198	0xbdbea826	-0.093094155
199	0xbc81b17c	-0.015831701
200	0xbd3a1f8b	-0.045440238
201	0x3d74bfae	0.059753112
202	0x3d8c94c0	0.06864309
203	0x3d1bc813	0.038032603
204	0x3caee1b2	0.021347854
205	0xbda4f2dc	-0.08054134
206	0x3d455997	0.048181143
207	0x3d901562	0.070353284
208	0x3bbb83a9	0.005722482
209	0x3d734220	0.059389234
210	0xbda09eea	-0.078428105
211	0x3da0b6ae	0.078473434
212	0xbd516623	-0.051122796
213	0x3cbbbf2e	0.02291831
214	0xbd7de958	-0.061990112
215	0x3cf144ec	0.02945181
216	0xbd33b736	-0.043875895
217	0x3a1096b5	0.0005515621
218	0x3d99a437	0.075020246
219	0xbd84a91e	-0.06477569
220	0xbce8c4a6	-0.028414082
221	0x3d9079e6	0.070545
222	0xbca2bcdf	-0.019865451
223	0x3d5fa589	0.054601226
224	0x3dbe88f3	0.09303465
225	0xbd91daba	-0.07121797
226	0xbd8017d3	-0.06254544
227	0xbd03fc71	-0.03222317
228	0xbd8dac3e	-0.06917618
229	0x3b64f227	0.0034934373
230	0xbc5b8474	-0.0133982785
231	0x3acf5bf1	0.0015820247
232	0xbd0ccf97	-0.03437766
233	0xbd74cec3	-0.059767496
234	0x3d8585aa	0.06519635
235	0x3d085bf5	0.033290822
236	0x3da3e5ba	0.08002801
237	0x3d4b63cd	0.049655724
238	0x3cf986df	0.03045982
239	0xba070cae	-0.0005151731
240	0x3c9e2495	0.019304553
241	0xbd809175	-0.06277744
242	0xbd0de55e	-0.03464257
243	0xba292e6a	-0.00064537546
244	0xbca7fe14	-0.020506896
245	0x3d1252e1	0.03572357
246	0xbcf570fe	-0.029961105
247	0xbd974ed0	-0.07388079
248	0xbd2e7ec5	-0.042601366
249	0xbc6013a0	-0.013676554
250	0xbcd15857	-0.025554819
251	0x3c79f289	0.015255579
252	0x3c2b2a3a	0.010447079
253	0x3c120336	0.008911898
254	0xbceb6b2e	-0.02873763
255	0xbd8c8e70	-0.06863105

backbone.5.weight f4 [32]
0	0x3f8031d8	1.0015211
1	0x3f805a86	1.0027626
2	0x3f7f4d8d	0.9972771
3	0x3f7ce323	0.98784083
4	0x3f837613	1.0270408
5	0x3f7f7128	0.9978204
6	0x3f82e69e	1.0226629
7	0x3f819227	1.0122727
8	0x3f8251b7	1.0181187
9	0x3f82f7bf	1.0231856
10	0x3f7ed938	0.995502
11	0x3f7dc193	0.99123496
12	0x3f78b924	0.971575
13	0x3f841151	1.0317785
14	0x3f7fc106	0.99903905
15	0x3f7d80ee	0.99024856
16	0x3f79cb54	0.9757588
17	0x3f7bdf48	0.98387575
18	0x3f85552e	1.041662
19	0x3f81dd6d	1.0145699
20	0x3f802916	1.0012538
21	0x3f7c9efe	0.986801
22	0x3f828ae7	1.019864
23	0x3f7d11f4	0.9885552
24	0x3f7e00dd	0.9922007
25	0x3f7c2763	0.984976
26	0x3f8547bb	1.0412515
27	0x3f7ca18b	0.98683995
28	0x3f80e5ea	1.0070164
29	0x3f8407a7	1.0314835
30	0x3f7a9d7e	0.97896564
31	0x3f7ef5b4	0.99593663

backbone.5.bias f4 [32]
0	0xbc83dd62	-0.016096774
1	0x3a4e4fc2	0.0007870161
2	0xbbe703ed	-0.0070500285
3	0xbbe11710	-0.0068692043
4	0xbc8fe3a5	-0.017564604
5	0xbcc79c8e	-0.024366643
6	0xbd572709	-0.05252746
7	0x3adb412d	0.0016727798
8	0xbbfbe74c	-0.007687485
9	0xbba43f01	-0.0050123935
10	0xbcbf3ae5	-0.023343513
11	0xbc911d1a	-0.017714072
12	0xbce1260e	-0.027483966
13	0xbc300c77	-0.010745159
14	0xbc95354f	-0.018213896
15	0xbc8ae835	-0.016956428
16	0xbb3c6aab	-0.0028750103
17	0xbd0829d7	-0.033243027
18	0xbba4908f	-0.0050221155
19	0xb90905c4	-0.00013067486
20	0xbd289e2c	-0.04116647
21	0xbc809e3d	-0.015700454
22	0xba6d0e3b	-0.0009042953
23	0xbc7f497f	-0.015581488
24	0xbc385e3e	-0.011252938
25	0xbc98d846	-0.018657815
26	0x3b0c2650	0.002138514
27	0xbc93b9c0	-0.018032908
28	0xbd0b403e	-0.033996813
29	0x3c1ab2df	0.00944206
30	0xbd20ac76	-0.03922697
31	0xbcbd3720	-0.023097575

backbone.5.running_mean f4 [32]
0	0x3f331acc	0.69962764
1	0xbe3a9f10	-0.1822474
2	0xbed6685a	-0.4187649
3	0x3e9b7d8d	0.30369225
4	0xbde02ec4	-0.1094642
5	0x3d8d776b	0.06907543
6	0xbed47e4a	-0.415026
7	0xbf855d5b	-1.0419115
8	0xbe88b1fd	-0.26698294
9	0xbea814fb	-0.32828507
10	0x3ea38177	0.3193471
11	0x3cf10d23	0.02942521
12	0xbe796992	-0.24356678
13	0xbdc56fa6	-0.09640436
14	0xbdb15e02	-0.08660509
15	0xbe041598	-0.12898862
16	0xbe56e83b	-0.20987026
17	0x3ce9a5c2	0.028521422
18	0xbde4c4ed	-0.11170373
19	0xbe65e64f	-0.22451137
20	0x3ed60c5c	0.41806304
21	0x3e7274ca	0.23677364
22	0xbeaf62e4	-0.34255135
23	0xbe531445	-0.20613201
24	0x3e338f44	0.1753512
25	0x3ed5ca78	0.41756034
26	0xbe32cf72	-0.17461947
27	0xbedd3339	-0.43203142
28	0x3e2f4e21	0.17119648
29	0xbe0b1d83	-0.13585477
30	0x3e849404	0.25894177
31	0x3e3f84d6	0.18703017

backbone.5.running_var f4 [32]
0	0x3ecc2b35	0.39876714
1	0x3db753ac	0.08951506
2	0x3e6d0ca7	0.23149358
3	0x3e4b9f56	0.19885
4	0x3d75b038	0.05998251
5	0x3d9a843f	0.07544755
6	0x3e1dfab3	0.15427665
7	0x3ee7d928	0.45282865
8	0x3e4f9f84	0.20275694
9	0x3df78ecb	0.120877825
10	0x3f0fb421	0.5613423
11	0x3e858cb2	0.26083905
12	0x3dca4847	0.09877067
13	0x3d8f54d9	0.06998605
14	0x3e5a6559	0.21327724
15	0x3e8b3b80	0.27193832
16	0x3df89ab5	0.12138883
17	0x3dc06621	0.093944795
18	0x3d9058b5	0.070481695
19	0x3d8c778f	0.068587415
20	0x3e63b8df	0.22238491
21	0x3d6513a7	0.055926945
22	0x3db4e2cb	0.0883232
23	0x3f1655a5	0.58724433
24	0x3d966a65	0.07344512
25	0x3ea418d0	0.3205018
26	0x3d8b654b	0.068064295
27	0x3dd19588	0.10233599
28	0x3e166eac	0.14690655
29	0x3da8e7e8	0.082473576
30	0x3dee61e8	0.11639768
31	0x3d7d9287	0.061907317

backbone.8.weight f4 [64, 32, 3, 3]
0	0xbcc93553	-0.02456156
1	0xbd03ca66	-0.032175444
2	0x3c4da440	0.012551367
3	0xbd08f616	-0.03343781
4	0xbd88f7e8	-0.06687909
5	0x3ca661f2	0.020310376
6	0x3caf4686	0.021395933
7	0x3d2454e4	0.04012002
8	0x3cde86e2	0.027163927
9	0x3c13be24	0.009017501
10	0x3c85a5e4	0.016314454
11	0x3d3c1c66	0.04592552
12	0xbce83e48	-0.02835001
13	0x3c165ac6	0.0091769155
14	0x3bbdaefe	0.005788683
15	0x3c1c547e	0.009541629
16	0x3d785f8e	0.060638003
17	0xbd04cad3	-0.03241999
18	0x3c95631b	0.018235734
19	0xbbc9751c	-0.0061479937
20	0x3d26e57e	0.040746205
21	0xbd7fb674	-0.06242986
22	0xbd3df50a	-0.046376266
23	0x3c4a1f5c	0.012336578
24	0xbd86bd25	-0.06579045
25	0x3cfc1d2a	0.030775625
26	0xbce551b7	-0.027993066
27	0x3d7e5c7b	0.062099915
28	0xbb71e046	-0.003690736
29	0x3d357a88	0.044306308
30	0x3d2aa959	0.04166541
31	0xbcb13979	-0.02163385
32	0xbd68f805	-0.056877155
33	0x3d64df48	0.055877
34	0xbd278d8a	-0.040906467
35	0x3d02b37b	0.031909447
36	0x3c2ff428	0.010739364
37	0x3d5a67dc	0.053321704
38	0xbc0edc11	-0.00871946
39	0xbd3cc383	-0.046084892
40	0xbcd3ed1a	-0.025869895
41	0x3c3e5153	0.011616069
42	0x3d5da4a1	0.05411208
43	0xbcd772ad	-0.026299799
44	0xbdafaa85	-0.08577446
45	0xbd53a3a8	-0.051669747
46	0xbd16fbf3	-0.03686137
47	0x3d4cda13	0.05001266
48	0x3bc3d24b	0.0059759966
49	0xbc488693	-0.012239116
50	0xbd36522e	-0.044511966
51	0xbd11ae5c	-0.035566673
52	0x3d2b2be4	0.041789904
53	0x3d26eef9	0.040755246
54	0x3d0ab15b	0.033860546
55	0x3c5ae368	0.013359882
56	0x3d75a656	0.059973083
57	0xbba716fd	-0.005099176
58	0x3d1a7747	0.037711408
59	0x3cd10ea1	0.02551967
60	0x3d30b802	0.043144234
61	0x3ccc05f4	0.024905182
62	0x3b019c98	0.0019777175
63	0xbc53b2c9	-0.012921044
64	0xbd541c55	-0.051784832
65	0x3c7c9aea	0.015417794
66	0x3ccb2c88	0.024801508
67	0xbc156753	-0.009118873
68	0xbd21dab3	-0.03951521
69	0x3c52e066	0.012870884
70	0xbc66b44b	-0.014081071
71	0xbc98a647	-0.018633975
72	0xbd340aa9	-0.04395548
73	0x3d069a80	0.032862186
74	0x3d64a7d5	0.05582412
75	0xbc1333b3	-0.008984494
76	0xbc2a876f	-0.010408266
77	0x3cad7139	0.021172153
78	0x3c6007e5	0.013673757
79	0xbc38eb1d	-0.011286524
80	0x3d321dad	0.043485332
81	0x3d338398	0.04382667
82	0xbd41d211	-0.047319476
83	0xbd39f830	-0.045402706
84	0xbcefe964	-0.029286094
85	0x3cf1ad96	0.029501718
86	0x3d585c28	0.052822262
87	0xbbbdd59d	-0.005793287
88	0x3c5c4019	0.013443016
89	0xbc2fb442	-0.010724129
90	0xbd3db9d9	-0.046319816
91	0x3c1fa20a	0.009743223
92	0x3d54cc0d	0.05195241
93	0xbd4b4812	-0.04962928
94	0x3d3b669d	0.045752157
95	0x3be6c8e2	0.00704299
96	0x3cda47be	0.026645537
97	0xbcf5bc3f	-0.02999699
98	0x3ccf7bc8	0.025327578
99	0xbcf592df	-0.02997726
100	0xbd47e4f7	-0.048802342
101	0xbcc87eb8	-0.024474487
102	0xb9a6dcf0	-0.000318266
103	0xbb8b9746	-0.0042599766
104	0x3c46aaed	0.012125713
105	0xbd1c9efc	-0.038237557
106	0xbcfd0c12	-0.030889545
107	0xbbf91886	-0.0076018004
108	0xbd1ae425	-0.03781523
109	0xbca5891f	-0.020206986
110	0x3cc56a1b	0.024098447
111	0x3b4faf43	0.0031690157
112	0x3d0d5832	0.034507938
113	0xbd1604e8	-0.036625773
114	0x3c8650b5	0.016395906
115	0x3ca3eed4	0.020011343
116	0x3c4e1fac	0.012580793
117	0x3d813261	0.06308437
118	0xbd3be2a5	-0.045870442
119	0xbd15e829	-0.03659836
120	0xbd9b153a	-0.07572408
121	0xbc0583da	-0.008149112
122	0xbc85e92e	-0.01634654
123	0x3cee1a38	0.029065236
124	0x3b68249d	0.0035422214
125	0xbc195d45	-0.009360616
126	0x3d2cd4dc	0.042195186
127	0xbd82fee4	-0.06396273
128	0xbd080adb	-0.033213478
129	0x3c11b56a	0.00889335
130	0xbd64d751	-0.055869404
131	0x3c9a0394	0.018800534
132	0x3cd50e89	0.026007907
133	0xbd696f4e	-0.056990914
134	0x3d354fca	0.044265546
135	0xbd5f7c0c	-0.05456166
136	0x3d2a44d4	0.041569546
137	0x3c9045a7	0.017611338
138	0xbd045068	-0.032303244
139	0x3c22e957	0.009943328
140	0xba5db857	-0.000845795
141	0x3ca16a07	0.019703878
142	0x3ca57f4e	0.020202305
143	0x3d3824a7	0.04495683
144	0x3ce8c54a	0.028414387
145	0xbcd10af2	-0.025517914
146	0xbd477d9a	-0.048703767
147	0x3cf18562	0.029482547
148	0xbc937697	-0.018000884
149	0xbcf62252	-0.030045662
150	0x3c6db021	0.014507324
151	0xbd7679b6	-0.060174666
152	0x3d0e516d	0.034745622
153	0xbc583d30	-0.013198182
154	0x3d21cbc7	0.039500978
155	0x3d23b0e6	0.039963625
156	0x3cf3750f	0.029718904
157	0x3d3ee8f2	0.046608873
158	0x3d29991a	0.041405775
159	0x3cf8da7e	0.030377623
160	0xbc8b80f8	-0.01702927
161	0x3d461c26	0.04836669
162	0xbdb80d60	-0.08986926
163	0x3d312608	0.04324916
164	0xbd19de0b	-0.037565272
165	0x3cbcef8c	0.023063444
166	0xbd7ae63a	-0.061254717
167	0xbc84843e	-0.01617634
168	0x3d4ecd2e	0.050488643
169	0x3cf5a522	0.029985968
170	0xbd4d3379	-0.050097916
171	0x3baccaf8	0.005273219
172	0x3cc1b0f9	0.023643957
173	0xbc7696b7	-0.015050582
174	0x3b8816ad	0.004153094
175	0x3d841cde	0.064508185
176	0x3c65684b	0.014001916
177	0xbcab9c13	-0.020948445
178	0xbd520e22	-0.05128301
179	0xbd7cc10b	-0.061707538
180	0xbc8c04fe	-0.017092224
181	0x3d73a483	0.059483062
182	0x3c25f1b4	0.010128427
183	0xbd3a5298	-0.045488924
184	0xbd3ea8ae	-0.046547584
185	0x3c48bf0d	0.012252581
186	0xbce70326	-0.028199743
187	0x3b9c862a	0.004776736
188	0x3c79efee	0.015254958
189	0x3c91d7db	0.017803123
190	0xbd60d189	-0.05488733
191	0x3ce58548	0.028017655
192	0x3d1ff257	0.039049473
193	0x3be0128c	0.0068381485
194	0xbd08219a	-0.03323517
195	0xbc547763	-0.012967917
196	0xbcffc4d2	-0.03122178
197	0xbd21d069	-0.039505396
198	0xbc56d613	-0.013112563
199	0x3d0de64a	0.03464345
200	0x3b8af7fe	0.0042409888
201	0x3d24afaf	0.040206607
202	0x3cfd4b5f	0.030919729
203	0xbd3613fe	-0.04445266
204	0x3d6ffe07	0.05859187
205	0xbcf98b8b	-0.030462047
206	0x3d2c590c	0.04207711
207	0xbd64be08	-0.05584529
208	0x3cee2b71	0.029073449
209	0x3c8fcedf	0.017554699
210	0x3bfc8fb7	0.007707562
211	0x3c7103f8	0.014710419
212	0x3c2cafca	0.010539958
213	0xbd08f470	-0.03343624
214	0x3be5861a	0.0070045115
215	0x3c515b8c	0.012778174
216	0xbd0f4045	-0.0349734
217	0xba9f34ab	-0.0012146434
218	0x3bb79456	0.0056024
219	0xbd3ce82f	-0.046119865
220	0xbc0bf877	-0.008543125
221	0xbcd339e5	-0.025784442
222	0xbd9d52b2	-0.076817885
223	0x3b4e49bf	0.0031477062
224	0x3d00a2f2	0.031405397
225	0xbc128b87	-0.008944399
226	0x3d33969c	0.043844804
227	0xbcdb7e29	-0.026793556
228	0x3c9d7629	0.019221382
229	0xbd39229d	-0.045199025
230	0x3d165eab	0.036711376
231	0x3d143ed1	0.03619272
232	0x3d56dba2	0.052455552
233	0xbc6971ba	-0.014248306
234	0x3dc9e3ee	0.09857927
235	0xbcc82fd0	-0.024436861
236	0xbc05920a	-0.008152494
237	0xbd4f3456	-0.05058702
238	0x3bed0f07	0.0072344574
239	0x3d5fa8a4	0.054604188
240	0x3b00093b	0.0019536752
241	0x3c3140fb	0.010818715
242	0x3b21a0a4	0.00246624
243	0x3d297bfe	0.041378014
244	0xbc0aaeca	-0.0084645245
245	0xbb66a7c9	-0.0035195223
246	0xbaf6370a	-0.0018784713
247	0x3c6b115c	0.0143474005
248	0xbc7d4410	-0.015458122
249	0x3bd1ceba	0.0064028176
250	0xbc5f3bd7	-0.013625107
251	0xbd23a091	-0.03994805
252	0xbc1abe43	-0.009444776
253	0xbc18bfb1	-0.009323047
254	0x3c3a3ae0	0.011366576
255	0x3d6b8278	0.05749747

backbone.9.weight f4 [64]
0	0x3f7ebd97	0.9950804
1	0x3f83ce46	1.0297325
2	0x3f81d611	1.0143453
3	0x3f846b48	1.034524
4	0x3f768d1a	0.96309054
5	0x3f7cd755	0.9876607
6	0x3f82fbb7	1.0233067
7	0x3f807abd	1.0037457
8	0x3f7b9b6a	0.9828402
9	0x3f7ec18a	0.9951407
10	0x3f7ffb55	0.9999288
11	0x3f82abee	1.0208719
12	0x3f7da0a3	0.9907324
13	0x3f81d200	1.0142212
14	0x3f810722	1.0080302
15	0x3f7bddd4	0.9838536
16	0x3f7e734e	0.9939469
17	0x3f7c0e95	0.9845975
18	0x3f807d29	1.0038196
19	0x3f70d9c6	0.94082296
20	0x3f77f720	0.9686146
21	0x3f7cb31e	0.9871081
22	0x3f814856	1.01002
23	0x3f7cdcb6	0.9877428
24	0x3f78124d	0.96902925
25	0x3f78cc29	0.97186524
26	0x3f8339da	1.025203
27	0x3f8150a9	1.010274
28	0x3f805a07	1.0027474
29	0x3f7b9210	0.9826975
30	0x3f836a5d	1.0266834
31	0x3f7d5e03	0.98971575
32	0x3f78b078	0.9714427
33	0x3f7c3e65	0.98532706
34	0x3f81ce6c	1.014112
35	0x3f83e7b4	1.0305085
36	0x3f7d4e78	0.9894786
37	0x3f83a020	1.0283241
38	0x3f86c20b	1.0527967
39	0x3f75bc45	0.959904
40	0x3f8320f1	1.0244428
41	0x3f7c30aa	0.98511755
42	0x3f81a753	1.0129188
43	0x3f76ea86	0.96451604
44	0x3f7b1867	0.9808411
45	0x3f832d19	1.0248138
46	0x3f81ae14	1.013125
47	0x3f7e03f1	0.99224764
48	0x3f8114d2	1.0084479
49	0x3f811e0c	1.0087295
50	0x3f85b191	1.0444814
51	0x3f8499cd	1.0359436
52	0x3f7a8b21	0.97868544
53	0x3f82b085	1.021012
54	0x3f812895	1.009051
55	0x3f84c194	1.0371575
56	0x3f7c9672	0.9866706
57	0x3f816284	1.010819
58	0x3f8174c1	1.0113755
59	0x3f8244ce	1.0177248
60	0x3f8227c8	1.016839
61	0x3f843647	1.0329064
62	0x3f7c9845	0.98669845
63	0x3f7a4469	0.97760636

backbone.9.bias f4 [64]
0	0xbc5331b3	-0.012890267
1	0xbc73ed85	-0.014888172
2	0xbdc8ad17	-0.09798639
3	0xbd1e3ec5	-0.03863408
4	0xbd393574	-0.045216992
5	0xbd97d156	-0.074129745
6	0xbc84d2a8	-0.01621373
7	0xbda751dd	-0.08169911
8	0xbcc3e3e7	-0.023912383
9	0xbd7e811b	-0.062134843
10	0xbd5ba37d	-0.05362271
11	0xbc206f64	-0.009792183
12	0xbd6168d0	-0.055031598
13	0xbcaf8a1d	-0.021428162
14	0xbd0fda3e	-0.03512024
15	0xbd0d14e9	-0.03444377
16	0xbd0f6365	-0.0350069
17	0xbd2f2fb0	-0.042770088
18	0xbd822bd0	-0.06356013
19	0xbd21fb03	-0.039546024
20	0xbd2a3fc9	-0.041564737
21	0xbd4dcfb5	-0.050246913
22	0xbd2e5668	-0.042562872
23	0xbc9ce61f	-0.019152699
24	0xbbc841a5	-0.006111341
25	0xbd3b3628	-0.045705944
26	0xbc8219d2	-0.015881453
27	0xbdc026a9	-0.09382374
28	0xbcec6d2b	-0.02886065
29	0xb868d658	-5.5512734e-05
30	0xbd80c1f7	-0.06286996
31	0xbd2a2574	-0.041539624
32	0xbd212d92	-0.0393501
33	0xbd35ae53	-0.0443557
34	0xbd525026	-0.051345967
35	0xbbf5a9d3	-0.0074970513
36	0xbcd5bccc	-0.026091002
37	0xbcdb07a8	-0.02673705
38	0x3cb27b35	0.021787265
39	0xbcc33051	-0.02382675
40	0xbcc1d1cd	-0.023659611
41	0xbcd30555	-0.025759378
42	0xbdb66c0f	-0.08907329
43	0xbd1e8252	-0.038698502
44	0xbd61b354	-0.05510266
45	0xbad13d3b	-0.0015963683
46	0xbc075b8b	-0.008261572
47	0xbd2c34b0	-0.042042434
48	0xbd03adb7	-0.03214809
49	0xbd9a8cdb	-0.07546397
50	0x3c1dc326	0.009629047
51	0xbd484f20	-0.048903584
52	0xbbee07e3	-0.0072641238
53	0xbdb3f406	-0.08786778
54	0xbd67eba0	-0.056621194
55	0x39f06f0c	0.00045859104
56	0xbd7c65f4	-0.061620668
57	0xbc8163bd	-0.01579463
58	0xbd290699	-0.041266058
59	0xbd35008d	-0.04418998
60	0x3aed9870	0.0018127095
61	0xbc9f7f9e	-0.019470032
62	0xbde24d15	-0.110498585
63	0xbd409883	-0.047020447

backbone.9.running_mean f4 [64]
0	0x3e7b1cb7	0.24522673
1	0x3e28bd48	0.16478455
2	0xbea22a62	-0.3167296
3	0xbf46ee8b	-0.7770774
4	0x3e645c96	0.22300944
5	0x3e7383e6	0.23780784
6	0xbeac7634	-0.33683932
7	0x3f780d59	0.96895367
8	0x3e4d549e	0.2005181
9	0xbe481d75	-0.19542487
10	0x3df2edb6	0.11861746
11	0xbebf018f	-0.37305877
12	0xbf09b7cb	-0.5379607
13	0xbf04374e	-0.5164689
14	0xbf45a3a1	-0.772028
15	0x3ec091bd	0.3761119
16	0x3e9c648a	0.30545455
17	0x3eb47dd3	0.35252246
18	0x3f2e3b28	0.68059015
19	0x3d3117ff	0.043235775
20	0xbefdc330	-0.4956298
21	0xbcadeea0	-0.02123195
22	0xbeb1bc66	-0.3471405
23	0xbeb6ecd7	-0.3572757
24	0xbd66220b	-0.05618481
25	0xbd60516d	-0.054765154
26	0xbd6c0e1a	-0.057630636
27	0xbe0f96c0	-0.1402235
28	0x3d19e81a	0.037574865
29	0x3f0534df	0.520338
30	0xbe8af7bd	-0.27142134
31	0xbf0f0578	-0.5586772
32	0x3db4dc6a	0.08831103
33	0xbf146e44	-0.5798075
34	0x3e539bc2	0.20664886
35	0xbea6c0d3	-0.32568988
36	0xbf837e08	-1.0272837
37	0xbe3e94a5	-0.18611391
38	0xbed7d2fd	-0.4215316
39	0xbe74f614	-0.23921996
40	0xbeb1ca14	-0.34724486
41	0xbeb5a630	-0.35478354
42	0xbec75962	-0.3893538
43	0x3e9a92aa	0.3019002
44	0x3e4a4933	0.19754486
45	0xbf31594e	-0.69276893
46	0xbe019e2c	-0.12657994
47	0xbe874ded	-0.2642664
48	0xbf1abb68	-0.6044221
49	0x3edacb69	0.42733315
50	0xbf61c79c	-0.88195205
51	0xbe2b8c99	-0.16752852
52	0x3f84c222	1.0371745
53	0xbe2a62e1	-0.16639282
54	0x3d5722e3	0.052523505
55	0xbe1eb657	-0.15499245
56	0xbeeb780a	-0.4599002
57	0xbe8cffa2	-0.27538782
58	0xbf26e512	-0.65193284
59	0xbf2504c6	-0.6446041
60	0x3e1225c7	0.14272223
61	0xbf3ffb83	-0.7499315
62	0x3db76ceb	0.08956321
63	0x3ee4f8d7	0.447211

backbone.9.running_var f4 [64]
0	0x3e25f2be	0.1620588
1	0x3e378684	0.17922407
2	0x3e99fdbe	0.30076402
3	0x3ea39a7d	0.31953803
4	0x3eac1bc1	0.33614925
5	0x3e49da59	0.197122
6	0x3e99b414	0.300202
7	0x3e66af52	0.22527817
8	0x3ed10264	0.40822136
9	0x3e593e28	0.21215117
10	0x3e5db14f	0.21649669
11	0x3e8fc3b3	0.28078994
12	0x3e8f9f72	0.28051335
13	0x3e85053e	0.25980562
14	0x3e98199a	0.29707032
15	0x3e0b2a02	0.13590243
16	0x3e9f4f84	0.31115353
17	0x3f0bfd9f	0.5468387
18	0x3e63f0b9	0.22259797
19	0x3f12691a	0.5719162
20	0x3ea3b1ed	0.31971684
21	0x3e86b8a0	0.26312733
22	0x3e086a8a	0.13321891
23	0x3f56c288	0.8389058
24	0x3e73a8a0	0.23794794
25	0x3e8c4bd0	0.2740159
26	0x3eb82be0	0.35970974
27	0x3e9afb12	0.30269676
28	0x3e53f0c1	0.20697309
29	0x3e609011	0.21929957
30	0x3e671c5a	0.22569409
31	0x3e58c37a	0.21168318
32	0x3ec937d0	0.39300394
33	0x3eefda84	0.46846402
34	0x3e7e1ca6	0.24815616
35	0x3e507d33	0.2036026
36	0x3f450bf6	0.76971376
37	0x3e21ea45	0.15812023
38	0x3e3cd358	0.18439996
39	0x3e483b22	0.19553807
40	0x3e938b52	0.2881723
41	0x3eacd654	0.3375727
42	0x3e4bd1ba	0.19904223
43	0x3ea5b606	0.32365435
44	0x3ef27625	0.47355762
45	0x3e6afc25	0.22947748
46	0x3e67b239	0.2262658
47	0x3ea2e1e7	0.31812975
48	0x3e84b695	0.2592055
49	0x3e940a93	0.28914317
50	0x3e680d5e	0.22661349
51	0x3e4279ba	0.18991747
52	0x3eea1bec	0.45724428
53	0x3e25c119	0.16186942
54	0x3e861491	0.26187566
55	0x3e34fdf9	0.17675008
56	0x3e4cba90	0.19993043
57	0x3e957ace	0.29195255
58	0x3e824df8	0.2545011
59	0x3e0b2949	0.13589968
60	0x3de8fab0	0.1137594
61	0x3f3adc0b	0.7299201
62	0x3e2cad09	0.16862883
63	0x3e8eb77f	0.2787437

backbone.12.weight f4 [128, 64, 3, 3]
0	0x3b6008c0	0.0034184903
1	0xbd3300f6	-0.04370209
2	0xbd50b025	-0.050949235
3	0xbcf9d824	-0.030498572
4	0xbd2183c6	-0.03943231
5	0xbcc21bd5	-0.023694912
6	0xbccd198a	-0.025036592
7	0xbd064aac	-0.032786056
8	0xbccdccde	-0.025122102
9	0xbd3bc629	-0.045843277
10	0xbd395a2f	-0.04525202
11	0x3c12a768	0.008951046
12	0xbd1d095c	-0.038339004
13	0xbb5c50cf	-0.0033617502
14	0x3c15bad6	0.009138783
15	0x3b9f3377	0.00485843
16	0x3c420ae7	0.01184342
17	0x3c268817	0.010164282
18	0xbcee4481	-0.0290854
19	0xbac00252	-0.0014649129
20	0xb8699a7c	-5.5695404e-05
21	0xbcb8270a	-0.022479553
22	0xbc93b310	-0.01802972
23	0xbd0629d3	-0.03275473
24	0xbcbd48c1	-0.02310598
25	0xbd69f637	-0.057119574
26	0xbd417077	-0.047226395
27	0xbd867ce3	-0.06566789
28	0xbd10da96	-0.03536471
29	0xbaa00036	-0.0012207094
30	0xbc8124dc	-0.015764646
31	0xbd29588d	-0.041344214
32	0xbd4e8eda	-0.050429203
33	0xbcbe65c3	-0.023241883
34	0xbc8bebf0	-0.017080277
35	0xbb7402c0	-0.0037233084
36	0xbd246639	-0.04013655
37	0xbd308482	-0.04309512
38	0xbc95dfb0	-0.01829514
39	0xbbc1ae91	-0.0059107025
40	0xbd2c18bd	-0.04201578
41	0xbd140cc7	-0.036144998
42	0x3c11eda8	0.008906759
43	0x38130854	3.5055287e-05
44	0xbca87f42	-0.020568494
45	0xbd023bc5	-0.031795282
46	0xbcd14bae	-0.025548782
47	0xbad6287c	-0.001633897
48	0xbd0a730b	-0.03380112
49	0xbd0328db	-0.032021385
50	0xbbf16697	-0.007366966
51	0xbc31bd1c	-0.01084831
52	0xbc6f5410	-0.014607444
53	0xbd113cc8	-0.035458356
54	0xbd821f0b	-0.06353577
55	0xbd0e8f1b	-0.034804445
56	0xbd15ebd9	-0.036601875
57	0xbd675233	-0.056474876
58	0xbd84c428	-0.06482726
59	0xbc964621	-0.018343987
60	0xbd875a71	-0.06609047
61	0xbd6f83a3	-0.058475148
62	0xbba87ceb	-0.0051418445
63	0xbca3783b	-0.019954791
64	0x3c5998a4	0.013281021
65	0xbd0340ef	-0.032044347
66	0xbd067395	-0.03282507
67	0xbb7a3f86	-0.0038184836
68	0xbcdb46f6	-0.026767235
69	0x3c899fc5	0.016799817
70	0x3c8aaad3	0.016927158
71	0xbb294616	-0.0025829128
72	0x3d217797	0.03942069
73	0x3ca04097	0.019562049
74	0x3c9bd2fe	0.019021507
75	0x3ca38341	0.019960048
76	0x3d4112aa	0.04713694
77	0x3cc35eb9	0.023848878
78	0x3c374968	0.011186935
79	0x3c52a323	0.012856278
80	0x3d739299	0.05946598
81	0x3c8ac053	0.01693741
82	0x3b0a7fb1	0.002113324
83	0xbd1693cd	-0.036762048
84	0x3cd4c46c	0.025972567
85	0x3c23aac1	0.009989441
86	0xbcc51417	-0.024057431
87	0x3ce969e5	0.028492877
88	0xbb8e3127	-0.0043393555
89	0xbce021bc	-0.027359836
90	0xbc1dacb0	-0.009623691
91	0x3c19e1bb	0.009392197
92	0x3ccbff32	0.02490196
93	0xbbf46025	-0.0074577504
94	0xbcd68cd1	-0.026190193
95	0xbc3920c4	-0.011299316
96	0x3c32f84d	0.010923457
97	0xbca0a017	-0.019607587
98	0xbcd444bf	-0.025911687
99	0x3c480b72	0.01220976
100	0x3c29d82e	0.010366483
101	0xbcee46c5	-0.02908648
102	0x3c4c68f2	0.012476193
103	0xbb62fb58	-0.0034634676
104	0xbcdf1fca	-0.027236838
105	0x3ab410a8	0.0013737874
106	0x3c94d673	0.018168664
107	0xb9be022e	-0.00036241248
108	0xbc419947	-0.011816329
109	0xbbec3425	-0.0072083646
110	0x3cc1294e	0.023579266
111	0xbb841f6f	-0.0040320675
112	0x3c53ada8	0.012919821
113	0x3b934ce6	0.004495251
114	0xb978f062	-0.00023740673
115	0x3cfbd314	0.030740298
116	0x3d132325	0.03592219
117	0x3c3dc31d	0.011582163
118	0x3cb15a23	0.021649426
119	0xbbd6c8d0	-0.0065547004
120	0xbd00f86e	-0.03148692
121	0x3c42a6b0	0.011880562
122	0x3d04acfb	0.03239153
123	0xbcda2b3f	-0.02663195
124	0x3b9413b3	0.00451895
125	0x3ccfdf12	0.025374923
126	0xbb8acd8e	-0.00423593
127	0xbd21a760	-0.039466262
128	0xbc80277c	-0.015643828
129	0xbc31be2a	-0.010848561
130	0xbd0056a1	-0.031332616
131	0xbcfbf952	-0.030758534
132	0xbcdc19a0	-0.026867688
133	0x39dca6f1	0.0004208605
134	0xbd26ec1d	-0.04075252
135	0x3c4a9c21	0.012366326
136	0x3bd4e9a0	0.006497577
137	0xbce2ad0f	-0.027670411
138	0xbb16d089	-0.002301248
139	0xbca47ebd	-0.020079965
140	0xbd057a84	-0.032587543
141	0xbc66df3f	-0.014091312
142	0xbc4d9678	-0.012548082
143	0xbd383963	-0.044976603
144	0xbc0a6254	-0.008446295
145	0xbc3dae9a	-0.011577273
146	0xbc0324de	-0.008004395
147	0xbcb8a818	-0.02254109
148	0xbbcf1da5	-0.0063206726
149	0xbca63ba9	-0.02029212
150	0xbc9984ca	-0.018740077
151	0xbc59d20a	-0.013294706
152	0x3cb0c4ba	0.021578182
153	0x3d406370	0.04696983
154	0x3cfb935c	0.030709915
155	0x3c3a4080	0.011367917
156	0x3d2b0eb2	0.04176206
157	0x3d062e06	0.032758735
158	0x3d2d371f	0.042288896
159	0x3ce2fa29	0.027707176
160	0x3d13283e	0.03592705
161	0x3c182e34	0.009288359
162	0xba4fdc15	-0.0007929218
163	0xbd36255a	-0.044469215
164	0xbd00947e	-0.031391613
165	0x3b56d8e1	0.0032783078
166	0xbc17c5ad	-0.009263438
167	0xbc6fe2a2	-0.014641436
168	0xbcc3ae59	-0.023886846
169	0xbc9905e3	-0.018679565
170	0xbc8041c6	-0.015656363
171	0xbb2be381	-0.0026228132
172	0xbcb2bfe1	-0.02182001
173	0xbd19dc49	-0.037563596
174	0x3c8e0964	0.017338462
175	0xbd0c3878	-0.03423354
176	0xbba0ab0b	-0.0049032024
177	0x3c9762a1	0.018479647
178	0x3ae65733	0.0017573595
179	0xbd304433	-0.04303379
180	0x3c4996ef	0.012304052
181	0xbc2e14ee	-0.010625107
182	0x3bf8bf2a	0.007591148
183	0x3c41353b	0.011792476
184	0xbc826e8b	-0.015921852
185	0xbcd4f397	-0.025995059
186	0x3abc0928	0.001434599
187	0x3ca00424	0.019533224
188	0x3c232ab0	0.009958908
189	0xbcbdc81c	-0.023166709
190	0xb8762dc4	-5.8693593e-05
191	0xbcbf0181	-0.023316147
192	0xbd75be8a	-0.059996165
193	0xbd22f175	-0.039781053
194	0xbc9de280	-0.019273043
195	0xbca54f97	-0.020179553
196	0x3c6fde52	0.014640408
197	0xbd275c59	-0.040859554
198	0xbcba44d9	-0.022737907
199	0xbd341d94	-0.04397352
200	0xbd1403c5	-0.036136407
201	0x3c17b40d	0.009259236
202	0x3b5f276a	0.0034050592
203	0xbd5ce998	-0.05393371
204	0xbc93b532	-0.018030737
205	0xbc55daa5	-0.013052617
206	0xbd10e152	-0.035371132
207	0x3ba573e3	0.005049215
208	0x3c60c635	0.013719131
209	0x3c6a8533	0.014313984
210	0xbb836002	-0.0040092478
211	0x3c18b527	0.009320534
212	0x3ce3fbc5	0.027830014
213	0x3bfb55d7	0.007670145
214	0xbca3b627	-0.019984318
215	0xbd11b6fc	-0.035574898
216	0x3ca0c9a9	0.019627409
217	0x3b18df3a	0.0023326413
218	0x3cf148d1	0.029453667
219	0xbc16a70c	-0.0091951005
220	0x3cec40bc	0.028839462
221	0x3d143c1e	0.036190145
222	0xbbab6171	-0.005230122
223	0xbbb9c078	-0.005668696
224	0x3c564148	0.013077088
225	0xbd354691	-0.04425675
226	0x3b4c49c7	0.0031171904
227	0xbc95da3c	-0.018292539
228	0xbc1414f4	-0.009038199
229	0xbcb3cef7	-0.021949274
230	0xbd1a93f8	-0.03773877
231	0xbb02b4d4	-0.0019944208
232	0xbd649b40	-0.05581212
233	0xbd4e9c32	-0.05044193
234	0x3cf8f8eb	0.03039213
235	0x3d0c366c	0.03423159
236	0x3d5f8b36	0.05457612
237	0x3d220a47	0.039560582
238	0x3d80dbff	0.06291961
239	0x3d64d6a3	0.055868756
240	0x3d2fe5bf	0.042943712
241	0x3d8bf667	0.06834107
242	0x3d2c1b82	0.04201842
243	0xbc3bd94e	-0.011465384
244	0xbc008806	-0.0078449305
245	0x3d11f378	0.03563258
246	0xbb683547	-0.0035432146
247	0xbacb01f6	-0.0015488255
248	0x3ce4740a	0.027887363
249	0x39e70d5e	0.00044069713
250	0xbcada60f	-0.021197347
251	0x3ce84196	0.028351586
252	0xbcb3e152	-0.021958027
253	0xbca6f805	-0.020381937
254	0xbca97b59	-0.0206887
255	0xbcd137af	-0.025539247

backbone.13.weight f4 [128]
0	0x3f94832c	1.160253
1	0x3f9009b3	1.125296
2	0x3f97011d	1.1797215
3	0x3f97a6b8	1.1847754
4	0x3f904573	1.1271194
5	0x3f8da0cb	1.1064695
6	0x3f8f6a1e	1.1204259
7	0x3f925738	1.1432867
8	0x3f92e1a8	1.1475115
9	0x3f8fe81c	1.1242709
10	0x3f93052a	1.1485951
11	0x3f8d304b	1.1030363
12	0x3f9233b9	1.1422035
13	0x3f93c25a	1.1543686
14	0x3f97e99e	1.1868169
15	0x3f91ff33	1.1406006
16	0x3f92c6e6	1.1466949
17	0x3f93dc72	1.155165
18	0x3f92b52a	1.1461537
19	0x3f967475	1.175429
20	0x3f906617	1.1281155
21	0x3f92890f	1.1448077
22	0x3f95e092	1.1709158
23	0x3f9465a2	1.1593516
24	0x3f934624	1.150578
25	0x3f8f0ee4	1.1176419
26	0x3f93ed26	1.1556747
27	0x3f90133b	1.1255869
28	0x3f933706	1.1501167
29	0x3f940551	1.1564122
30	0x3f9119f3	1.1336044
31	0x3f951385	1.1646582
32	0x3f92f6fc	1.1481624
33	0x3f93a7a7	1.1535538
34	0x3f918202	1.13678
35	0x3f8dc838	1.1076727
36	0x3f906ed0	1.1283817
37	0x3f8e47a1	1.111561
38	0x3f938937	1.152625
39	0x3f8ed3ed	1.1158425
40	0x3f93417e	1.1504362
41	0x3f95d58c	1.1705794
42	0x3f90b708	1.1305857
43	0x3f8dd2f7	1.1080006
44	0x3f928f33	1.1449951
45	0x3f942569	1.1573917
46	0x3f937d3f	1.1522597
47	0x3f9251bb	1.1431192
48	0x3f94cc3d	1.1624829
49	0x3f8ff055	1.1245219
50	0x3f9370f0	1.1518841
51	0x3f963dca	1.1737607
52	0x3f91b015	1.1381861
53	0x3f97df4e	1.1865022
54	0x3f8fae12	1.1224997
55	0x3f95caa8	1.1702471
56	0x3f8f5c6a	1.1200078
57	0x3f909c5c	1.1297717
58	0x3f945fae	1.1591699
59	0x3f939bb2	1.153189
60	0x3f9300e6	1.1484649
61	0x3f93cf2d	1.15476
62	0x3f8ea851	1.1145116
63	0x3f8f10b4	1.1176972
64	0x3f90ede7	1.1322602
65	0x3f947f67	1.160138
66	0x3f941d24	1.1571393
67	0x3f924ce1	1.1429712
68	0x3f91e998	1.1399412
69	0x3f9238bf	1.1423568
70	0x3f946872	1.1594374
71	0x3f918d10	1.1371174
72	0x3f90adc9	1.1303035
73	0x3f93d429	1.1549121
74	0x3f90b5bb	1.130546
75	0x3f91a57b	1.1378626
76	0x3f95079d	1.1642948
77	0x3f949ae8	1.1609774
78	0x3f927182	1.144089
79	0x3f938625	1.1525313
80	0x3f928e56	1.1449687
81	0x3f93f6e8	1.1559725
82	0x3f935aa7	1.151204
83	0x3f9184ad	1.1368614
84	0x3f91a5e8	1.1378756
85	0x3f8f22e6	1.1182525
86	0x3f901223	1.1255535
87	0x3f971072	1.1801894
88	0x3f95ba65	1.1697508
89	0x3f8ee659	1.1164047
90	0x3f96bdbc	1.1776652
91	0x3f907c1b	1.1287874
92	0x3f92ab55	1.1458536
93	0x3f966d7f	1.1752166
94	0x3f92d1db	1.1470293
95	0x3f8f3c33	1.1190246
96	0x3f919b10	1.1375446
97	0x3f9218ae	1.1413782
98	0x3f8faec8	1.1225214
99	0x3f9160ee	1.1357706
100	0x3f916074	1.135756
101	0x3f924e7b	1.14302
102	0x3f92777e	1.1442716
103	0x3f96ccfd	1.1781307
104	0x3f938fc2	1.1528246
105	0x3f91f022	1.1401408
106	0x3f8e5775	1.112044
107	0x3f914762	1.1349909
108	0x3f950fda	1.1645463
109	0x3f90c551	1.1310216
110	0x3f932c29	1.1497852
111	0x3f9286e2	1.1447413
112	0x3f930a98	1.1487608
113	0x3f959084	1.1684728
114	0x3f92c2bb	1.1465677
115	0x3f8fd93f	1.1238173
116	0x3f903b94	1.1268182
117	0x3f93ea33	1.1555847
118	0x3f944978	1.1584921
119	0x3f983fa6	1.1894424
120	0x3f8f76b2	1.1208098
121	0x3f902ad7	1.1263074
122	0x3f91d9c6	1.1394584
123	0x3f954aaf	1.1663417
124	0x3f93fb21	1.1561013
125	0x3f9131f2	1.1343367
126	0x3f93091a	1.1487153
127	0x3f95f57d	1.1715542

backbone.13.bias f4 [128]
0	0x3db9f856	0.090805694
1	0x3d8f8ef9	0.07009692
2	0x3e072e25	0.13201196
3	0x3e0ab6c0	0.13546276
4	0x3d956b86	0.07295899
5	0x3d6ff449	0.058582578
6	0x3d9b8749	0.07594163
7	0x3db7988e	0.08964644
8	0x3da0f2ff	0.07858848
9	0x3d8875dd	0.06663106
10	0x3dc570b4	0.09640637
11	0x3d60f985	0.05492546
12	0x3db79ba6	0.089652345
13	0x3dd44107	0.103639655
14	0x3dfb868b	0.122815214
15	0x3dc440ab	0.09582647
16	0x3dc99378	0.098425806
17	0x3dc67da9	0.096919365
18	0x3dc427fa	0.095779374
19	0x3dc96c3a	0.09835096
20	0x3d7608f9	0.06006715
21	0x3dcdcc07	0.10048681
22	0x3dce0da9	0.10061199
23	0x3dc3da7b	0.09563156
24	0x3dc398c1	0.0955062
25	0x3d8e6bf8	0.06954187
26	0x3dc74dc3	0.09731629
27	0x3da34d18	0.07973689
28	0x3dc7e619	0.097606845
29	0x3dcac114	0.09900108
30	0x3d9b2311	0.07575048
31	0x3dd5e712	0.10444464
32	0x3d945ad6	0.07243888
33	0x3dbf75ee	0.09348665
34	0x3dabdea1	0.083920725
35	0x3d75dca2	0.060024865
36	0x3d995ef3	0.07488813
37	0x3d7e707d	0.062118996
38	0x3dca35e2	0.098735586
39	0x3d9d71c7	0.07687717
40	0x3dd82ff0	0.10556018
41	0x3dae7bd1	0.0851971
42	0x3db1bbcb	0.08678397
43	0x3d6ccdf5	0.057813603
44	0x3da59988	0.080859244
45	0x3db8e352	0.09027733
46	0x3dc30be9	0.09523756
47	0x3db4a20e	0.08819972
48	0x3dcd4e8e	0.10024749
49	0x3d8f1e13	0.06988158
50	0x3dbf9623	0.09354808
51	0x3dd06e21	0.101772554
52	0x3db15a35	0.08659784
53	0x3de68c88	0.11257273
54	0x3d7d0b35	0.061778266
55	0x3dd8a0a5	0.105775155
56	0x3d73815d	0.059449542
57	0x3dab1fa8	0.08355647
58	0x3dd8eba2	0.105918184
59	0x3dbe182c	0.09281954
60	0x3dbff3b0	0.093726516
61	0x3db8673b	0.09004065
62	0x3d994275	0.07483379
63	0x3d921fc1	0.07134963
64	0x3dab1277	0.08353131
65	0x3dc6b5e9	0.09702665
66	0x3dbcc18b	0.09216603
67	0x3db18301	0.08667565
68	0x3d9c879b	0.07643052
69	0x3db87891	0.09007371
70	0x3dd84f26	0.10561971
71	0x3daa1548	0.0830484
72	0x3da45de7	0.08025723
73	0x3de1bce0	0.11022353
74	0x3daa92f0	0.08328807
75	0x3db9f33f	0.09079599
76	0x3dd95a9d	0.10612986
77	0x3dd15c67	0.102227025
78	0x3db2c999	0.08729858
79	0x3dac2d96	0.08407132
80	0x3db8d112	0.09024252
81	0x3de8284c	0.11335811
82	0x3dc01534	0.09379044
83	0x3d968b42	0.0735078
84	0x3db34fb0	0.087554336
85	0x3d8ed8ac	0.06974921
86	0x3d9bc802	0.07606508
87	0x3df1147b	0.117714845
88	0x3dcb9b47	0.09941726
89	0x3d7c1007	0.061538722
90	0x3dd6669d	0.10468791
91	0x3db35603	0.0875664
92	0x3dc2e511	0.09516347
93	0x3df04d21	0.11733461
94	0x3db0430a	0.08606537
95	0x3d9897cd	0.07450829
96	0x3db69e8d	0.0891696
97	0x3da32c34	0.079674155
98	0x3d98314e	0.07431279
99	0x3db2f9cc	0.08739051
100	0x3da67c92	0.08129229
101	0x3daf342b	0.08554872
102	0x3db7fe94	0.08984104
103	0x3ddaad4f	0.10677587
104	0x3dcd9fa1	0.100402124
105	0x3db31f52	0.08746208
106	0x3d872ddc	0.06600544
107	0x3d8f6927	0.07002478
108	0x3dd86c52	0.105675355
109	0x3d972738	0.07380527
110	0x3db518cd	0.08842621
111	0x3dd2e97a	0.10298438
112	0x3dbfd9c9	0.09367711
113	0x3dd0ae51	0.10189498
114	0x3d9e76e8	0.07737523
115	0x3d71e3ff	0.059055325
116	0x3d8e42e4	0.06946352
117	0x3dbf2482	0.09333135
118	0x3e0603d9	0.13087405
119	0x3df8d0d7	0.12149208
120	0x3d8734ef	0.06601893
121	0x3da47a57	0.08031147
122	0x3da35921	0.07975984
123	0x3dbf15a8	0.093303025
124	0x3dd9809a	0.10620232
125	0x3db4ec60	0.088341475
126	0x3d9e5141	0.07730342
127	0x3ddc4d4b	0.1075693

backbone.13.running_mean f4 [128]
0	0xbcc138fc	-0.023586743
1	0x3f0a6895	0.5406583
2	0x3eb89d70	0.36057615
3	0xbe133cdb	-0.14378683
4	0x3e9de162	0.30836016
5	0x3f1e0659	0.61728436
6	0x3e786c99	0.24260177
7	0xbc1905f7	-0.009339801
8	0x3e537679	0.20650662
9	0x3e384954	0.17996722
10	0x3df3622e	0.11883961
11	0x3e37e17f	0.17957114
12	0x3df4593c	0.119310826
13	0x3eef6385	0.46755615
14	0x3efa828a	0.48927718
15	0xbead7994	-0.3388182
16	0x3e786a74	0.24259359
17	0xbbf47496	-0.007460187
18	0x3d689a64	0.056787863
19	0x3e8d4d0b	0.27597842
20	0x3eba57e6	0.36395186
21	0x3dc53c80	0.0963068
22	0x3dfa51f9	0.12222666
23	0x3e1a139a	0.1504654
24	0x3f38d1d9	0.721952
25	0x3ef5e2d4	0.4802462
26	0x3e032b95	0.12809594
27	0x3d42b3b9	0.047534678
28	0x3e8a5d6d	0.27024403
29	0xbea244eb	-0.31693205
30	0x3dc238c8	0.094834864
31	0x3d537ca0	0.051632524
32	0x3f04dca4	0.5189917
33	0x3eb251ec	0.34828126
34	0x3e8ce8c6	0.27521342
35	0x3ebe3010	0.37146044
36	0x3ea96e86	0.33092135
37	0x3e4ad49e	0.1980767
38	0x3d9638d1	0.073350556
39	0xbd4aa375	-0.04947229
40	0x3eda8849	0.42682102
41	0x3dfb7e47	0.12279945
42	0x3ecea239	0.4035814
43	0x3eec3bbd	0.46139327
44	0x3e536f38	0.20647895
45	0xbdeb9439	-0.115028806
46	0xbc9e81ad	-0.019348944
47	0x3e74e457	0.2391523
48	0x3e572c81	0.2101307
49	0x3f006011	0.50146586
50	0x3e014c43	0.12626748
51	0x3e91d856	0.28485364
52	0x3ee85822	0.4537974
53	0x3d4885e1	0.048955802
54	0x3eb2b43c	0.34903133
55	0x3e86ad73	0.26304206
56	0xbd7194c4	-0.058979765
57	0x3da77a58	0.08177632
58	0x3aeeba2f	0.0018213446
59	0x3e82ddb1	0.25559762
60	0x3e28824c	0.16455954
61	0x3de176fe	0.11009024
62	0x3eafd1d3	0.3433977
63	0xbcb3a2ef	-0.021928279
64	0x3ed1cc1a	0.4097603
65	0x3dfefb91	0.12450326
66	0x3f12a476	0.572822
67	0xbc00f0c9	-0.007869908
68	0xbc14c259	-0.009079539
69	0x3dc7f3a8	0.097632706
70	0x3eb0d793	0.3453947
71	0x3e3aa6bf	0.18227671
72	0x3bab348c	0.00522477
73	0x3ebb59bf	0.36591908
74	0x3e9dcd19	0.3082054
75	0x3d808224	0.06274822
76	0x3db0a5bf	0.086253636
77	0x3e86fb5e	0.26363653
78	0x3ee3189b	0.4435471
79	0x3dbc6904	0.09199718
80	0x3deea938	0.1165337
81	0x3d23d762	0.040000327
82	0x3d0a29a5	0.03373112
83	0xbe3e4cdf	-0.18584011
84	0x3d87e6d8	0.06635827
85	0x3e9442d5	0.2895724
86	0x3e6519a6	0.22373065
87	0xbdfedf56	-0.12444942
88	0x3e20b2d1	0.15693213
89	0x3ea2a860	0.31769085
90	0xbe32c8fe	-0.17459485
91	0x3ed92101	0.42407992
92	0x3ec8a3af	0.3918738
93	0x3e4938b5	0.19650538
94	0xbda6fb2f	-0.08153378
95	0x3e956b43	0.29183397
96	0x3ea87a4d	0.32905808
97	0x3ec79d00	0.3898697
98	0x3e8fbbe0	0.28073025
99	0x3f05803b	0.5214879
100	0x3eb63a85	0.35591522
101	0x3d586470	0.05283016
102	0xbd1a85d3	-0.03772528
103	0xbe870023	-0.26367292
104	0x3e4d24b7	0.20033537
105	0x3c922ad9	0.017842697
106	0x3f16f6e7	0.58970493
107	0xbdc6abb1	-0.09700716
108	0xbe0b95ae	-0.13631317
109	0x3e7326e3	0.23745303
110	0x3d9543d5	0.072883286
111	0xbed0a264	-0.40748894
112	0x3dfea10e	0.124330625
113	0xbe67cbf0	-0.2263639
114	0x3e29a2f5	0.1656607
115	0x3ec50055	0.38476816
116	0x3eb02ba8	0.34408307
117	0x3e50a4fc	0.20375437
118	0xbf30baa1	-0.69034773
119	0xbe0c5da3	-0.13707595
120	0x3ebb4c83	0.3658181
121	0x3e751add	0.23936029
122	0x3ee1534c	0.44008863
123	0x3e158314	0.14600784
124	0xbe5290fc	-0.2056312
125	0x3eacd195	0.33753648
126	0x3e089871	0.13339402
127	0x3e8f516f	0.27991816

backbone.13.running_var f4 [128]
0	0x3da79b92	0.081839696
1	0x3dc0c703	0.094129585
2	0x3dd8c8db	0.10585185
3	0x3db7bfa1	0.08972097
4	0x3dc42220	0.09576821
5	0x3e02833f	0.12745379
6	0x3de5e80e	0.112259015
7	0x3dc96f26	0.09835653
8	0x3da83b13	0.082143925
9	0x3de489e8	0.11159116
10	0x3ddf7e21	0.10912729
11	0x3defcee9	0.11709387
12	0x3dd82fdc	0.105560035
13	0x3dd60e29	0.104519196
14	0x3de0ee5d	0.10982964
15	0x3db1a5b0	0.086741805
16	0x3dd9232b	0.10602411
17	0x3e0047f1	0.12527443
18	0x3e0177e7	0.12643395
19	0x3def04c1	0.116708286
20	0x3da5d896	0.08097951
21	0x3dad7a02	0.08470537
22	0x3daf5c87	0.0856257
23	0x3dbab475	0.09116451
24	0x3e0054a1	0.12532283
25	0x3ded2ca4	0.1158078
26	0x3df212cf	0.11819994
27	0x3df00b65	0.11720923
28	0x3dcbcbc3	0.09950974
29	0x3dce1319	0.10062236
30	0x3dcff321	0.10153795
31	0x3dc36a0f	0.095417134
32	0x3dc04e5f	0.09389948
33	0x3db4ace6	0.0882204
34	0x3dcc0af6	0.09963028
35	0x3dfff077	0.12497037
36	0x3df0b933	0.11754074
37	0x3e0df7d7	0.13864075
38	0x3df8dfcc	0.12152061
39	0x3db07b0a	0.08617218
40	0x3dc3a017	0.09552019
41	0x3de3a064	0.111145765
42	0x3dc1d38c	0.094641775
43	0x3da57b90	0.08080208
44	0x3de4ed81	0.11178113
45	0x3ddfde1d	0.109310366
46	0x3dd3b3e5	0.103370465
47	0x3e0350ca	0.12823787
48	0x3df68401	0.120368965
49	0x3dd89593	0.10575404
50	0x3deb00fc	0.11474797
51	0x3dba18de	0.09086774
52	0x3e00a821	0.12564136
53	0x3dcaed29	0.09908516
54	0x3dd5ecb2	0.10445537
55	0x3dce2611	0.10065854
56	0x3df7eab0	0.1210531
57	0x3d9d9547	0.07694488
58	0x3dc3c464	0.09558943
59	0x3dd2bf29	0.10290367
60	0x3de11e2a	0.109920815
61	0x3de11f1e	0.10992263
62	0x3df53dcb	0.11974677
63	0x3de33af9	0.110952325
64	0x3de4b189	0.11166675
65	0x3daad03c	0.08340499
66	0x3e06efbf	0.13177393
67	0x3dbe622e	0.0929607
68	0x3de2fdc8	0.11083561
69	0x3df48438	0.11939281
70	0x3dc2066a	0.0947388
71	0x3dc87c5f	0.09789347
72	0x3dcc39b5	0.09971944
73	0x3de9d63b	0.11417814
74	0x3dbf9d28	0.09356147
75	0x3dd12d34	0.102137
76	0x3e042b39	0.12907113
77	0x3ddc3b51	0.10753501
78	0x3dc325c9	0.09528691
79	0x3dc50e72	0.09621896
80	0x3dcd7089	0.1003123
81	0x3db47441	0.08811236
82	0x3dc77638	0.09739345
83	0x3db27dbf	0.087153904
84	0x3dd87126	0.10568456
85	0x3ded5cce	0.11589967
86	0x3ddd7216	0.10812776
87	0x3da6cca5	0.081445016
88	0x3dd946de	0.1060922
89	0x3dd438ae	0.10362373
90	0x3df76823	0.120804094
91	0x3e055784	0.13021666
92	0x3dc566ef	0.09638774
93	0x3dac0e6b	0.084011875
94	0x3dccd037	0.10000651
95	0x3dbe9271	0.09305275
96	0x3dcd0f04	0.1001263
97	0x3d955781	0.07292081
98	0x3dd0d7de	0.101974234
99	0x3dd610bd	0.10452411
100	0x3df77608	0.120830595
101	0x3dc6ceb7	0.097073965
102	0x3dcb9114	0.09939781
103	0x3ddcf50a	0.10788925
104	0x3dcbd15c	0.099520415
105	0x3db34bcd	0.08754692
106	0x3de08cc2	0.109643474
107	0x3de0d8f4	0.109788805
108	0x3dc08d0b	0.09401902
109	0x3de01300	0.10941124
110	0x3de0f8a7	0.10984927
111	0x3db67607	0.08909231
112	0x3df44ca4	0.119286805
113	0x3db41666	0.08793335
114	0x3db8fe12	0.09032835
115	0x3dc59144	0.09646848
116	0x3dcc3484	0.09970954
117	0x3de82b0c	0.113363355
118	0x3dd91836	0.10600321
119	0x3dc66c6b	0.09688648
120	0x3ddb1139	0.10696644
121	0x3ddb0dea	0.10696013
122	0x3de7436f	0.11292159
123	0x3df83008	0.12118536
124	0x3dcdf395	0.10056225
125	0x3e011da0	0.12608957
126	0x3db7d6cd	0.08976517
127	0x3ddff0c2	0.10934593
