results/cnn_feature/baseline_hist_eq/cnn_best.pt (torch, 472561 bytes, 24 tensors)

backbone.0.weight f4 [16, 1, 3, 3]
0	0x3e8dba60	0.27681255
1	0x3e9b5ef1	0.30345872
2	0xbd827c04	-0.0637131
3	0x3e839a6f	0.2570376
4	0xbdb3ac97	-0.08773153
5	0x3d7dff21	0.062010888
6	0xbe558907	-0.20853053
7	0x3e0e540f	0.13899253
8	0x3e96ac6a	0.29428416
9	0xbe927279	-0.2860296
10	0x3e54c024	0.20776421
11	0x3b8df7d6	0.004332523
12	0x3e6bf2a1	0.23041774
13	0xbce9c2ac	-0.02853521
14	0x3e1ac33a	0.15113536
15	0xbd667b31	-0.05626983
16	0x3e9d3e3e	0.3071155
17	0x3d488dcb	0.04896335
18	0xbe14e818	-0.14541662
19	0x3dacff85	0.08447174
20	0xbe208f9b	-0.15679781
21	0xbd1c3dc2	-0.038144834
22	0xbe006b4c	-0.1254093
23	0x3e611c5f	0.21983479
24	0xbe9a4c9d	-0.30136576
25	0xbe284215	-0.16431458
26	0xbda7d639	-0.081951566
27	0xbe487c1d	-0.19578595
28	0x3ced32ad	0.028954828
29	0xbea97f8d	-0.33105126
30	0x3e9c3298	0.3050735
31	0xbe927315	-0.28603426
32	0x3e81e988	0.25373483
33	0x3d828918	0.06373805
34	0xbde79584	-0.11307815
35	0x3e4c618a	0.19959083
36	0xbba2f8b5	-0.004973496
37	0x3e3f50f6	0.18683228
38	0x3ba3c1ed	0.004997483
39	0xbdf5a970	-0.11995208
40	0x3d539507	0.051655795
41	0xbd9d41c5	-0.0767856
42	0x3e439bdd	0.19102426
43	0x3ec02567	0.37528536
44	0x3e4ed4d0	0.20198369
45	0xbdf1e2d6	-0.11810844
46	0x3e586fff	0.21136473
47	0x3d88f103	0.06686594
48	0x3e403c63	0.18773036
49	0xbe464bb5	-0.19364817
50	0xbeaf328c	-0.34218252
51	0xbdf48a9f	-0.119405024
52	0xbe8742ae	-0.2641806
53	0x3e81eb97	0.25375053
54	0x3dd5eccf	0.10445558
55	0x3dfdc752	0.12391533
56	0x3de0ba73	0.10973062
57	0x3c809d54	0.01570002
58	0x3e89c11b	0.2690514
59	0xbe798612	-0.2436755
60	0x3ca0e807	0.01964189
61	0xbe6378ce	-0.22214052
62	0x3dbb1a1b	0.091358386
63	0xbde4b300	-0.11166954
64	0x3dd2245a	0.1026084
65	0xbd7ac020	-0.06121838
66	0x3e908dab	0.28233084
67	0xbe42dcfa	-0.19029608
68	0xbe4a89c2	-0.19779113
69	0xbe4d121b	-0.20026438
70	0x3e9ae4e3	0.30252752
71	0x3de66a0f	0.11250698
72	0x3ea3cbd3	0.31991443
73	0xbe872022	-0.26391703
74	0xbeb0b9c4	-0.34516728
75	0xbe80641e	-0.25076383
76	0xbe6cbec0	-0.2311964
77	0x3e13b5f3	0.14424877
78	0x3e05b565	0.13057478
79	0x3e8ea548	0.27860475
80	0xbe206c09	-0.15666212
81	0xbe5a9915	-0.21347459
82	0x3e37503a	0.17901698
83	0xbdf594e7	-0.119912915
84	0x3e508333	0.20362549
85	0xbd95e297	-0.07318609
86	0x3e4aff27	0.19823895
87	0xbe8843ea	-0.26614314
88	0xbe31b2d4	-0.17353374
89	0x3de0824d	0.10962353
90	0x3d858f0b	0.06521424
91	0xbdb81ec7	-0.08990245
92	0x3e4dd8c2	0.20102218
93	0x3e5e2086	0.21692094
94	0xbe81b97d	-0.2533683
95	0xbe3877be	-0.18014428
96	0x3e974f4b	0.29552683
97	0xbdfc227f	-0.12311267
98	0xbdf467eb	-0.11933883
99	0xbe848a4a	-0.25886756
100	0xbe22099b	-0.15823977
101	0x3d962a5c	0.07332298
102	0xbd86364d	-0.06553326
103	0xbe803df8	-0.25047278
104	0xbc0915d2	-0.008367019
105	0xbe430947	-0.19046508
106	0xbec30d8f	-0.38096282
107	0xbe48bda0	-0.19603586
108	0xbe869668	-0.26286626
109	0xbe231c11	-0.15928675
110	0x3ea93078	0.3304479
111	0x3c553ba5	0.013014709
112	0x3dc67349	0.09689958
113	0xbead0d52	-0.33799225
114	0xbe80379d	-0.2504243
115	0xbe04bd2a	-0.12962785
116	0x3ccd52c6	0.025063884
117	0xbe974074	-0.2954136
118	0xbe20cdba	-0.15703478
119	0xbe3b60f3	-0.18298702
120	0x3c46d7ba	0.012136394
121	0xbe18f091	-0.14935519
122	0x3bd2a2b5	0.0064280876
123	0xbe645da1	-0.22301342
124	0xbe859c84	-0.26095974
125	0xbe30afa7	-0.17254506
126	0xbde8d7c5	-0.1136928
127	0xbe8386bc	-0.25688732
128	0x3e934842	0.28766066
129	0xbd953491	-0.07285417
130	0x3e8fc72f	0.28081653
131	0x3dd2f7f5	0.103012
132	0xbe9513f8	-0.29116797
133	0x3e630063	0.22168116
134	0xbdc4926b	-0.095982395
135	0xbdfe5e1a	-0.12420292
136	0xbea5a939	-0.3235567
137	0xbea45cc1	-0.32102016
138	0x3db72e00	0.08944321
139	0xbdf205a2	-0.118174806
140	0x3df56f4e	0.1198412
141	0xbe8c3900	-0.27387238
142	0x3e5d0eac	0.21587628
143	0xbe83c713	-0.2573782

backbone.1.weight f4 [16]
0	0x3f7e30d7	0.99293274
1	0x3f7f5abe	0.99747837
2	0x3f7ff1a2	0.9997808
3	0x3f7ed999	0.9955078
4	0x3f809ae5	1.004727
5	0x3f800698	1.0002012
6	0x3f80aadc	1.0052142
7	0x3f822a09	1.0169078
8	0x3f801a45	1.0008017
9	0x3f7a27e6	0.9771713
10	0x3f835bff	1.026245
11	0x3f800f0f	1.0004596
12	0x3f7ca66a	0.9869143
13	0x3f7fb49f	0.9988498
14	0x3f805834	1.0026917
15	0x3f7f3909	0.99696404

backbone.1.bias f4 [16]
0	0xbc7c9393	-0.015416044
1	0x3bad8b0d	0.005296117
2	0xbbcc0c00	-0.0062270164
3	0x3c6d6bd8	0.014491044
4	0x3bbe45a5	0.005806642
5	0x3c03955c	0.0080312155
6	0x3b9801ca	0.004638885
7	0x3c63e419	0.013909363
8	0x3b9d7327	0.004804987
9	0xbbe0a973	-0.0068561374
10	0xbc19fbaa	-0.00939838
11	0xbcb2cbdd	-0.021825725
12	0x3a46a034	0.0007576973
13	0xbc875bb0	-0.016523212
14	0xbbfa57e4	-0.007639872
15	0xbc42cf05	-0.011890178

backbone.1.running_mean f4 [16]
0	0x3bb4870b	0.0055092624
1	0xb907ff7e	-0.00012969782
2	0xbbb30bb7	-0.005464043
3	0xba344c93	-0.00068778655
4	0x3b34d5ad	0.002759318
5	0xb958b6a2	-0.00020667401
6	0x3b230c5f	0.00248792
7	0xb952294f	-0.0002004255
8	0x38bcfceb	9.011648e-05
9	0xbb422874	-0.0029626163
10	0x3b99ac91	0.004689761
11	0xbbebcafe	-0.0071958294
12	0xbba001a2	-0.004883007
13	0xbc0430c3	-0.008068266
14	0xbb73e3e8	-0.00372147
15	0xbbd1bb39	-0.0064004925

backbone.1.running_var f4 [16]
0	0x3f666fd9	0.90014416
1	0x3eac0499	0.33597258
2	0x3ef6117a	0.4806021
3	0x3c82568d	0.015910411
4	0x3f21c7d0	0.63195515
5	0x3dd70ee7	0.10500889
6	0x3d95093f	0.07277154
7	0x3bba16f6	0.0056790067
8	0x3e1bdb64	0.1522041
9	0x3cf38b05	0.029729376
10	0x3c859467	0.016306115
11	0x3ffc51e9	1.9712497
12	0x3ee1172f	0.43963
13	0x3ff5505c	1.9165149
14	0x3cb3b0b7	0.02193485
15	0x3f6f045a	0.93366015

backbone.4.weight f4 [32, 16, 3, 3]
0	0xbbb261a8	-0.0054437704
1	0x3cd89224	0.026436873
2	0x3d3d14f2	0.046162553
3	0x3d99af12	0.07504095
4	0x3da33993	0.07969966
5	0xbd9e80fe	-0.07739447
6	0x3cb1beac	0.021697365
7	0xbd33a0cd	-0.043854523
8	0xbcb08818	-0.02154927
9	0xbd75ec04	-0.060039535
10	0x3da43478	0.0801782
11	0xbd8e1cba	-0.06939073
12	0x3d3971c8	0.045274526
13	0x3cb36e92	0.02190331
14	0x3bdf82dd	0.00682102
15	0xbd567596	-0.052358232
16	0x3d6dd5cb	0.058065217
17	0xbbe13133	-0.00687232
18	0x3ccb2ddb	0.024802139
19	0xbd84f572	-0.064921275
20	0x3c9e2ba0	0.019307911
21	0xbc235d60	-0.009970993
22	0xbd34088a	-0.043953456
23	0x3d7a2875	0.06107374
24	0xbb2ceb91	-0.0026385526
25	0xbd5c17cb	-0.05373363
26	0xbd9789df	-0.07399344
27	0xbc3d4148	-0.011551209
28	0x3d7e3ff5	0.062072713
29	0xbd26d675	-0.040731866
30	0xbd946e89	-0.072476454
31	0xbc926aa1	-0.01787311
32	0xbd96bc16	-0.07360093
33	0x3c3d812d	0.011566442
34	0x3d26a424	0.04068388
35	0xbdb8daf5	-0.09026138
36	0x3cc61267	0.024178697
37	0x3d3f74e9	0.046742354
38	0x3bde97e0	0.0067930073
39	0xbccf30bc	-0.025291793
40	0x3d2a4a8f	0.04157501
41	0x3cd7b4be	0.026331302
42	0x3cd58e06	0.026068699
43	0xbd002568	-0.031285673
44	0xbd2d55d9	-0.0423182
45	0x3c540f97	0.01294317
46	0xbd295792	-0.04134328
47	0xbd0d97be	-0.03456854
48	0x3cd5b542	0.026087407
49	0x3d473812	0.048637457
50	0xbd016265	-0.031587977
51	0xbd27f2b4	-0.041002944
52	0xbc4b3952	-0.012403803
53	0xbd311534	-0.04323311
54	0x3d1d32b2	0.038378425
55	0x3d28f9f9	0.041254018
56	0xbd88a5d4	-0.06672254
57	0xbcb8a7b9	-0.022540914
58	0x3da17501	0.07883645
59	0x3cd1ad20	0.025595248
60	0x3b7ace64	0.003826999
61	0xbd3e6b26	-0.046488903
62	0xbd8d2c54	-0.068932205
63	0xbd8dfd3d	-0.06933067
64	0xbcb4f25b	-0.02208822
65	0x3cf9b0a5	0.030479738
66	0x3d34254f	0.043980893
67	0x3d25e496	0.0405012
68	0xbdb52841	-0.088455684
69	0xbd57b9bd	-0.05266737
70	0xbbc14753	-0.005898395
71	0x3db0a59e	0.08625339
72	0x3d1bbea7	0.038023617
73	0xbb5a2d6e	-0.0033291238
74	0x3d018ea7	0.031630185
75	0xbcc39e05	-0.02387906
76	0xbd8f9449	-0.07010705
77	0x3d424dec	0.047437593
78	0xbd4f8e67	-0.050672915
79	0xbcc8702b	-0.024467548
80	0xbd8d96d1	-0.069135316
81	0x3d5b5f39	0.05355761
82	0x3d9a05b6	0.075206205
83	0x3ceb3522	0.02871186
84	0xbd9ef069	-0.07760698
85	0xbdc9d082	-0.09854223
86	0xbd8ccf01	-0.0687542
87	0x3d35d7ec	0.044395372
88	0x3ce2f2f3	0.027703738
89	0x3d6293aa	0.055316605
90	0x3d912cb8	0.070886075
91	0x3d8c6931	0.06856001
92	0x3bdaed4d	0.0066811205
93	0xbd49e0c5	-0.049286623
94	0xbd278b27	-0.04090419
95	0xbd0319b8	-0.03200695
96	0x3d93a76b	0.07209667
97	0xbc55d894	-0.0130521245
98	0xbca49d21	-0.020094456
99	0xbcf8c774	-0.030368544
100	0xbbc3e286	-0.0059779314
101	0xbd8038da	-0.062608436
102	0xbd3fd583	-0.04683448
103	0x3c2813c8	0.0102586225
104	0xbd20c802	-0.039253242
105	0x3d00e607	0.03146937
106	0xbd18a144	-0.03726317
107	0xbdc04d20	-0.093897104
108	0xbbf75bfd	-0.0075488077
109	0xbcdf4847	-0.027256144
110	0xbcc40df8	-0.023932442
111	0xbda0b28c	-0.07846555
112	0x3d188bd0	0.03724271
113	0xbd9f9a96	-0.07793157
114	0x3caeab63	0.021321958
115	0x3cc22952	0.023701344
116	0x3c8bf3d2	0.017084036
117	0xbd2c2019	-0.0420228
118	0x3d907951	0.07054389
119	0xbd18bbbb	-0.03728841
120	0x3d44c6a8	0.048041016
121	0x3d8891d2	0.06668438
122	0xbc94ab64	-0.018148132
123	0xbc9a92b8	-0.01886879
124	0xbcffaf74	-0.031211592
125	0xbdbd0572	-0.09229554
126	0x3cdf3aa1	0.027249636
127	0xbd95f2b2	-0.07321681
128	0x3d1d89f1	0.03846163
129	0x3d702c90	0.058636248
130	0x3dadc9e3	0.084857725
131	0xbd279b86	-0.040919803
132	0xbd90230f	-0.07037937
133	0x3c1c3ae5	0.009535526
134	0x3cec8c56	0.028875511
135	0xbd84d54e	-0.06485997
136	0xbb5e804d	-0.0033950985
137	0xbd4438fc	-0.047905907
138	0x3c98955f	0.018625913
139	0xbd442363	-0.04788531
140	0xbd0128ba	-0.03153298
141	0xbd3ba6c1	-0.045813326
142	0xbdd5b547	-0.104349665
143	0x3d3cb457	0.046070423
144	0x3d918126	0.07104711
145	0xbc324998	-0.010881804
146	0xbc64cd7f	-0.01396501
147	0xbcb67bd7	-0.022275848
148	0xbda3e318	-0.08002299
149	0xbdac84d7	-0.08423775
150	0x3cd461b5	0.025925497
151	0xbd5f7790	-0.054557383
152	0xbd82ef5f	-0.06393313
153	0xba847cbf	-0.0010107978
154	0xbcda3e3e	-0.026641008
155	0xbcf1cc79	-0.029516445
156	0x3b87d039	0.004144695
157	0xbc835014	-0.016029395
158	0xbd0fd613	-0.035116266
159	0xbd653481	-0.055958275
160	0xbd88cf89	-0.06680209
161	0x3d6bce31	0.057569686
162	0xbd47b70d	-0.048758555
163	0x3c683e59	0.014175021
164	0xbd2ac8d6	-0.04169544
165	0x3b239083	0.0024957962
166	0x3da02c95	0.07821003
167	0x3cc0d9e0	0.02354139
168	0xbd9892be	-0.07449864
169	0x3cd29320	0.02570492
170	0x3d827078	0.06369108
171	0x3c7a5994	0.015280146
172	0x3d88e780	0.0668478
173	0x3dbcb121	0.09213472
174	0xbd35bf57	-0.04437193
175	0x3be97e35	0.0071256408
176	0xbd83662b	-0.06415971
177	0xbd098306	-0.03357222
178	0x3d8474f0	0.064676166
179	0x3d1aaf2d	0.037764717
180	0xbd3f5389	-0.046710525
181	0xbd8325cd	-0.06403694
182	0xbd6d24eb	-0.057896536
183	0xbd9f8ca3	-0.07790496
184	0xbd8412f9	-0.06448931
185	0xbce8859a	-0.028384019
186	0x3d3229bb	0.04349683
187	0x3c43b8e8	0.011945941
188	0xbd997424	-0.07492855
189	0xbd9db8c5	-0.077012576
190	0x3d2693ac	0.040668175
191	0xbd8f30db	-0.0699174
192	0x3ae54335	0.0017491343
193	0x3cf31bfc	0.02967643
194	0xbd5e22ac	-0.054232284
195	0xbbe4abbd	-0.0069784806
196	0xbcabb799	-0.02096157
197	0xbd0d21de	-0.034456126
198	0xbd113ba9	-0.035457287
199	0xbd74b0b4	-0.05973883
200	0xbd43c4d3	-0.047795128
201	0xbceb0f17	-0.028693719
202	0x3dafba99	0.085805126
203	0xbd20bfba	-0.039245345
204	0xbd533163	-0.05156077
205	0x3cf867b3	0.030322885
206	0x3caa3dcd	0.020781422
207	0x3d3de949	0.046365056
208	0x3d90efd5	0.07076994
209	0x3d89e877	0.06733792
210	0xbd86573e	-0.06559609
211	0xbb2ec8c9	-0.002666997
212	0x3d03edee	0.03220933
213	0xbaab8b1c	-0.0013087722
214	0xbd8c9f9a	-0.06866379
215	0x3d7bba1a	0.061456777
216	0xbd58418b	-0.05279688
217	0xbd6c41ec	-0.057680055
218	0xbda0ed20	-0.07857728
219	0x39659908	0.0002189615
220	0x3d1a1bef	0.037624296
221	0x3ba7f9e1	0.0051262234
222	0x3cb9847c	0.022646181
223	0xbd903635	-0.07041589
224	0xbdb46e6c	-0.08810124
225	0x3bb2070a	0.005432968
226	0x3d95ce3f	0.07314729
227	0x3d3b887a	0.04578445
228	0xbd16a4f9	-0.036778424
229	0xbaa97a1f	-0.0012930072
230	0xbd8aae73	-0.06771555
231	0xbca59a15	-0.020215074
232	0x3cd5edbf	0.026114343
233	0x3d46c190	0.04852444
234	0x3db475cb	0.0881153
235	0xbd857ddb	-0.06518146
236	0x3d7472c6	0.05967977
237	0xbd4166d8	-0.04721722
238	0x3d3ae771	0.045630876
239	0x3d6b248a	0.057407893
240	0xbcb78dd1	-0.02240649
241	0x3dcc39c4	0.099719554
242	0xbd60c8c0	-0.05487895
243	0xbd3ca864	-0.046059027
244	0x3d266e35	0.040632445
245	0xbce5adea	-0.02803703
246	0xbcaad350	-0.020852715
247	0xbd2d534c	-0.042315766
248	0x3d314393	0.043277334
249	0x3d16542f	0.036701377
250	0x3c77a964	0.0151160695
251	0xbd7595e7	-0.05995741
252	0xbda3ccfb	-0.07998081
253	0x3b7252c5	0.0036975604
254	0x3c86fc05	0.016477594
255	0xbd37639b	-0.044772726

backbone.5.weight f4 [32]
0	0x3f822c81	1.0169832
1	0x3f82bcc6	1.0213859
2	0x3f81f365	1.0152403
3	0x3f81e8c3	1.0149158
4	0x3f7d98dc	0.9906137
5	0x3f8271b7	1.0190953
6	0x3f7bc672	0.9834968
7	0x3f7f1480	0.99640656
8	0x3f83c8cc	1.0295653
9	0x3f7c6a5e	0.98599803
10	0x3f7e5c55	0.9935964
11	0x3f816f32	1.0112059
12	0x3f83738a	1.0269635
13	0x3f7c3097	0.9851164
14	0x3f837762	1.0270808
15	0x3f825da5	1.0184828
16	0x3f79bb92	0.97551835
17	0x3f856b2e	1.0423334
18	0x3f807335	1.0035158
19	0x3f7f2156	0.9966024
20	0x3f7e80cf	0.99415296
21	0x3f7c0f99	0.984613
22	0x3f829335	1.0201174
23	0x3f82ea80	1.0227814
24	0x3f81b0b9	1.0132056
25	0x3f796095	0.97413
26	0x3f7bd0b7	0.9836535
27	0x3f7f2704	0.9966891
28	0x3f808f9b	1.0043825
29	0x3f8285fa	1.0197136
30	0x3f7f124e	0.99637306
31	0x3f7e3031	0.99292284

backbone.5.bias f4 [32]
0	0xbc4f7dd1	-0.012664274
1	0xbd0a71c8	-0.033799917
2	0xbc951f4e	-0.018203404
3	0xbc7ed82a	-0.015554467
4	0xbcb18b2e	-0.021672811
5	0xbc916259	-0.017747091
6	0xbcd40159	-0.025879549
7	0x3c882855	0.016620794
8	0x3a9d64ea	0.0012008224
9	0xbc1e018e	-0.009643925
10	0xbc5b7481	-0.013394476
11	0x3a8fcb78	0.0010970673
12	0xbd06ea9e	-0.032938592
13	0x3bbfd82b	0.0058546267
14	0x3b9f4062	0.00485997
15	0xbc7c716b	-0.0154079
16	0xbce347c9	-0.02774419
17	0x3bada58c	0.0052992757
18	0xbbedd3e1	-0.007257924
19	0xbc8e5078	-0.017372355
20	0xbd4931a7	-0.049119618
21	0xbc0a07c2	-0.008424701
22	0xbcdded30	-0.027090639
23	0x3cc0494c	0.02347245
24	0xbc4c8372	-0.012482511
25	0xbcaef65e	-0.021357711
26	0x3bac8f69	0.0052661193
27	0xbcf2a261	-0.029618444
28	0xbd1b3c50	-0.037899315
29	0x3c5422d1	0.012947754
30	0xbcd74057	-0.026275797
31	0xbc88e63d	-0.016711349

backbone.5.running_mean f4 [32]
0	0xbeee7ebe	-0.46581072
1	0xbf217cb5	-0.6308091
2	0x3e6b65aa	0.22988
3	0xbe91df52	-0.28490692
4	0x3c49046e	0.0122691225
5	0xbde45a97	-0.11150091
6	0xbe46235d	-0.19349428
7	0x3ec8f3c9	0.39248493
8	0xbe079c16	-0.13243136
9	0xbebcb113	-0.36853847
10	0x3dfa5279	0.12222762
11	0x3dcfbc83	0.10143378
12	0xbee5399d	-0.44770518
13	0x3f47b14c	0.7800491
14	0xbf007bbd	-0.5018881
15	0xbd2b3aa8	-0.041803986
16	0xbcd2d4bf	-0.02573621
17	0xbe51e3f7	-0.20497118
18	0x3ec09189	0.37611035
19	0x3de4a12d	0.11163554
20	0x3dd2ea73	0.10298624
21	0x3d307f63	0.043090235
22	0xbf03260d	-0.51229936
23	0xbeafa639	-0.34306505
24	0x3ddfcc88	0.10927683
25	0xbebee309	-0.3728259
26	0x3df7e337	0.12103885
27	0xbc891876	-0.016735297
28	0x3e5929c5	0.2120734
29	0xbe703f7e	-0.2346172
30	0xbf01c26e	-0.506873
31	0x3f1682b6	0.587932

backbone.5.running_var f4 [32]
0	0x3f13209c	0.5747163
1	0x3e6967bd	0.2279348
2	0x3eb27855	0.3485743
3	0x3d9165d4	0.070995
4	0x3e2da2de	0.1695666
5	0x3dfede9a	0.12444802
6	0x3e993caa	0.29929096
7	0x3e5a80fa	0.21338263
8	0x3dda9550	0.1067301
9	0x3e6cf139	0.23138894
10	0x3d608aa5	0.05481972
11	0x3db060dc	0.086122245
12	0x3e476e60	0.19475698
13	0x3f05cfe7	0.5227036
14	0x3e415cf0	0.18883109
15	0x3dea26ff	0.11433219
16	0x3e299097	0.16559063
17	0x3e0ac010	0.13549829
18	0x3dbc4dc5	0.09194521
19	0x3e3a0618	0.18166387
20	0x3de99197	0.11404722
21	0x3dcf506f	0.10122763
22	0x3e7d10ea	0.24713483
23	0x3dd6d0ff	0.104890816
24	0x3de711d3	0.112826966
25	0x3ee1e8ea	0.44123012
26	0x3e59edc3	0.21282105
27	0x3e9db080	0.3079872
28	0x3e085d9a	0.13316956
29	0x3d86f0fa	0.065889314
30	0x3e3ccc63	0.18437342
31	0x3e4dfddc	0.20116371

backbone.8.weight f4 [64, 32, 3, 3]
0	0xbc0e6380	-0.008690715
1	0x3cbd10b8	0.023079261
2	0x3d646e2c	0.05576913
3	0xbd31ea9a	-0.043436624
4	0xbc1397fb	-0.009008403
5	0x3d58d7a7	0.052940037
6	0x3c00ebe2	0.007868739
7	0x394813dc	0.00019080885
8	0x3cf2a9d9	0.029622005
9	0xbd41ff71	-0.04736275
10	0xbc392e92	-0.011302607
11	0xbd046009	-0.03231815
12	0x3b50c969	0.003185833
13	0xbcadeedd	-0.021232063
14	0xbc203f47	-0.0097807115
15	0x3bef0c01	0.007295132
16	0x3d1bd344	0.038043275
17	0x3cd6921c	0.026192717
18	0xbd796c17	-0.060894098
19	0xbd10907b	-0.035294037
20	0xbd74294a	-0.05960969
21	0x3cdb7b74	0.026792265
22	0x3d09cd3b	0.03364299
23	0xbd9bbad8	-0.07603997
24	0x3b8bc70e	0.0042656725
25	0xbad4a5c0	-0.0016223714
26	0xbcf80bb1	-0.030279012
27	0xbbc027f8	-0.0058641396
28	0x3ceb25ed	0.028704608
29	0x3db504f8	0.08838838
30	0x3d78433b	0.06061099
31	0xbd0c0674	-0.03418584
32	0xbc510e6d	-0.012759787
33	0xbc498555	-0.012299855
34	0xbc5143ed	-0.012772542
35	0xbd55233a	-0.052035548
36	0x3c78cd5c	0.01518568
37	0xbd96fb04	-0.07372096
38	0xba58a1e2	-0.00082638685
39	0xbc9c487d	-0.019077534
40	0xbc0bef8e	-0.008541001
41	0x3d80a2a9	0.06281025
42	0x3c8ed0c9	0.01743354
43	0xbc02ea0e	-0.007990373
44	0xbc96106c	-0.018318377
45	0xbd4d2e2f	-0.050092872
46	0xbd120428	-0.035648495
47	0x3d0cb3a7	0.034351017
48	0xbd215e81	-0.039396767
49	0x3d1f9ec3	0.038969766
50	0xbca519cf	-0.020153908
51	0x3d3a4ab8	0.045481414
52	0x3dc2593c	0.09489676
53	0x3cf48cae	0.029852238
54	0x3ca0d7d7	0.01963417
55	0x3d10db08	0.035365134
56	0xbcde7674	-0.027156092
57	0x3d0e935b	0.034808498
58	0xbd73f12c	-0.05955617
59	0x3d16ed22	0.03684724
60	0xbc094308	-0.008377798
61	0xbcba51e4	-0.022744127
62	0x3d129359	0.035785053
63	0x3cae13a4	0.0212496
64	0x3d7971b6	0.06089946
65	0xbb89f757	-0.0042103934
66	0xbcf79fe7	-0.030227615
67	0x3d477b56	0.048701607
68	0xbcd73166	-0.026268672
69	0x3ce15b37	0.027509315
70	0x3d4ec8bc	0.050484404
71	0x3d159e7e	0.036528103
72	0xbc39188c	-0.011297356
73	0x3c80d6d3	0.015727436
74	0xbd75eff3	-0.060043287
75	0xbcaa1537	-0.02076207
76	0x3ba397d2	0.0049924636
77	0xbce7dbb8	-0.028303012
78	0x3d295f6d	0.04135077
79	0x3d1eb1fe	0.038743965
80	0xba63ea78	-0.00086943014
81	0xbcc57b6e	-0.024106707
82	0x3cd2db4c	0.025739335
83	0xbcbe88b6	-0.023258548
84	0x3cef6008	0.029220596
85	0x3d5bea18	0.053690046
86	0xbc59e9ec	-0.0133004
87	0xbd94b318	-0.07260722
88	0x3d5d711c	0.054062948
89	0xbcbdc3e6	-0.0231647
90	0x3d81dfa8	0.06341487
91	0xbd13d35d	-0.036090244
92	0x3c0385e6	0.008027529
93	0x3cad7bcd	0.021177197
94	0x39787d10	0.00023697712
95	0x3d231a5b	0.039820056
96	0xbd63dca6	-0.05563035
97	0xbccc2210	-0.024918586
98	0xbcf0e97c	-0.029408209
99	0x3d1a1cd0	0.037625134
100	0x3d328c9e	0.043591134
101	0x3d60bbae	0.054866485
102	0x3d3f35ea	0.046682276
103	0x3d657c35	0.056026656
104	0xbb58da20	-0.0033088997
105	0xbc58a9a3	-0.013224038
106	0x3c1b9bf8	0.009497635
107	0x3d0a49e0	0.03376186
108	0xbc9d6c6a	-0.019216735
109	0x3ccec7bd	0.025241727
110	0x3cc6e4b1	0.02427897
111	0x3d10c183	0.035340797
112	0x3d14dc3d	0.036342848
113	0x3c60cf94	0.0137213655
114	0x3d9b69cc	0.075885385
115	0x3b88a683	0.0041702404
116	0xbd487bbf	-0.04894614
117	0x3c86b01b	0.016441396
118	0x3c26e3ee	0.010186179
119	0x3d318350	0.04333812
120	0x3cbb5019	0.022865342
121	0xbaa84a01	-0.0012839438
122	0xbd070b30	-0.032969654
123	0xbd885c9f	-0.06658291
124	0x39c60caf	0.00037774953
125	0x3d3d5fee	0.046234064
126	0x3d03cd0b	0.032177966
127	0x3bf038ea	0.0073310034
128	0x3d02e2e8	0.031954676
129	0xbb3e13db	-0.0029003534
130	0x3cc49937	0.02399884
131	0xbd75ca4c	-0.06000738
132	0xbcb084a0	-0.021547616
133	0xbcdd0c0d	-0.026983285
134	0x3b6b331d	0.003588862
135	0x3cc18820	0.02362448
136	0x3d46df9f	0.048553105
137	0xbd3f3a08	-0.046686202
138	0xb86fa110	-5.713204e-05
139	0x3d0926e9	0.033484373
140	0xbca9d505	-0.020731458
141	0xbcc06bb9	-0.023488866
142	0x3d1aa203	0.037752163
143	0xbc741593	-0.014897722
144	0x3ca86fab	0.02056106
145	0x3d02a955	0.03189977
146	0x3c143906	0.009046799
147	0xbcf65cdd	-0.030073578
148	0xbd576e50	-0.052595437
149	0xbd375ec7	-0.04476812
150	0xbcbc92a9	-0.023019152
151	0x3c96f336	0.018426519
152	0x3cb8e05c	0.02256792
153	0x3be7606d	0.0070610554
154	0x3d8dd878	0.06926054
155	0x3b2555c8	0.0025228132
156	0xbc38171a	-0.011235977
157	0xbd68d380	-0.056842327
158	0x3cb6b44b	0.022302767
159	0x3d7055db	0.05867563
160	0x3d22720a	0.039659537
161	0x3d09a377	0.033603158
162	0xbcc771b9	-0.02434622
163	0xbd2d3a98	-0.042292207
164	0xbd421a54	-0.04738839
165	0xbd5862cd	-0.0528286
166	0x3d097032	0.033554263
167	0xbb997a96	-0.004683803
168	0xbcc52b60	-0.024068534
169	0xbd58bef4	-0.052916482
170	0xbc7be4fb	-0.015374417
171	0x3d619bc4	0.05508019
172	0x3bbbf665	0.0057361596
173	0x3c61566b	0.013753514
174	0x3d091db4	0.033475593
175	0x3d65db46	0.05611732
176	0x3d2cc0bf	0.042176004
177	0xbd49a5dc	-0.04923044
178	0x3d023a8e	0.031794123
179	0xbcc9333a	-0.02456056
180	0xbd44ff49	-0.04809502
181	0x3ccbd212	0.024880443
182	0xbd9273e0	-0.07151008
183	0xbd0de38f	-0.034640845
184	0x3c777897	0.015104434
185	0x3cfbaac8	0.030721083
186	0xbd3c4853	-0.04596741
187	0xbd219a4b	-0.039453786
188	0xbc84edf3	-0.016226744
189	0xbca4c28e	-0.020112302
190	0xbbed79f2	-0.007247203
191	0x3a9f6c67	0.0012163044
192	0x3ceba9a7	0.02876742
193	0xbc51f8d5	-0.012815674
194	0x3d80e879	0.06294341
195	0xbbcdc92d	-0.0062800855
196	0xbcae9567	-0.021311475
197	0xbc09d33b	-0.008412178
198	0x3d21701d	0.03941356
199	0x3d2e1852	0.042503662
200	0xbc2e9320	-0.0106551945
201	0x3d4d1f6e	0.0500788
202	0x3b6ae956	0.0035844645
203	0x3be27db5	0.006911958
204	0x3d95c25b	0.07312461
205	0x3d67598e	0.05648189
206	0xbaa1d7c6	-0.0012347631
207	0xbd0cf070	-0.034408987
208	0x3cf42e98	0.029807374
209	0x3c1b8f12	0.00949456
210	0xbc060d36	-0.008181861
211	0x3d0430c1	0.032273058
212	0xbc8bbdd3	-0.017058289
213	0xbcd329de	-0.0257768
214	0xbd9b36e1	-0.07578827
215	0x3d3bf7f8	0.04589078
216	0xbacf1a56	-0.0015800695
217	0xbd0e3703	-0.034720432
218	0xbd299552	-0.04140217
219	0x3d9d3f1a	0.07678051
220	0xb7b140c0	-2.1130196e-05
221	0xbbff01c2	-0.007782192
222	0xbd45c3dc	-0.04828249
223	0x3d2cfc98	0.04223308
224	0x3d161e6e	0.036650114
225	0xbcacf58f	-0.021113185
226	0xbd861e7f	-0.065487854
227	0x3d002864	0.03128852
228	0xbd074e3a	-0.033033587
229	0x3d007678	0.03136298
230	0xbd80717a	-0.06271644
231	0xbd70382a	-0.058647312
232	0xbd71245a	-0.05887256
233	0x3d30ffa2	0.04321254
234	0x3cff616a	0.03117438
235	0xbd939a46	-0.0720716
236	0x3d2a6c7f	0.041607376
237	0xbd1e943b	-0.038715582
238	0xbd580317	-0.05273732
239	0x3cb8d79e	0.022563752
240	0x3cb7334d	0.02236333
241	0x3cfae033	0.030624485
242	0xbc6984cb	-0.014252852
243	0x3d7ae319	0.061251733
244	0xbd8c8c9c	-0.068627566
245	0x3d14749a	0.036244012
246	0xbce4d852	-0.02793518
247	0xbb65c288	-0.0035058577
248	0x3d3b6422	0.04574979
249	0xbd3accab	-0.045605343
250	0x3d57e969	0.05271283
251	0x3c562f2e	0.013072772
252	0x3befc499	0.0073171374
253	0xbcba0b63	-0.022710508
254	0x3ced2ac5	0.028951058
255	0x3d81afc1	0.063323505

backbone.9.weight f4 [64]
0	0x3f84ec50	1.0384617
1	0x3f7ccb85	0.98748046
2	0x3f7882fc	0.97074866
3	0x3f75d9c7	0.96035427
4	0x3f81e5fe	1.0148313
5	0x3f80070b	1.0002149
6	0x3f75b9b5	0.9598649
7	0x3f7edc4e	0.9955491
8	0x3f80f209	1.0073863
9	0x3f8011fb	1.0005487
10	0x3f8508d0	1.0393314
11	0x3f7c6d38	0.98604155
12	0x3f763a67	0.96182865
13	0x3f817196	1.0112789
14	0x3f7861a5	0.97023994
15	0x3f702500	0.9380646
16	0x3f7a6ba8	0.9782052
17	0x3f8287ff	1.0197753
18	0x3f802e24	1.0014081
19	0x3f843bae	1.0330713
20	0x3f7f9ba6	0.99846876
21	0x3f82a8fc	1.020782
22	0x3f83a1a8	1.0283709
23	0x3f81a773	1.0129226
24	0x3f829254	1.0200906
25	0x3f840440	1.0313797
26	0x3f806711	1.0031453
27	0x3f7f6086	0.9975666
28	0x3f7e6871	0.99378115
29	0x3f8014cb	1.0006346
30	0x3f7f3a3f	0.9969825
31	0x3f7ddfd6	0.9916967
32	0x3f7af7d8	0.9803443
33	0x3f7dea44	0.99185586
34	0x3f7e9815	0.9945081
35	0x3f7e87d1	0.9942599
36	0x3f8327f2	1.0246565
37	0x3f7e77f4	0.99401784
38	0x3f838af7	1.0276784
39	0x3f78adda	0.97140276
40	0x3f834423	1.0255169
41	0x3f842f5f	1.0326957
42	0x3f77c28b	0.96781224
43	0x3f821c05	1.0164801
44	0x3f810589	1.0079814
45	0x3f81933a	1.0123055
46	0x3f816623	1.0109295
47	0x3f7fab87	0.99871105
48	0x3f82a93b	1.0207895
49	0x3f7e54ec	0.9934833
50	0x3f8255f6	1.0182483
51	0x3f822371	1.0167066
52	0x3f82e7ba	1.0226967
53	0x3f824307	1.0176705
54	0x3f8210c6	1.0161369
55	0x3f7a1c0a	0.97699034
56	0x3f7a9a9e	0.9789218
57	0x3f807b4a	1.0037625
58	0x3f735d3f	0.9506416
59	0x3f7d02dc	0.9883249
60	0x3f7817e3	0.9691145
61	0x3f7b4ba7	0.9816231
62	0x3f828225	1.0195967
63	0x3f8166b7	1.0109471

backbone.9.bias f4 [64]
0	0xbd697c13	-0.057003092
1	0xbd66c92e	-0.056344204
2	0xbd190c8c	-0.03736548
3	0xbd5b37a9	-0.05351988
4	0xbc67de76	-0.01415216
5	0x3af2b504	0.0018517082
6	0xbd6db09e	-0.058029763
7	0xbd5c33f2	-0.053760476
8	0xbd227392	-0.039660998
9	0xbd44ac0a	-0.04801563
10	0xbd47d0d8	-0.048783153
11	0xbd68be95	-0.05682238
12	0xbd61c547	-0.05511978
13	0xbd7aa8a3	-0.06119598
14	0xbdde67f2	-0.1085967
15	0xbd1f5c00	-0.038906097
16	0xbd825081	-0.06363011
17	0xbd4176d7	-0.047232475
18	0xbd174517	-0.036931124
19	0xbcf7b54c	-0.030237816
20	0x3acb5277	0.0015512247
21	0xbcf9a5a0	-0.030474484
22	0xbd1b27b7	-0.037879672
23	0xbd0edde0	-0.034879565
24	0x3b2de26a	0.0026532658
25	0xbd05f1c1	-0.032701258
26	0xbd894020	-0.06701684
27	0xbdbfdcac	-0.09368262
28	0xbd06825a	-0.032839157
29	0xbd6b4ea6	-0.057448052
30	0xbca01d34	-0.019545175
31	0xbcecd459	-0.028909849
32	0xbd2ff990	-0.04296261
33	0xbdb45006	-0.08804326
34	0xbcb9ae54	-0.022666134
35	0xbd50631e	-0.050875776
36	0x3a586e8d	0.00082562194
37	0xbd5c361e	-0.053762548
38	0xbd94249f	-0.072335474
39	0xbd70e750	-0.058814347
40	0xbd28d260	-0.041216254
41	0xbceb4837	-0.028720958
42	0xbc92c5f8	-0.017916664
43	0xbd7091c6	-0.05873277
44	0xbcbaf53b	-0.022822013
45	0xbc339300	-0.0109603405
46	0xbdb6bbaa	-0.08922513
47	0xbd1e7b85	-0.038692016
48	0xbd56d086	-0.052444957
49	0xbd379135	-0.044816215
50	0xbd1def78	-0.038558453
51	0x3c0fd464	0.008778665
52	0xbd48e7e8	-0.049049288
53	0xbd144a6c	-0.036203787
54	0xbd81549a	-0.063149646
55	0xbd85362f	-0.06504475
56	0xbd1ec773	-0.03876443
57	0xbd0a25b8	-0.033727378
58	0xbd937c6e	-0.072014675
59	0xbd4b8736	-0.049689494
60	0xbb766999	-0.0037599562
61	0xbd26d36c	-0.04072897
62	0xbc5cebd6	-0.013483962
63	0xbcd02c02	-0.02541161

backbone.9.running_mean f4 [64]
0	0x3f062002	0.5239259
1	0x3f62e56f	0.8863134
2	0x3f6a03a1	0.9141179
3	0x3f875538	1.0572882
4	0xbdf947a3	-0.12171867
5	0xbead2ea6	-0.33824652
6	0xbcdfd5e8	-0.027323678
7	0xbed99968	-0.42499852
8	0xbf0ec343	-0.55766696
9	0xbe986c5b	-0.2977017
10	0xbc3f20b6	-0.011665514
11	0xbdaea519	-0.08527584
12	0x3f1d7b92	0.6151668
13	0xbeb5375e	-0.35393804
14	0x3eb55fe5	0.35424724
15	0x3f21b247	0.63162655
16	0xbf0c4851	-0.54797846
17	0xbe50be47	-0.20385085
18	0xbf2209fe	-0.63296497
19	0x3c38576c	0.011251312
20	0xbecec0e8	-0.4038155
21	0x3e9edd9c	0.3102845
22	0xbd2a134f	-0.04152232
23	0xbe842330	-0.25808096
24	0xbdd2881f	-0.10279869
25	0xbf13c0e2	-0.5771619
26	0xbf14fbde	-0.5819682
27	0xbd13fcc8	-0.036129743
28	0x3e7d75a6	0.2475191
29	0xbf3a0e58	-0.72678137
30	0xbf4c450d	-0.79792863
31	0xbd8ce9ed	-0.06880555
32	0xbe7bdb31	-0.24595334
33	0x3e68216c	0.22669
34	0xbeaa6dfd	-0.3328704
35	0xbe34b8ae	-0.17648575
36	0xbe9d81b4	-0.30763018
37	0x3caa9937	0.020825012
38	0xbe066b8e	-0.13126966
39	0x3f6cc3ff	0.92486566
40	0x3ede9ed8	0.43480563
41	0xbda7db71	-0.08196152
42	0x3d80cb2e	0.062887534
43	0x3e270513	0.1631053
44	0x3e0b50fd	0.13605113
45	0xbcd35ec1	-0.025802018
46	0xbe107229	-0.14106049
47	0xbf8e6083	-1.1123203
48	0xbda9a6ff	-0.08283805
49	0xbde6bd8b	-0.11266621
50	0xbee2ce89	-0.442982
51	0xbe1c8f69	-0.15289082
52	0xbe7a7518	-0.2445873
53	0xbe4934c6	-0.19649038
54	0xbe8df0b2	-0.27722698
55	0xbea2e9ec	-0.31819093
56	0x3e6e7410	0.23286462
57	0xbe8b42e7	-0.2719948
58	0x3e139aeb	0.14414565
59	0x3e294e61	0.16533805
60	0xbe3208cd	-0.1738617
61	0x3ede0904	0.43366253
62	0xbeb7869d	-0.3584489
63	0xbf29fcd9	-0.6640144

backbone.9.running_var f4 [64]
0	0x3e1442f7	0.1447867
1	0x3e8ec9b4	0.27888262
2	0x3e82da42	0.25557142
3	0x3eaabf59	0.33349112
4	0x3e701278	0.23444545
5	0x3e2ad88b	0.16684167
6	0x3f7414bf	0.95344156
7	0x3e619c04	0.22032171
8	0x3e38bdce	0.18041155
9	0x3e01ecc9	0.12687983
10	0x3e090317	0.13380085
11	0x3e75c17d	0.23999591
12	0x3ec9eb65	0.39437404
13	0x3e17ab98	0.14811552
14	0x3e384878	0.17996395
15	0x3ed65821	0.41864112
16	0x3e2c9a75	0.16855796
17	0x3e291c17	0.16514622
18	0x3e45db5d	0.19321962
19	0x3e44b1db	0.19208471
20	0x3e3b4d3c	0.18291181
21	0x3e35a67e	0.17739293
22	0x3e512da6	0.2042757
23	0x3e7ba853	0.2457593
24	0x3e120f40	0.1426363
25	0x3e3d1c70	0.1846788
26	0x3e6c791f	0.23093079
27	0x3e39abbe	0.1813192
28	0x3e9c243f	0.30496404
29	0x3e3c1cc3	0.18370347
30	0x3e25fc97	0.16209637
31	0x3e635059	0.22198619
32	0x3e667f58	0.22509515
33	0x3e2811c7	0.16413032
34	0x3e942355	0.28933206
35	0x3e45456e	0.19264767
36	0x3e900f54	0.28136694
37	0x3ea96c3c	0.3309039
38	0x3e210283	0.15723614
39	0x3e304188	0.17212498
40	0x3e6c115a	0.23053494
41	0x3e440392	0.19141987
42	0x3e4ac901	0.1980324
43	0x3e5a20db	0.21301596
44	0x3ea770e2	0.3270331
45	0x3e1068e6	0.14102516
46	0x3e2d5795	0.16927941
47	0x3e40dda3	0.18834548
48	0x3e00f47b	0.12593262
49	0x3e347b73	0.17625217
50	0x3e5f7e4c	0.21825522
51	0x3ee9f8f4	0.4569775
52	0x3e21280d	0.15737934
53	0x3e5e796a	0.21726003
54	0x3dfa63ad	0.12226043
55	0x3e753a88	0.23948109
56	0x3f34dc53	0.7064869
57	0x3e287331	0.16450192
58	0x3e9f523d	0.3111743
59	0x3e943a69	0.28950813
60	0x3edebe48	0.43504548
61	0x3e73191d	0.23740049
62	0x3e6ad176	0.22931466
63	0x3e965c8b	0.2936748

backbone.12.weight f4 [128, 64, 3, 3]
0	0x3ca02c24	0.019552298
1	0x3d73cb84	0.05952026
2	0x3d2924d8	0.041294903
3	0x3d5c5fe9	0.053802405
4	0x3d09a5ad	0.033605266
5	0x3d2afe16	0.04174622
6	0x3cbce442	0.02305806
7	0x3caab519	0.020838307
8	0x3d8a5dd8	0.067561805
9	0x3caea6cb	0.021319767
10	0x3a8acd53	0.0010589756
11	0x3bbbf88d	0.0057364167
12	0xbcaca91a	-0.021076728
13	0x3ccd2413	0.025041616
14	0x3d0a17a6	0.03371396
15	0xbcb97ca9	-0.02264245
16	0xbb591748	-0.003312545
17	0xbd19ee4c	-0.037580773
18	0xbc881b0e	-0.016614463
19	0x3c1a6bba	0.009425098
20	0xbc6f56c2	-0.014608087
21	0xbcbc4139	-0.02298032
22	0xbc1704db	-0.009217466
23	0xbce9c55d	-0.028536493
24	0x3c933c3c	0.017973058
25	0xbc8d4604	-0.0172453
26	0x3d03576e	0.0320658
27	0x3ca691b8	0.020333156
28	0x3d1b6ddd	0.03794657
29	0xbc914156	-0.01773135
30	0x3c8d484f	0.017246393
31	0x3ce89fa1	0.02839643
32	0x3c3c5b1a	0.01149633
33	0x3bdca143	0.006733091
34	0x3cf77073	0.030204987
35	0x3c7309fb	0.0148339225
36	0xbcaa8ac8	-0.02081813
37	0xbd37e6bd	-0.044897784
38	0xbd2d08ef	-0.042244848
39	0x3be28f2c	0.00691404
40	0x3c9e6fb8	0.019340381
41	0xbb8f6f88	-0.0043773092
42	0xbcb57d17	-0.022154374
43	0x3bf9cf29	0.0076235724
44	0xbc823a2b	-0.015896877
45	0x3b18b126	0.0023298948
46	0xbd0b3998	-0.033990473
47	0x39842085	0.0002520123
48	0xbcc2ad23	-0.023764199
49	0x3b5662f8	0.0032712799
50	0x3a3f9e8f	0.0007309699
51	0x3d02771c	0.031851873
52	0x3cea1b0a	0.028577346
53	0xbd092a40	-0.03348756
54	0x3c93823c	0.018006437
55	0xbd08069a	-0.03320942
56	0xbcc4a57b	-0.024004688
57	0x3cb4b47e	0.022058722
58	0xbc8c12ee	-0.01709887
59	0x3d122002	0.035675056
60	0x3c77acc1	0.015116871
61	0x3c34be94	0.0110317655
62	0x3cb9567d	0.022624249
63	0x3be9bf52	0.007133403
64	0x3d1c9caa	0.038235344
65	0x3d057de8	0.032590777
66	0x3ce858c6	0.028362643
67	0x3d01a1a1	0.031648282
68	0x3d016c4d	0.031597424
69	0x3d9f9f9a	0.077941135
70	0x3d3132f8	0.0432615
71	0x3d823898	0.06358451
72	0x3d54b4f5	0.051930387
73	0xbbc71278	-0.0060751997
74	0xbc8fbe26	-0.017546725
75	0x3cbd2374	0.023088194
76	0x3d8819c0	0.066455364
77	0x3b1bbb98	0.0023762938
78	0xbad437c1	-0.0016190932
79	0x3d4af5d3	0.049550842
80	0x3aa34392	0.0012456051
81	0x3ba23a42	0.0049507925
82	0x3d07d590	0.033162653
83	0x3d880dcf	0.06643259
84	0x3d3addad	0.045621563
85	0x3d462d81	0.04838324
86	0x3d1eff5d	0.038817752
87	0x3bc01763	0.005862163
88	0x3c00279c	0.007821944
89	0x3d561628	0.052267224
90	0xbbe6fd09	-0.007049207
91	0x3c0443ff	0.008072852
92	0xbcead9c0	-0.028668284
93	0xbd0a4a4a	-0.033762254
94	0x3c370730	0.011171147
95	0xbbb90356	-0.0056461496
96	0xbc0dfd31	-0.008666323
97	0x3b582f88	0.0032987315
98	0xbcc2962a	-0.023753244
99	0xbc0404e0	-0.008057803
100	0xbcb8a93f	-0.02254164
101	0x3b11dde1	0.0022257494
102	0xbc449e88	-0.012000687
103	0x3cfab50f	0.030603914
104	0xbcf0692d	-0.029347027
105	0xbc29baef	-0.01035951
106	0x3bad8a2b	0.005296012
107	0xbd03372e	-0.032035045
108	0xbbb0c30b	-0.0053943447
109	0x3d03e69d	0.03220235
110	0xbbc83a78	-0.0061104856
111	0x3c8598b3	0.016308164
112	0xbc886841	-0.016651275
113	0xbc37ea4c	-0.011225294
114	0xbb7e22ab	-0.0038777988
115	0xbc45f7f8	-0.012083046
116	0x3c88e7c0	0.01671207
117	0x3c7c6181	0.015404106
118	0x3cc3faf9	0.023923384
119	0xbc244ce9	-0.010028102
120	0x3c8b33d9	0.016992496
121	0xbcaca359	-0.021073984
122	0x3c6c924e	0.014439179
123	0xbd035936	-0.0320675
124	0x3bdd44c3	0.006752582
125	0x3cbaf308	0.022820964
126	0xbbe21f6c	-0.0069007184
127	0xbbd293b4	-0.006426299
128	0xbd20b1ef	-0.03923219
129	0xbcdbd683	-0.026835686
130	0x3b70e5f3	0.0036758154
131	0xbc0f99a4	-0.008764658
132	0xbd5a1eb6	-0.053251944
133	0xbd2ebc85	-0.042660255
134	0xbcd2e322	-0.025743071
135	0xbbde2f17	-0.006780516
136	0x3c522d37	0.012828163
137	0x3cf1d20a	0.0295191
138	0x3c2162c0	0.009850204
139	0xbc6f6eed	-0.014613849
140	0xbcaa6436	-0.020799737
141	0x3cee2d5a	0.02907436
142	0x3ab0e0f7	0.0013494779
143	0xbcd354e6	-0.025797319
144	0xbd11fc39	-0.03564093
145	0xbd050baf	-0.032481845
146	0x3c6167a1	0.013757617
147	0xbcb971d1	-0.02263728
148	0xbd0d26d5	-0.03446086
149	0xbcffe9c8	-0.031239405
150	0xbcde7a4d	-0.027157927
151	0xbc45b194	-0.012066264
152	0xbd1e7cd1	-0.038693253
153	0x3cc30fdd	0.023811275
154	0x3baf2699	0.0053451774
155	0xbb81d006	-0.003961566
156	0xbc34cea5	-0.011035596
157	0xbc36f8a9	-0.011167684
158	0x3d1a35c0	0.037648916
159	0x3b12e965	0.0022416946
160	0x3c83116a	0.015999515
161	0xbd0d2197	-0.034455862
162	0x3bfd5451	0.0077309986
163	0x3b5cdb97	0.0033700222
164	0xbc186820	-0.009302169
165	0xbbf215c5	-0.007387849
166	0xbc237b38	-0.009978108
167	0xbce7c670	-0.028292865
168	0xbcdefbf6	-0.027219754
169	0x3bcfb07e	0.006338178
170	0x3cf0ecf7	0.029409869
171	0xbca98207	-0.020691885
172	0x3ce118c8	0.027477637
173	0xbbf99d4e	-0.007617629
174	0x3d01dc1c	0.031704053
175	0x3cb7da94	0.022443093
176	0xbc6bc8a2	-0.014391096
177	0xbbb5f7e6	-0.0055532334
178	0x3cfb7185	0.030693779
179	0x3d11472d	0.03546827
180	0x3cdb98a6	0.026806187
181	0x3b8f196e	0.004367045
182	0x3a2999a7	0.00064697344
183	0xbc511700	-0.012761831
184	0xbbbe6180	-0.0058099627
185	0xbcd3b1f0	-0.025841683
186	0xbc1a6bff	-0.009425162
187	0xbcbbf3c5	-0.022943387
188	0xbd06aa3c	-0.032877192
189	0x3cc87183	0.02446819
190	0x3cb2eac0	0.021840453
191	0xbc84b458	-0.016199276
192	0xbc2f27a5	-0.010690604
193	0xbbd36e89	-0.006452386
194	0xbbce0eea	-0.006288399
195	0x3d15486d	0.036446024
196	0xbb440e74	-0.0029915841
197	0xbbf8b4a0	-0.0075898916
198	0xbc78ac55	-0.015177806
199	0xbcb34cc5	-0.021887193
200	0x3c8d3ef1	0.017241927
201	0x3c62749d	0.013821748
202	0x3c4d23fe	0.012520788
203	0x3c07978f	0.0082758805
204	0x3d1dbd69	0.038510714
205	0x3c60664c	0.0136962645
206	0x3ce57bfa	0.028013218
207	0xbce86ebb	-0.028373113
208	0x3ca9016d	0.020630563
209	0xbce09ed2	-0.027419481
210	0xbc48ab87	-0.012247927
211	0xbd41029e	-0.047121637
212	0x3c8d73ab	0.017267069
213	0xbd125755	-0.035727818
214	0xbd419623	-0.047262322
215	0xbd1fe4be	-0.039036505
216	0xbcb7bc79	-0.022428738
217	0xbc5136dd	-0.012769428
218	0xbc9e0cc3	-0.019293195
219	0xbd4f4f43	-0.0506127
220	0xbcb1cc40	-0.02170384
221	0xbb87ec44	-0.004148038
222	0xbd33c588	-0.043889552
223	0xbd099e55	-0.033598263
224	0x3c5ec368	0.013596393
225	0xbd115d5c	-0.035489425
226	0x3c290716	0.010316631
227	0x3c750faa	0.014957348
228	0xbcfb5850	-0.03068176
229	0xbcc12f08	-0.023581997
230	0xbcdeff93	-0.027221477
231	0xbb892ab8	-0.0041860007
232	0xbd202343	-0.03909613
233	0x3be7b3e7	0.0070710066
234	0x3a894b8f	0.0010474789
235	0x3cc515cb	0.024058243
236	0xbc0da738	-0.008645825
237	0xbcb975d4	-0.022639193
238	0xbb740078	-0.0037231725
239	0x3b9e3d29	0.004829068
240	0x3cac58f9	0.02103852
241	0x3cf37c2c	0.029722296
242	0x3be563eb	0.0070004365
243	0x3c43e032	0.011955308
244	0x3cdbb048	0.026817456
245	0x3d0f0a73	0.034922075
246	0x3d31449a	0.043278314
247	0x3d676026	0.05648818
248	0x3cc3069a	0.023806859
249	0x3d44c1d7	0.048036423
250	0x3c34c45b	0.011033143
251	0x3d56fff4	0.05249019
252	0x3c3a1436	0.011357358
253	0x3c2ef85a	0.010679329
254	0x3cf903f3	0.030397391
255	0xbcc4dfdd	-0.024032528

backbone.13.weight f4 [128]
0	0x3f8e5c30	1.1121883
1	0x3f8f1fe5	1.1181608
2	0x3f8d4b4c	1.1038604
3	0x3f8a8f6b	1.0825018
4	0x3f8cd36a	1.1002018
5	0x3f8ddf78	1.1083822
6	0x3f8c5e3a	1.0966256
7	0x3f92a560	1.1456718
8	0x3f8b517b	1.0884241
9	0x3f8eed0e	1.1166093
10	0x3f8d19d6	1.102351
11	0x3f8d9f55	1.1064249
12	0x3f8ad8d7	1.0847424
13	0x3f8de581	1.1085664
14	0x3f8e1da8	1.11028
15	0x3f8f6e67	1.1205567
16	0x3f8da953	1.1067299
17	0x3f8f1381	1.1177827
18	0x3f8d35a5	1.1031996
19	0x3f8cbb21	1.0994607
20	0x3f8f4a4e	1.1194551
21	0x3f8d4f8b	1.10399
22	0x3f8df7d1	1.1091253
23	0x3f8be925	1.0930525
24	0x3f8cfb23	1.1014141
25	0x3f8c1deb	1.094663
26	0x3f8c9453	1.0982765
27	0x3f8f405a	1.1191514
28	0x3f8cc854	1.0998635
29	0x3f8eafdb	1.1147417
30	0x3f8ccb2b	1.0999502
31	0x3f89e91e	1.0774267
32	0x3f8cf805	1.101319
33	0x3f8d640b	1.1046156
34	0x3f8ee336	1.1163089
35	0x3f8f24b4	1.1183076
36	0x3f8dc083	1.1074375
37	0x3f8b1a71	1.0867444
38	0x3f8a0fec	1.0786109
39	0x3f8ff11e	1.1245458
40	0x3f8d5626	1.1041915
41	0x3f8d6708	1.1047068
42	0x3f8b838b	1.0899519
43	0x3f89863e	1.0744092
44	0x3f8d0275	1.1016375
45	0x3f88bc0b	1.0682386
46	0x3f8e40d5	1.1113535
47	0x3f8ee176	1.1162555
48	0x3f8f0fd5	1.1176707
49	0x3f8f2779	1.1183921
50	0x3f8a99ae	1.0828149
51	0x3f8f2347	1.1182641
52	0x3f8e9661	1.1139642
53	0x3f8c5224	1.0962567
54	0x3f921a30	1.1414242
55	0x3f8d6cf4	1.1048875
56	0x3f8cdfa5	1.1005751
57	0x3f8f4799	1.1193725
58	0x3f91b610	1.1383686
59	0x3f8cf3c9	1.1011897
60	0x3f885c3c	1.0653148
61	0x3f8bec28	1.0931444
62	0x3f8d7f55	1.1054484
63	0x3f8a3d99	1.0800048
64	0x3f8afff5	1.0859362
65	0x3f8cf02e	1.1010797
66	0x3f8dcad6	1.1077526
67	0x3f8e57b4	1.1120515
68	0x3f8fd03a	1.1235421
69	0x3f8e4c07	1.1116952
70	0x3f8bd4c3	1.0924305
71	0x3f89da03	1.0769657
72	0x3f8c1032	1.0942442
73	0x3f8cdd0d	1.1004959
74	0x3f8ab1ae	1.0835474
75	0x3f8e40ea	1.111356
76	0x3f8bebc7	1.0931329
77	0x3f8cb9fe	1.099426
78	0x3f8e865a	1.1134751
79	0x3f8cd73d	1.1003186
80	0x3f8f6be6	1.1204803
81	0x3f8d6168	1.1045351
82	0x3f908f1d	1.1293675
83	0x3f8cc789	1.0998393
84	0x3f899555	1.0748698
85	0x3f8e0c63	1.109753
86	0x3f8b7b50	1.0897007
87	0x3f8fad09	1.1224681
88	0x3f8d6ab4	1.1048188
89	0x3f893d4c	1.0721831
90	0x3f8dfa1b	1.1091951
91	0x3f8d4b56	1.1038616
92	0x3f8dd801	1.1081544
93	0x3f8cbcf8	1.0995169
94	0x3f8b107b	1.0864404
95	0x3f8c9a4d	1.0984589
96	0x3f8b8628	1.0900316
97	0x3f8d907d	1.1059719
98	0x3f8e20e2	1.1103785
99	0x3f8bf667	1.0934571
100	0x3f92b759	1.1462203
101	0x3f8b0113	1.0859703
102	0x3f902b07	1.1263131
103	0x3f8ead52	1.1146643
104	0x3f8d27ca	1.1027768
105	0x3f8c220a	1.0947888
106	0x3f8ca677	1.0988301
107	0x3f8c3590	1.0953846
108	0x3f8f32a2	1.1187327
109	0x3f8a6107	1.081086
110	0x3f8dd8de	1.1081808
111	0x3f8e8e01	1.1137086
112	0x3f8c94d9	1.0982925
113	0x3f8f0e44	1.1176229
114	0x3f8d8e0d	1.1058975
115	0x3f8e490d	1.1116043
116	0x3f8bb432	1.0914366
117	0x3f8f81ac	1.1211448
118	0x3f8a1b40	1.0789566
119	0x3f89e152	1.0771887
120	0x3f8e4631	1.1115171
121	0x3f8a9658	1.0827131
122	0x3f898531	1.0743772
123	0x3f8b95c2	1.0905077
124	0x3f8c233a	1.094825
125	0x3f92dde6	1.1473968
126	0x3f8f901b	1.1215852
127	0x3f8e7f3e	1.1132581

backbone.13.bias f4 [128]
0	0x3d788e38	0.060682505
1	0x3d7a410c	0.06109719
2	0x3d8eb61f	0.069683306
3	0x3d43b8aa	0.04778353
4	0x3d8ad2c1	0.06778479
5	0x3d90f0ce	0.0707718
6	0x3d619c3b	0.055080634
7	0x3db5950b	0.08866318
8	0x3d32d439	0.043659423
9	0x3d999585	0.07499222
10	0x3d6073f9	0.0547981
11	0x3d64749d	0.055775274
12	0x3d55adb6	0.052167617
13	0x3d7e90a8	0.062149674
14	0x3d742fc3	0.05961586
15	0x3d952184	0.07281783
16	0x3d869ade	0.06572507
17	0x3d842754	0.06452814
18	0x3d8b5dcd	0.068050005
19	0x3d8a14be	0.067422375
20	0x3d908cbb	0.07058092
21	0x3d8420d6	0.064515755
22	0x3d9ade0a	0.07561882
23	0x3d57269a	0.052527048
24	0x3d83d7f5	0.06437675
25	0x3d743e68	0.059629828
26	0x3d59fca3	0.05321945
27	0x3da65f7d	0.08123682
28	0x3d57466d	0.052557398
29	0x3d88afa4	0.06674126
30	0x3d5e0055	0.054199535
31	0x3d2a5274	0.04158254
32	0x3d71682f	0.058937248
33	0x3d96eec5	0.073697604
34	0x3d7cb1e6	0.061693095
35	0x3d95733b	0.07297369
36	0x3d87a0c9	0.06622464
37	0x3d408281	0.04699946
38	0x3d417e43	0.047239553
39	0x3dbadca3	0.09124114
40	0x3d4da55b	0.050206523
41	0x3d82e790	0.06391823
42	0x3d64e274	0.055880025
43	0x3d073ef3	0.033019017
44	0x3d6f03b9	0.05835316
45	0x3cf2ae2c	0.029624067
46	0x3d9be39a	0.07611771
47	0x3d993131	0.07480086
48	0x3d872223	0.06598308
49	0x3d8cc94c	0.06874332
50	0x3d35d73c	0.044394717
51	0x3dab5f3f	0.08367776
52	0x3d86c1f2	0.06579961
53	0x3d616654	0.05502923
54	0x3db66f30	0.08907926
55	0x3d786645	0.060644407
56	0x3d893084	0.06698707
57	0x3daa02d5	0.083013214
58	0x3dafb5da	0.08579607
59	0x3d7a3c50	0.061092675
60	0x3cd618b0	0.026134819
61	0x3d92629e	0.07147716
62	0x3d9287a0	0.07154775
63	0x3d4590cb	0.04823379
64	0x3d52e658	0.051489204
65	0x3d6868af	0.05674046
66	0x3d893f4b	0.06701525
67	0x3d8585cf	0.065196626
68	0x3da4f661	0.080548055
69	0x3d9153f7	0.07096093
70	0x3d6b8218	0.057497114
71	0x3d436108	0.047699958
72	0x3d86456b	0.06556209
73	0x3d76ffa1	0.06030238
74	0x3d1f4196	0.038880907
75	0x3d906bb8	0.07051796
76	0x3d5b3762	0.053519614
77	0x3d850165	0.064944066
78	0x3d946b2f	0.07247006
79	0x3d80b15c	0.062838286
80	0x3d899e7c	0.067196816
81	0x3d7779fb	0.060419064
82	0x3d6539b8	0.055963248
83	0x3d4823be	0.04886221
84	0x3d278e69	0.040907297
85	0x3d885fd9	0.066589065
86	0x3d353e20	0.0442487
87	0x3d9691a9	0.07352001
88	0x3d909ecf	0.0706154
89	0x3ce867bf	0.028369782
90	0x3d955a4f	0.072926156
91	0x3d8b3fdb	0.06799289
92	0x3d59333e	0.053027384
93	0x3d8c893c	0.06862113
94	0x3d43cfd3	0.04780562
95	0x3d803650	0.06260359
96	0x3d51dfe2	0.051238902
97	0x3d8ca3ea	0.068672016
98	0x3d92c3fd	0.07166288
99	0x3d67aab7	0.05655929
100	0x3db48cc7	0.08815914
101	0x3d4f8548	0.050664216
102	0x3d9ffa0d	0.07811365
103	0x3d771468	0.060322195
104	0x3d8505a0	0.064952135
105	0x3d856354	0.06513086
106	0x3d5636d8	0.052298397
107	0x3d8405b8	0.06446403
108	0x3d82873f	0.063734524
109	0x3d41a47e	0.047276013
110	0x3d9589a2	0.07301642
111	0x3da347fd	0.07972715
112	0x3d8ca1bc	0.06866786
113	0x3d9732db	0.07382747
114	0x3d884885	0.06654457
115	0x3da87e30	0.08227193
116	0x3d642ff1	0.055709783
117	0x3d7d2294	0.061800554
118	0x3d2d0ba4	0.04224743
119	0x3d0d6d0d	0.034527827
120	0x3d4b22bd	0.049593676
121	0x3d37b786	0.044852756
122	0x3d3bd3d5	0.045856316
123	0x3d4043ca	0.04693965
124	0x3d3f70ab	0.046738308
125	0x3da2d459	0.07950658
126	0x3d917e6f	0.071041934
127	0x3d955426	0.07291441

backbone.13.running_mean f4 [128]
0	0x3eecee8c	0.46275747
1	0xbeb38936	-0.3506562
2	0x3ef7ea23	0.4842082
3	0x3ed393c0	0.41323662
4	0x3e7eec3b	0.24894802
5	0x3f080293	0.5312893
6	0x3f2d2c0e	0.6764535
7	0x3e600396	0.21876368
8	0xbd5228cc	-0.05130844
9	0x3e8b6da0	0.27232075
10	0x3e717142	0.2357836
11	0x3ecb21f1	0.39674333
12	0x3ef0e26d	0.4704775
13	0xbd6245c9	-0.055242334
14	0x3ec344f1	0.38138536
15	0x3e41ac1c	0.18913311
16	0x3db18916	0.08668725
17	0x3e8dcbf2	0.2769466
18	0x3e5e5099	0.21710433
19	0xbdb7b85e	-0.08970712
20	0x3f00f0a0	0.50367165
21	0x3e0c6c43	0.13713174
22	0x3e7f02ea	0.24903455
23	0x3ea1c608	0.31596398
24	0xbeb47b8c	-0.3525051
25	0x3f0dc858	0.55383825
26	0x3d141464	0.03615226
27	0x3e20b3f9	0.15693654
28	0x3eafb30c	0.3431629
29	0x3d005490	0.031330645
30	0xbe505c6b	-0.20347755
31	0x3ef40104	0.47657025
32	0x3d9e6a94	0.07735172
33	0xbee17f19	-0.4404228
34	0x3e89a744	0.26885426
35	0xbe40a8ce	-0.18814394
36	0x3e27dc87	0.16392718
37	0x3ed44680	0.41460037
38	0x3f091138	0.535419
39	0x3e15c0d0	0.14624333
40	0x3d5fed6b	0.05466978
41	0x3ed5bd2c	0.4174589
42	0x3e802e98	0.25035548
43	0x3edee107	0.43531057
44	0x3d198b2e	0.037486248
45	0x3edf4841	0.43609813
46	0x3e8889e1	0.26667693
47	0x3e680db9	0.22661485
48	0x3ea2a680	0.31767654
49	0x3f148d5f	0.58028215
50	0x3ea62d41	0.324564
51	0x3e24e6d3	0.16103677
52	0xbc8b73cb	-0.017022988
53	0x3f0391fd	0.51394635
54	0x3ebe7c07	0.37204
55	0xbcd8325e	-0.026391204
56	0x3d907c34	0.0705494
57	0x3e1b4b56	0.15165457
58	0x3ef9a1c9	0.48756245
59	0x3f124993	0.57143515
60	0x3e8d7214	0.27626097
61	0x3ddbb11b	0.107271396
62	0x3c084321	0.008316786
63	0x3e3ca3fb	0.18421929
64	0xbe01f9de	-0.12692973
65	0x3edb9ef4	0.4289471
66	0x3eff6d36	0.4988801
67	0xbe85d4d0	-0.26138926
68	0xbe687424	-0.22700554
69	0x3df0e17c	0.11761758
70	0x3f21655f	0.63045305
71	0x3e7016d8	0.23446214
72	0x3f016247	0.50540584
73	0x3e86f9a1	0.26362327
74	0x3e877f93	0.2646452
75	0x3d4bb2c2	0.049731024
76	0x3c4bdb54	0.012442429
77	0x3ed24f46	0.41076106
78	0x3dee214f	0.11627447
79	0xbc261e17	-0.01013901
80	0x3e9254fa	0.28580457
81	0x3e2b31ab	0.16718166
82	0x3ee6e3f7	0.45095798
83	0xbd676d7b	-0.056500893
84	0xbe2a6ee5	-0.16643865
85	0x3dda1819	0.106491275
86	0x3e7968cc	0.24356383
87	0x3f039e66	0.5141357
88	0x3eb6aef9	0.3568037
89	0xbd3729e1	-0.044717673
90	0x3e52f7a0	0.20602274
91	0x3e181648	0.1485225
92	0x3e08be27	0.13353787
93	0x3e56e7a3	0.209868
94	0x3d9b8c87	0.07595163
95	0x3ec71e65	0.38890377
96	0x3e565159	0.20929469
97	0x3d986ad3	0.0744225
98	0x3ec6eefe	0.38854212
99	0x3ec9402e	0.39306778
100	0xbd0c8dc5	-0.03431489
101	0x3e1540c2	0.14575484
102	0x3f09ecb1	0.5387679
103	0x3ed46d8b	0.41489825
104	0x3dabc684	0.08387473
105	0x3d83cc99	0.06435508
106	0xbd24d772	-0.040244527
107	0x3eec2f8e	0.4613003
108	0x3eaff397	0.34365532
109	0x3ecc8618	0.39946055
110	0x3e02471b	0.12722437
111	0x3f0a69fa	0.5406796
112	0x3d098d10	0.033581793
113	0xbc338879	-0.010957831
114	0x3ec4d672	0.3844486
115	0x3ec7652f	0.38944384
116	0x3e6ed58b	0.23323648
117	0x3efb6db7	0.49107143
118	0x3f26cac0	0.6515312
119	0x3e927987	0.28608343
120	0x3e6a29d9	0.22867526
121	0x3edb58ea	0.42841274
122	0x3f1db055	0.61597186
123	0xbe56f256	-0.20990881
124	0xbdab7655	-0.083721794
125	0x3ed17e44	0.40916646
126	0x3eb94732	0.3618713
127	0x3ee156f8	0.44011664

backbone.13.running_var f4 [128]
0	0x3e092db7	0.13396345
1	0x3e099ab1	0.13437916
2	0x3dfa82d2	0.12231983
3	0x3e246fe9	0.16058315
4	0x3e27bcd1	0.16380621
5	0x3e1a4de7	0.1506878
6	0x3e08518d	0.13312359
7	0x3e10bef7	0.14135347
8	0x3e00cd2d	0.12578268
9	0x3e15b768	0.14620745
10	0x3e12a1c6	0.14319524
11	0x3e3a7e78	0.18212306
12	0x3e17ec9d	0.14836355
13	0x3e11e918	0.14249074
14	0x3e11ec32	0.14250258
15	0x3e0d4d6a	0.13799062
16	0x3dfa3a30	0.1221813
17	0x3df5585c	0.11979744
18	0x3e0143d2	0.12623528
19	0x3dfa60ba	0.122254804
20	0x3de7d2c3	0.113194965
21	0x3decb13d	0.11557243
22	0x3e5983a8	0.21241629
23	0x3e5cc385	0.2155896
24	0x3e0517fc	0.1299743
25	0x3e0653f8	0.13117969
26	0x3dff62a5	0.12469987
27	0x3e0059ea	0.125343
28	0x3e0e6aac	0.1390788
29	0x3e1055dd	0.14095254
30	0x3e120d62	0.14262918
31	0x3e0cf792	0.13766316
32	0x3ded20dc	0.11578533
33	0x3e38d879	0.18051328
34	0x3e36b5d7	0.17842804
35	0x3dff9b43	0.12480786
36	0x3e28a40c	0.16468829
37	0x3e104400	0.1408844
38	0x3e10c51e	0.14137694
39	0x3e23c29e	0.1599221
40	0x3e36f5bc	0.17867178
41	0x3e0660f8	0.13122928
42	0x3e11a7ca	0.14224163
43	0x3e3c9837	0.1841744
44	0x3df81d1e	0.12114929
45	0x3e2ea10a	0.17053619
46	0x3e0873dd	0.13325448
47	0x3e2a2de7	0.16619073
48	0x3dfb3786	0.1226645
49	0x3e1f6a34	0.15567857
50	0x3e130b9b	0.14359896
51	0x3dec2230	0.11529958
52	0x3e25ecd9	0.16203631
53	0x3e2ba35c	0.16761535
54	0x3e18574d	0.14877053
55	0x3df7d3f4	0.12100974
56	0x3dd4b662	0.10386349
57	0x3e03a8ca	0.12857357
58	0x3e033fc5	0.12817295
59	0x3e1a1ad6	0.150493
60	0x3e471318	0.19440877
61	0x3e1c47af	0.1526172
62	0x3e20cc09	0.15702833
63	0x3e001c93	0.125109
64	0x3e29d9cd	0.1658699
65	0x3e082de8	0.13298762
66	0x3e0c87e8	0.13723719
67	0x3df2ecf5	0.11861602
68	0x3e1e8c67	0.15483247
69	0x3e0f3ef8	0.13988864
70	0x3e29f05e	0.16595599
71	0x3de316df	0.11088347
72	0x3e1c4898	0.15262067
73	0x3de9949d	0.11405299
74	0x3e2ac68c	0.16677302
75	0x3e08026c	0.13282174
76	0x3e26f0a7	0.16302739
77	0x3e155e91	0.14586855
78	0x3df9c077	0.12194913
79	0x3e0fbb86	0.14036378
80	0x3e0f0f86	0.13970765
81	0x3e141ee7	0.14464913
82	0x3e0c2e87	0.13689624
83	0x3e1274b6	0.14302334
84	0x3e081649	0.13289751
85	0x3e009af2	0.12559107
86	0x3e21595d	0.15756746
87	0x3deb71cd	0.11496315
88	0x3dd5dbef	0.1044234
89	0x3e19173d	0.14950271
90	0x3e1fabb3	0.15592842
91	0x3e0ccc53	0.13749819
92	0x3e1a6aac	0.15079755
93	0x3df3bb5c	0.1190097
94	0x3e117107	0.14203273
95	0x3e049bfe	0.12950131
96	0x3ddb39e4	0.10704401
97	0x3e024740	0.12722492
98	0x3e0510b3	0.12994651
99	0x3e31e4a2	0.17372373
100	0x3e08d546	0.13362607
101	0x3de831fd	0.113376595
102	0x3e1098c8	0.14120781
103	0x3e29a98a	0.1656858
104	0x3e18ec5d	0.14933915
105	0x3e08098b	0.1328489
106	0x3e065168	0.13116992
107	0x3e1165d0	0.14198995
108	0x3e00826e	0.12549755
109	0x3e440339	0.19141854
110	0x3df0aa6b	0.11751255
111	0x3e138d27	0.14409314
112	0x3e03eb27	0.12882672
113	0x3e3558f4	0.17709714
114	0x3e20d23d	0.157052
115	0x3e139451	0.14412047
116	0x3e2beaee	0.16788837
117	0x3de8b170	0.113619685
118	0x3e2bcf25	0.16778238
119	0x3e120119	0.14258231
120	0x3e25f325	0.16206034
121	0x3df6afb5	0.12045232
122	0x3e119bdc	0.14219612
123	0x3e5ebe4c	0.2175228
124	0x3e2d7c4c	0.16941947
125	0x3e3c32ee	0.18378803
126	0x3e015f86	0.12634096
127	0x3e0b48ba	0.13601962
