results/cnn_feature/baseline/cnn_refit.pt (torch, 473171 bytes, 24 tensors)

backbone.0.weight f4 [16, 1, 3, 3]
-0.19349732 -0.024675326 0.3318521 0.0340807 -0.22705555 0.044043023 -0.24931318 0.087653816
-0.059786167 -0.10776139 -0.059962958 -0.2918465 -0.237372 0.17704058 -0.24297027 0.12160815
0.068790056 0.07050813 0.24726094 -0.15258631 0.08801528 0.015373822 -0.2596747 0.15132941
0.24797814 -0.19654758 -0.13322333 -0.12504186 0.21832943 0.29718623 0.023769611 0.09845686
0.33373082 -0.07928059 0.22960362 0.044947114 -0.019870333 -0.21350381 0.10948283 -0.02140314
0.02356731 -0.048408177 -0.18084757 0.13099699 0.21091825 0.1085048 0.15049125 0.21569858
0.26720375 0.17757002 -0.21409242 0.062577546 0.27602613 -0.24209414 0.20774202 0.15405154
-0.18584388 -0.07337977 0.23160508 0.10340487 -0.12027281 -0.1055598 0.2463115 0.12687135
-0.19495656 0.14463437 -0.16160105 0.04293419 -0.028574629 -0.31970027 0.33025822 0.2893461
0.013859587 0.12123133 0.0068393284 -0.09665957 -0.19461541 -0.010432515 0.17369059 -0.16601993
0.2374013 -0.03251516 -0.28147948 -0.29296747 0.2462407 -0.30078247 0.24564642 0.17855996
0.0034264398 0.2765723 -0.10362228 0.085854225 -0.2761093 0.1585279 -0.18797845 0.24389592
0.12385976 -0.28872216 0.20124018 0.092155166 -0.2070692 0.0468218 -0.032307085 0.20209141
0.037607804 0.3582204 0.07249106 0.23373458 -0.01104175 0.23685947 0.07612651 -0.31550887
0.070522375 0.12306793 -0.2674218 0.258973 -0.29947436 0.18284261 -0.27869323 -0.038777232
0.008936214 -0.04145734 0.17057385 -0.1867448 0.2518333 0.07044829 0.15998718 0.31786454
-0.14423403 0.3500036 0.09596781 0.0016813176 0.2659545 0.037475083 -0.095431365 -0.2889937
-0.22767489 0.112787284 -0.02981236 -0.23629017 -0.23537064 0.3510872 -0.22192585 -0.2424685
00000000: 2924 46be e923 cabc 85e8 a93e 3498 0b3d
00000010: 4081 68be 7566 343d f44b 7fbe d883 b33d
00000020: 57e2 74bd 01b2 dcbd b89b 75bd e86c 95be
00000030: a511 73be 204a 353e 33cd 78be b20d f93d
00000040: cde1 8c3d 9166 903d f931 7d3e 963f 1cbe
00000050: 5b41 b43d 7ce2 7b3c 15f4 84be 19f6 1a3e
00000060: fbed 7d3e c543 49be b26b 08be f90a 00be
00000070: c091 5f3e cb28 983e 7db8 c23c c0a3 c93d
00000080: c4de aa3e dd5d a2bd 361d 6b3e 771a 383d
00000090: 1cc7 a2bc bea0 5abe 8938 e03d a355 afbc
000000a0: 3b10 c13c a747 46bd 1b30 39be 1324 063e
000000b0: f4fa 573e c437 de3d 611a 1a3e 17e0 5c3e
000000c0: eece 883e ead4 353e 0b3b 5bbe a828 803d
000000d0: 4c53 8d3e 87e7 77be 53ba 543e b0bf 1d3e
000000e0: dc4d 3ebe 2248 96bd e229 6d3e efc5 d33d
000000f0: 9751 f6bd bd2f d8bd 1539 7c3e 90ea 013e
00000100: b1a2 47be 081b 143e bf7a 25be c3db 2f3d
00000110: 5715 eabc c1af a3be 9b17 a93e 2c25 943e
00000120: 5213 633c 2248 f83d 721c e03b 74f5 c5bd
00000130: 4349 47be 24ed 2abc f2db 313e 2101 2abe
00000140: 5419 733e 9e2e 05bd 141e 90be d5ff 95be
00000150: 8626 7c3e 2900 9abe bc8a 7b3e 6cd8 363e
00000160: 1f8e 603b e29a 8d3e eb37 d4bd 57d4 af3d
00000170: 335e 8dbe 2355 223e 6c7d 40be dabf 793e
00000180: 30aa fd3d 64d3 93be e811 4e3e d9bb bc3d
00000190: f309 54be 37c8 3f3d 6f54 04bd 0df1 4e3e
000001a0: a40a 1a3d aa68 b73e 3176 943d 1e58 6f3e
000001b0: 75e8 34bc 4a8b 723e 37e8 9b3d 618a a1be
000001c0: 096e 903d 0a0b fc3d 83eb 88be 1c98 843e
000001d0: b454 99be 183b 3b3e e1b0 8ebe e0d4 1ebd
000001e0: 3369 123c 2ccf 29bd e9aa 2e3e 073a 3fbe
000001f0: 4bf0 803e 3147 903d aed3 233e 24bf a23e
00000200: 16b2 13be ac33 b33e c58a c43d a85f dc3a
00000210: 302b 883e 797f 193d 8571 c3bd fbf6 93be
00000220: 9b23 69be 05fd e63d 0d39 f4bc 0df6 71be
00000230: 0005 71be b4c1 b33e 8840 63be aa49 78be

backbone.1.weight f4 [16]
1.0061095 1.0169326 1.0320303 0.99644744 1.0012962 0.9982639 0.9859587 0.9907414
0.99749666 1.0076452 1.0028654 0.9912955 1.0000901 0.98461735 0.9961209 1.0053829
00000000: 32c8 803f d92a 823f 9219 843f 2e17 7f3f
00000010: 792a 803f 398e 7f3f ca67 7c3f 3aa1 7d3f
00000020: f15b 7f3f 85fa 803f e55d 803f 8bc5 7d3f
00000030: f402 803f e20f 7c3f c801 7f3f 63b0 803f

backbone.1.bias f4 [16]
-0.013686107 0.018375115 0.021837039 0.0008460545 -0.055385623 0.013209027 -0.016455969 -0.0005688645
0.023368547 0.016749706 -0.018282775 -0.012373036 -0.0099078575 -0.012359112 -0.011585327 -0.02663845
00000000: b13b 60bc 6987 963c 97e3 b23c c2c9 5d3a
00000010: 09dc 62bd ad6a 583c abce 86bc da1f 15ba
00000020: 656f bf3c ae36 893c c2c5 95bc 46b8 4abc
00000030: 9154 22bc df7d 4abc 62d0 3dbc e138 dabc

backbone.1.running_mean f4 [16]
0.0011780695 0.0024629133 0.002511327 -0.008934818 -0.00077220035 -0.0047634407 -0.0037068883 -0.0029021916
0.0002714194 0.00027953697 0.0006213303 -0.005337627 -0.00085321686 -0.001388472 -0.0054556234 0.008443624
00000000: 7469 9a3a d468 213b 1395 243b 5863 12bc
00000010: 7d6d 4aba a316 9cbb 44ef 72bb b232 3ebb
00000020: 4c4d 8e39 d18e 9239 c5e0 223a 43e7 aebb
00000030: 6aaa 5fba 64fd b5ba 16c5 b2bb 2057 0a3c

backbone.1.running_var f4 [16]
0.07443806 0.23929957 0.01025875 1.0376498 0.008760798 0.6207556 0.19981964 0.06901653
0.008603619 0.021810856 0.006590629 0.60131466 0.028941918 0.022512574 0.9324092 0.97149056
00000000: fb72 983d f20a 753e 5114 283c b5d1 843f
00000010: 7389 0f3c d7e9 1e3f 859d 4c3e 8a58 8d3d
00000020: 32f6 0c3c aeac b23c 34f6 d73b c2ef 193f
00000030: 9a17 ed3c 4a6c b83c 5fb2 6e3f 9bb3 783f

backbone.4.weight f4 [32, 16, 3, 3]
-0.0065126107 -0.07791062 -0.07714708 0.07121414 -0.06984713 -0.023677139 0.0792333 -0.005206123
-0.045726407 -0.040054183 0.024577916 0.018755937 -0.019564394 -0.04964779 0.089028396 -0.020949362
-0.033332054 0.03302121 -0.06766263 0.06583422 0.06330565 -0.03441142 -0.02572998 0.062007446
-0.050835192 -0.07347575 0.026315456 -0.046737023 0.024329435 -0.027531076 0.0023905337 0.06666262
-0.02608431 -0.063369736 0.045627087 0.06539688 -0.07977051 0.055700086 -0.04876412 -0.05540305
0.08851905 -0.0125127835 -0.056076873 -0.041678596 0.025516095 0.07463767 -0.06065712 -0.021853652
0.066905364 0.032602537 0.034855735 0.03444111 0.020928424 0.021278813 -0.043646324 -0.045190617
-0.015421897 -0.06696022 -0.0397192 -0.026704794 -0.07890372 0.05364142 -0.0269507 0.058142334
-0.061067514 0.033288177 0.0028588006 0.055387657 0.020780224 0.07691035 -0.008484488 0.06348571
-0.051749397 -0.063302234 -0.08999646 0.04989272 -0.07348455 -0.02951803 0.008365986 -0.044341415
0.0069168983 0.08273217 0.01904257 -0.023938289 0.09194737 0.03025207 0.032344252 0.08331308
0.05483482 0.050282974 0.05186846 0.042748917 0.054272294 -0.04931119 -0.07732843 -0.02514737
-0.020375859 0.039395787 0.008508909 0.041698527 -0.012725228 -0.0010813961 0.041069176 -0.074907325
0.010455452 -0.015994431 0.043513287 0.0142151695 -0.080151886 -0.05379603 -0.09608178 0.006118339
0.06847707 0.0015753034 -0.071778975 -0.033859555 0.0061382125 0.05315417 -0.041528217 0.027641011
0.035308287 0.023529133 0.048323344 -0.012951168 0.0011456184 -0.056971893 0.038201947 -0.01597302
0.007348559 -0.024784256 0.033529263 -0.01791603 0.028408421 -0.059854258 0.048940603 -0.007813683
0.017563168 -0.05599251 0.064802505 -0.07201277 -0.0482493 0.025544703 -0.08235455 -0.033589177
0.017025419 -0.029308595 -0.0898737 0.037559498 -0.08596969 0.028821714 0.02023342 -0.028349273
-0.012694862 -0.036474466 -0.021224637 -0.009091136 0.06360736 -0.09921617 -0.089180745 -0.02586575
-0.08021178 -0.10061438 -0.055544496 -0.052413955 0.051271413 -0.08456762 -0.08345516 0.012384416
-0.048080824 0.08073528 0.07444915 0.069389544 0.077433854 0.005922341 -0.05534892 -0.03670849
-0.050042123 0.02708484 -0.043542102 -0.05682992 -0.06136327 -0.0052380417 0.01895882 0.03016118
-0.030174809 0.013926489 0.032476027 0.11481221 -0.04959108 -0.08485561 0.06747842 -0.016266711
0.025882268 -0.07261441 -0.06284961 0.07410967 -0.0033799754 0.041362543 -0.044364125 0.079059206
-0.067693606 0.057427265 0.06108572 -0.0094116535 0.0297185 -0.062177718 -0.025535896 0.063693605
0.06542769 0.021614544 0.03925123 0.036812183 -0.03483241 0.017813813 -0.06549059 -0.057132516
-0.028766075 -0.016640611 -0.043227166 0.051401988 -0.039956458 0.015823059 0.036456965 -0.07910095
0.056603357 -0.012894414 -0.060044345 0.07747381 0.052178584 -0.07735323 -0.04014418 -0.07414383
0.016433172 -0.050997633 -0.033525657 -0.08081859 -0.033677418 0.01784053 -0.06063149 -0.05733875
-0.05427868 0.027320864 -0.0069195735 -0.025767792 -0.06072039 -0.025373662 0.055945497 -0.08632708
0.035491172 0.009635544 0.011772813 -0.022013914 -0.07798017 0.04202221 -0.04291309 -0.07539386
00000000: bd67 d5bb 9a8f 9fbd 4aff 9dbd b8d8 913d
00000010: 030c 8fbd 8ff6 c1bc 1245 a23d 2098 aabb
00000020: 9d4b 3bbd db0f 24bd a057 c93c 0da6 993c
00000030: 8245 a0bc 7b5b 4bbd 8554 b63d ff9d abbc
00000040: 3187 08bd 4041 073d b492 8abd 17d4 863d
00000050: 65a6 813d fdf2 0cbd aec7 d2bc 85fb 7d3d
00000060: 9038 50bd 747a 96bd 8393 d73c 526f 3fbd
00000070: 864e c73c da88 e1bc 80aa 1c3b 6986 883d
00000080: c3ae d5bc fec7 81bd 78e3 3a3d cdee 853d
00000090: b95e a3bd c625 643d e3bc 47bd 4fee 62bd
000000a0: 7a49 b53d 6b02 4dbc ddb0 65bd 2db7 2abd
000000b0: 2107 d13c a2db 983d 9a73 78bd 6e06 b3bc
000000c0: ae05 893d 3d8a 053d e3c4 0e3d 1f12 0d3d
000000d0: 1672 ab3c e850 ae3c 7dc6 32bd cc19 39bd
000000e0: 20ac 7cbc 7122 89bd 9ab0 22bd 03c4 dabc
000000f0: 4698 a1bd 1bb7 5b3d b7c7 dcbc a826 6e3d
00000100: ee21 7abd 2f59 083d b75a 3b3b 2bde 623d
00000110: 4a3b aa3c 2c83 9d3d 8602 0bbc cc04 823d
00000120: 2df7 53bd 9aa4 81bd 1050 b8bd 4f5c 4c3d
00000130: 117f 96bd cccf f1bc 7d11 093c 589f 35bd
00000140: 26a7 e23b 7c6f a93d 2aff 9b3c 3b1a c4bc
00000150: e74e bc3d 30d3 f73c 687b 043d 0ca0 aa3d
00000160: 7a9a 603d 85f5 4d3d 0674 543d 7d19 2f3d
00000170: a04c 5e3d 88fa 49bd 5e5e 9ebd db01 cebc
00000180: 46eb a6bc 7a5d 213d f368 0b3c 13cc 2a3d
00000190: 7a7d 50bc a2bd 8dba 2738 283d 0369 99bd
000001a0: 584d 2b3c c106 83bc fd3a 323d bee6 683c
000001b0: ac26 a4bd 3a59 5cbd 86c6 c4bd 597c c83b
000001c0: b53d 8c3d 697a ce3a db00 93bd 51b0 0abd
000001d0: 0f23 c93b 30b8 593d 7e19 2abd 676f e23c
000001e0: 6c9f 103d 2bc0 c03c b3ee 453d 2331 54bc
000001f0: 9328 963a 5c5b 69bd a579 1c3d dad9 82bc
00000200: 2ecc f03b 5a08 cbbc fb55 093d a3c4 92bc
00000210: c7b8 e83c bd29 75bd f175 483d f604 00bc
00000220: a2e0 8f3c 6758 65bd 2db7 843d 6e7b 93bd
00000230: 0fa1 45bd 2043 d13c 81a9 a8bd ce94 09bd
00000240: e478 8b3c 9418 f0bc b40f b8bd fdd7 193d
00000250: e010 b0bd 841b ec3c 8fc0 a53c bc3c e8bc
00000260: 1cfe 4fbc 4066 15bd 4adf adbc fdf2 14bc
00000270: 9344 823d d931 cbbd 65a4 b6bd 69e4 d3bc
00000280: 1346 a4bd e90e cebd a082 63bd 04b0 56bd
00000290: f901 523d ca31 adbd 8aea aabd 01e8 4a3c
000002a0: 66f0 44bd 8a58 a53d cc78 983d 1b1c 8e3d
000002b0: a495 9e3d 3210 c23b 8db5 62bd a45b 16bd
000002c0: f8f8 4cbd 07e1 dd3c 3459 32bd 7dc6 68bd
000002d0: 0d58 7bbd e1a3 abbb 874f 9b3c 9414 f73c
000002e0: 2931 f7bc ee2b 643c 9505 053d aa22 eb3d
000002f0: 0420 4bbd c7c8 adbd 2032 8a3d c441 85bc
00000300: 0d07 d43c ddb6 94bd 4cb7 80bd d0c6 973d
00000310: 9482 5dbb c56b 293d 28b7 35bd cbe9 a13d
00000320: f2a2 8abd da38 6b3d 0535 7a3d 5633 1abc
00000330: 3674 f33c 10ae 7ebd a830 d1bc cb71 823d
00000340: f4fe 853d fc10 b13c e6c5 203d 5fc8 163d
00000350: 6eac 0ebd 46ee 913c ee1f 86bd c903 6abd
00000360: d5a6 ebbc e451 88bc f80e 31bd e48a 523d
00000370: 62a9 23bd 5c9f 813c e653 153d aeff a1bd
00000380: ecd8 673d 1843 53bc 0ff1 75bd 97aa 9e3d
00000390: 36b9 553d 5f6b 9ebd 396e 24bd b8d8 97bd
000003a0: dc9e 863c e5e2 50bd 3352 09bd 3884 a5bd
000003b0: 55f1 09bd 4e26 923c ba58 78bd 0adc 6abd
000003c0: 5253 5ebd 01d0 df3c 97bd e2bb fa16 d3bc
000003d0: f2b5 78bd 6ddc cfbc 1b27 653d 41cc b0bd
000003e0: 315f 113d 67de 1d3c c2e2 403c 8656 b4bc
000003f0: 11b4 9fbd 7b1f 2c3d a3c5 2fbd 1968 9abd

backbone.5.weight f4 [32]
0.9925969 0.97353524 0.987393 1.0036924 1.0068232 0.9955779 1.0045785 0.97407746
1.0092849 1.0126799 1.0447947 1.018817 0.9948449 0.99618727 1.0184383 1.0148919
0.98928833 1.01392 1.0163054 1.0061265 1.0101815 0.98935264 0.9881014 1.0118731
1.0019251 1.0030054 0.992792 0.98637646 1.0224558 1.0328206 0.9869861 1.0175275
00000000: d51a 7e3f 9b39 793f cac5 7c3f fe78 803f
00000010: 95df 803f 31de 7e3f 0796 803f 245d 793f
00000020: 3f30 813f 7f9f 813f d5bb 853f 9868 823f
00000030: 28ae 7e3f 2106 7f3f 305c 823f fae7 813f
00000040: 0042 7d3f 21c8 813f 4c16 823f c1c8 803f
00000050: a14d 813f 3746 7d3f 37f4 7c3f 0f85 813f
00000060: 153f 803f 7b62 803f 9e27 7e3f 2b83 7c3f
00000070: d5df 823f 7733 843f 1fab 7c3f 573e 823f

backbone.5.bias f4 [32]
0.014729113 -0.005838157 -0.005717223 0.009504852 0.011488328 -0.009189687 -0.012573254 -0.0064417627
-0.016216539 0.0070419814 -0.0006753807 -0.008274527 -0.0017525218 0.0014083211 0.0049715545 0.0041330215
-0.022718277 -0.018230686 0.0013374826 -0.012294433 -0.0048671872 0.005120699 -0.028402064 -0.004304873
-0.029585078 -0.014039702 -0.015996262 -0.02128778 -0.007626347 0.010840099 -0.023915213 -0.0075463275
00000000: 6152 713c 034e bfbb 8b57 bbbb 3dba 1b3c
00000010: 8a39 3c3c 5790 16bc 0d00 4ebc 6c15 d3bb
00000020: 8cd8 84bc 6cc0 e63b 080c 31ba e291 07bc
00000030: e0b4 e5ba 6a97 b83a 6ce8 a23b 4c6e 873b
00000040: ae1b babc 8558 95bc 784e af3a 976e 49bc
00000050: ed7c 9fbb 89cb a73b 72ab e8bc e40f 8dbb
00000060: 685c f2bc c706 66bc 980a 83bc b663 aebc
00000070: 6fe6 f9bb ac9a 313c d6e9 c3bc 2f47 f7bb

backbone.5.running_mean f4 [32]
-0.08015549 -0.43258178 0.26053306 0.10582056 -0.47018024 0.5685452 0.109213844 0.35047483
0.3652046 -0.34120002 -0.3506807 -0.0523094 0.15526648 0.120352276 -0.40279335 -0.43660012
0.24443044 0.045829013 0.11106652 0.038296733 -0.33438876 -0.19231763 0.5156208 -0.39259472
0.19559313 -0.28429627 0.060138296 0.3978963 -0.052741762 -0.2928272 0.29146194 -0.2359073
00000000: 9028 a4bd 5c7b ddbe 9764 853e 73b8 d83d
00000010: 77bb f0be 2e8c 113f 82ab df3d 7071 b33e
00000020: 19fc ba3e c5b1 aebe 6c8c b3be 6242 56bd
00000030: 2dfe 1e3e 417b f63d ee3a cebe 0d8a dfbe
00000040: f94b 7a3e 34b7 3b3d d876 e33d 09dd 1c3d
00000050: 0135 abbe eaee 44be baff 033f 2d02 c9be
00000060: 9149 483e 488f 91be 9353 763d 10b9 cb3e
00000070: bf07 58bd 72ed 95be 803a 953e af91 71be

backbone.5.running_var f4 [32]
0.18484311 0.15282905 0.18063028 0.1735302 0.86285424 0.21499383 0.4435302 0.7006806
0.19306475 0.3659184 0.20383967 0.111731626 0.11943653 0.15467152 0.40973392 0.14633167
0.15086007 0.13699391 0.15680741 0.038215797 0.088746 0.16948761 0.1856116 0.13185482
0.118680455 0.14705269 0.13386999 0.59084535 0.14808437 0.24516305 0.2136167 0.20258795
00000000: 8347 3d3e 387f 1c3e 25f7 383e e7b1 313e
00000010: 04e4 5c3f 5827 5c3e 6416 e33e ce5f 333f
00000020: c4b2 453e a859 bb3e 59bb 503e 8dd3 e43d
00000030: 249b f43d 3662 1e3e a5c8 d13e f8d7 153e
00000040: 107b 1a3e 2248 0c3e 1f92 203e 2b88 1c3d
00000050: 76c0 b53d 298e 2d3e f810 3e3e f304 073e
00000060: bd0e f33d fb94 163e 3715 093e a441 173f
00000070: 6ea3 173e 060c 7b3e 56be 5a3e 3773 4f3e

backbone.8.weight f4 [64, 32, 3, 3]
-0.05249588 0.035752486 0.007967967 0.015879411 -0.023670886 -0.04497995 -0.025513269 -0.05496286
-0.058361616 -0.025132144 -0.032596268 0.004595011 -0.06315848 -0.003224623 0.023229312 -0.011183828
0.020821365 0.044351142 -0.014989863 -0.053580828 0.03137276 -0.014899531 0.030148886 0.0049280603
-0.018619433 0.030067338 -0.0555523 -0.025629478 0.01751914 -0.0043819575 0.011664504 -0.016663259
-0.059461646 -0.00034154317 0.033556174 -0.03160124 0.019818993 0.026890723 0.006860855 -0.060880803
-0.05130198 -0.020622473 -0.02410128 0.04100971 -0.043756604 0.07205615 0.0048955237 0.018257204
0.03932265 0.0061419667 -0.00051701354 0.057184733 0.024017476 0.032583993 -0.01768466 0.03072971
0.0056541557 -0.038610965 0.022704849 -0.028306257 -0.034630846 0.022828769 0.014855017 0.04538179
-0.031240137 -0.028916175 0.017426249 0.038262382 0.055055965 -0.0039441856 -0.04137344 0.041079886
-0.015306906 0.050779786 0.01520852 0.0265692 0.02461561 0.018801738 -0.015664777 0.018515691
0.064278066 0.011587 0.019584555 0.037592392 0.03319603 -0.05316009 0.02375976 -0.05373664
0.054836996 -0.0323813 -0.10541302 0.05621531 -0.042136505 -0.09341367 0.021661468 0.0020675915
0.0047398265 -0.07864265 -0.060853712 -2.0240073e-05 0.005909059 0.020785123 0.0011963856 0.032505102
0.05570344 0.038862772 0.058049887 0.011429162 0.04673227 -0.0121539235 0.06022654 -0.031418953
-0.0048045916 0.070428245 0.010349907 -0.008931937 -0.011894618 -0.03740561 0.014425254 0.009798561
0.045118533 -0.05717402 0.033170782 0.062283754 -0.041167658 -0.06626333 0.028900549 0.028166054
0.011512106 0.021971907 0.05109495 -0.0030792598 0.02857833 -0.049719997 -0.015864514 -0.031422947
0.02122568 0.031301584 -0.024331804 0.046399225 -0.049733978 0.033931687 -0.050240546 -0.034325548
0.035497144 0.026688691 0.02578371 0.047974158 0.041322064 0.0283133 -0.049956962 0.050171185
-0.043308303 -0.025696699 -0.024164442 -0.033440243 -0.019331492 0.048645444 -0.024785703 0.07113032
-0.00722145 -0.0025995213 0.009620929 -0.019356798 -0.01745046 -0.007558552 -0.06098974 0.051920094
0.068443656 0.022745375 0.017591933 -0.041709427 -0.0059306086 -0.010595107 0.027262863 0.049061514
-0.021211296 0.019597052 0.032653753 -0.006414728 0.053135328 -0.015739404 0.0053215325 -0.036354963
-0.027461553 0.021255309 0.05694322 -0.006681987 -0.039069563 0.028436944 0.0028162408 -0.03369793
-0.0063488395 0.033745036 -0.036341313 -0.038405944 -0.03209043 0.023785189 0.044632744 0.020597469
-0.045513663 0.018780945 -0.033681463 0.019858928 0.061695445 -0.02795781 0.026703471 -0.036127456
-0.049586236 -0.018171735 0.022804897 0.016868904 0.012012166 0.00067572366 0.030115655 -0.031165922
0.0024800124 0.011347664 -0.025608474 0.012188258 -0.0148061225 0.017300181 0.04492611 -0.0046498296
0.06619426 0.013104469 -0.024100352 -0.021956567 0.030202284 -0.040593334 0.029815523 -0.036346238
-0.032565534 0.004540234 0.038164727 -0.013694361 -0.015328164 -0.021453237 0.056827642 0.02859316
0.027832886 0.0045979293 0.04732938 -0.047178295 0.021566195 -0.04768731 -0.0548604 -0.061062355
-0.025575366 -0.024686387 -0.009853578 0.018703206 0.02292526 0.07520452 0.038555615 0.07729704
00000000: eb05 57bd 3371 123d 138c 023c 8a15 823c
00000010: 72e9 c1bc e53c 38bd 3401 d1bc bc20 61bd
00000020: 970c 6fbd ede1 cdbc aa83 05bd bf91 963b
00000030: 3c59 81bd 3254 53bb 664b be3c 603c 37bc
00000040: 9191 aa3c 8ba9 353d 0b98 75bc 9277 5bbd
00000050: b980 003d 2a1d 74bc ccfa f63c 917b a13b
00000060: c887 98bc c74f f63c cf8a 63bd e9f4 d1bc
00000070: 4d84 8f3c 8696 8fbb 7a1c 3f3c 6381 88bc
00000080: 0e8e 73bd 2611 b3b9 3372 093d 4d70 01bd
00000090: 715b a23c ef49 dc3c 06d1 e03b 265e 79bd
000000a0: 0622 52bd 76f0 a8bc 0c70 c5bc ccf9 273d
000000b0: 203a 33bd 2d92 933d a16a a03b 2290 953c
000000c0: c910 213d 8d42 c93b 3188 07ba 8a3a 6a3d
000000d0: 4cc0 c43c cb76 053d 6cdf 90bc dfbc fb3c
000000e0: 7f46 b93b 8826 1ebd 85ff b93c 86e2 e7bc
000000f0: 13d9 0dbd 6603 bb3c 7562 733c 41e2 393d
00000100: 51eb ffbc 9de1 ecbc 7ec1 8e3c 04b9 1c3d
00000110: 5d82 613d 3a3e 81bb 3277 29bd 6243 283d
00000120: d1c9 7abc 77fe 4f3d 282d 793c a7a7 d93c
00000130: ada6 c93c 1a06 9a3c 6b53 80bc 38ae 973c
00000140: 38a4 833d 67d7 3d3c ca6f a03c 7bfa 193d
00000150: 8ff8 073d 65be 59bd d4a3 c23c f31a 5cbd
00000160: c29c 603d 41a2 04bd c8e2 d7bd 0642 663d
00000170: 5497 2cbd ab4f bfbd 6473 b13c 6e80 073b
00000180: 8c50 9b3b 660f a1bd be41 79bd 3ac9 a9b7
00000190: c8a0 c13b 9045 aa3c 0ad0 9c3a 1224 053d
000001a0: 4a29 643d 922e 1f3d b8c5 6d3d 6141 3b3c
000001b0: 566a 3f3d 4021 47bc 1bb0 763d 29b1 00bd
000001c0: d66f 9dbb af3c 903d a892 293c 4257 12bc
000001d0: a5e1 42bc a036 19bd e757 6c3c 258a 203c
000001e0: 36ce 383d 4e2f 6abd 16de 073d 401d 7f3d
000001f0: 6b9f 28bd 12b5 87bd d8c0 ec3c 7fbc e63c
00000200: 469d 3c3c 6efe b33c f048 513d 68cd 49bb
00000210: 1a1d ea3c 32a7 4bbd 4cf6 81bc 59b5 00bd
00000220: 7ae1 ad3c 1736 003d 7e53 c7bc 1d0d 3e3d
00000230: dbb5 4bbd f4fb 0a3d 08c9 4dbd f298 0cbd
00000240: 7465 113d 3ea2 da3c 5c38 d33c 8d80 443d
00000250: 5341 293d 4bf1 e73c ac9f 4cbd 4d80 4d3d
00000260: 0c64 31bd e281 d2bc 82f4 c5bc a3f8 08bd
00000270: 145d 9ebc 7240 473d 630b cbbc c6ac 913d
00000280: eaa1 ecbb bb5c 2abb 1aa1 1d3c 2692 9ebc
00000290: 44f4 8ebc bbad f7bb 61d0 79bd 2aaa 543d
000002a0: 302c 8c3d 8254 ba3c f51c 903c 81d7 2abd
000002b0: 8d55 c2bb 1a97 2dbc 5e56 df3c baf4 483d
000002c0: 50c3 adbc ff89 a03c f1bf 053d a332 d2bb
000002d0: 6ea4 593d ecef 80bc 4060 ae3b f1e8 14bd
000002e0: 0df7 e0bc 9d1f ae3c 4b3d 693d 92f4 dabb
000002f0: 6807 20bd 98f4 e83c ae90 383b d706 0abd
00000300: ed09 d0bb 3c38 0a3d a1da 14bd 8d4f 1dbd
00000310: 4171 03bd 28d9 c23c d3d0 363d 06bc a83c
00000320: 896c 3abd 7fda 993c 93f5 09bd 31af a23c
00000330: 5db4 7c3d c707 e5bc 3dc1 da3c 62fa 13bd
00000340: f01a 4bbd e4dc 94bc 56d1 ba3c a830 8a3c
00000350: adce 443c 0c23 313a 1bb5 f63c ad4f ffbc
00000360: b487 223b 8deb 393c ddc8 d1bc 42b1 473c
00000370: 6195 72bc 1cb9 8d3c 7104 383d 995d 98bb
00000380: db90 873d 20b4 563c 1a6e c5bc 42de b3bc
00000390: c86a f73c 3245 26bd af3f f43c cbdf 14bd
000003a0: 7063 05bd 3ec6 943b 9e52 1c3d 505e 60bc
000003b0: fb22 7bbc b3be afbc 1ac4 683d 343c ea3c
000003c0: cb01 e43c 3aaa 963b 74dc 413d 073e 41bd
000003d0: 97ab b03c c553 43bd 4cb5 60bd 851c 7abd
000003e0: 6e83 d1bc 1b3b cabc e770 21bc 7737 993c
000003f0: c1cd bb3c d404 9a3d 7eec 1d3d e94d 9e3d

backbone.9.weight f4 [64]
0.98404765 0.9654717 1.0237156 0.96718824 1.0129178 0.99694806 0.94975185 1.0178099
0.9528988 0.99193215 0.9564508 0.98872703 1.0036622 0.9965774 0.9970472 1.0199963
1.0085139 1.003621 1.00515 1.0005978 1.0074189 1.0098546 0.9773419 1.0108184
0.9887361 1.0085307 0.96680474 0.9759848 1.0130335 1.033401 0.9924626 1.0143304
0.96500355 0.9911963 1.0047975 1.0040627 1.0317627 0.98332703 1.0124259 1.0394807
0.99227893 1.0217178 0.99609786 1.0025375 1.0101511 0.97262937 1.0290395 0.9587407
1.0321296 1.0388921 1.0086956 1.0290885 1.0048491 0.9726518 1.0454901 0.9767194
0.99561995 1.0190392 1.0601869 0.9933051 0.9600372 0.99007636 1.0375342 0.9661673
00000000: 8cea 7b3f 2729 773f 1d09 833f a699 773f
00000010: 4aa7 813f fd37 7f3f f022 733f 9847 823f
00000020: 2df1 733f 44ef 7d3f f6d9 743f 371d 7d3f
00000030: 0178 803f b21f 7f3f 7c3e 7f3f 3d8f 823f
00000040: fc16 813f a776 803f c1a8 803f 9713 803f
00000050: 1af3 803f ea42 813f 1433 7a3f 7f62 813f
00000060: cf1d 7d3f 8917 813f 8480 773f 24da 793f
00000070: 15ab 813f 7c46 843f 0712 7e3f 94d5 813f
00000080: 790a 773f 0abf 7d3f 349d 803f 2085 803f
00000090: cd10 843f 52bb 7b3f 2c97 813f b40d 853f
000000a0: fe05 7e3f a6c7 823f 4500 7f3f 2653 803f
000000b0: a24c 813f 3dfe 783f 91b7 833f 0870 753f
000000c0: d31c 843f 6bfa 843f f01c 813f 2cb9 833f
000000d0: e59e 803f b5ff 783f 9fd2 853f 480a 7a3f
000000e0: f3e0 7e3f e06f 823f 34b4 873f 3e49 7e3f
000000f0: ffc4 753f a575 7d3f eccd 843f bd56 773f

backbone.9.bias f4 [64]
-0.026339535 -0.052730277 0.004328667 -0.012408663 -0.006416142 0.01342083 -0.059161924 -0.0062717916
-0.03678095 -0.019437127 -0.0066352487 -0.008179427 -0.009761471 -0.020399421 -0.038624514 -0.011480917
-0.030301204 -0.00485069 -0.04154885 -0.012267354 -0.007739204 -0.06623355 -0.07079258 -0.045339033
-0.081147276 -0.034086347 -0.033133887 -0.053329386 -0.0141743785 -0.015898822 -0.04301725 0.0017446748
-0.043142974 -0.054363474 -0.06015894 -0.007708842 0.0092490595 -0.030058945 -0.007481451 -0.060019143
-0.024423271 -0.015716143 -0.03967625 -0.007168655 -0.01558472 -0.0035260802 -0.002977774 -0.038791254
-0.039571047 -0.0031789858 -0.011527717 -0.05593969 -0.017242838 -0.06774561 0.007286689 -0.019736411
0.003358304 0.0044045555 0.018197142 -0.0076622386 -0.045578115 -0.026928179 0.0057486515 -0.04315602
00000000: 02c6 d7bc b4fb 57bd 7ed7 8d3b b44d 4bbc
00000010: 803e d2bb 0ae3 5b3c c653 72bd 9a83 cdbb
00000020: 9fa7 16bd 9c3a 9fbc 806c d9bb 0103 06bc
00000030: 94ee 1fbc b01c a7bc bd34 1ebd 751a 3cbc
00000040: 3b3a f8bc 89f2 9ebb 202f 2abd 03fd 48bc
00000050: 2699 fdbb 75a5 87bd b3fb 90bd 6cb5 39bd
00000060: 8b30 a6bd 209e 0bbd 66b7 07bd ea6f 5abd
00000070: a73b 68bc 3f3e 82bc db32 30bd 92ad e43a
00000080: b0b6 30bd 3cac 5ebd 3869 76bd 749a fcbb
00000090: 5e89 173c 2d3e f6bc f626 f5bb a2d6 75bd
000000a0: 5013 c8bc 24bf 80bc 9083 22bd 09e7 eabb
000000b0: 0e57 7fbc cf15 67bb c226 43bb 94e3 1ebd
000000c0: 4015 22bd 8856 50bb c0de 3cbc 0421 65bd
000000d0: da40 8dbc 36be 8abd 2dc5 ee3b 41ae a1bc
000000e0: fe16 5c3b 1754 903b 2c12 953c 8413 fbbb
000000f0: 1eb0 3abd 7c98 dcbc 2f5f bc3b 5ec4 30bd

backbone.9.running_mean f4 [64]
0.39567873 0.06351386 -0.16162725 0.022236139 -0.2717895 0.109581575 -0.04945502 -0.5062574
0.8092802 -0.50434285 -0.032760326 -0.29107198 -0.37126997 -0.23518395 -0.47386765 -0.19260359
0.19905101 -0.22810858 0.35826027 -0.33631995 -0.06074447 -0.1505885 0.42994946 -0.49768132
0.36294213 -0.16874476 0.053052314 0.32189363 -0.22821078 -0.0326314 0.6017951 -0.08420745
0.13447696 0.16595659 -0.4616732 -0.37523127 -0.5048 0.17973106 -0.18540952 -0.15091884
-0.18951383 -0.4024059 -0.18401399 -0.11164014 0.22237447 -0.18201667 -0.1536261 0.66892165
0.13965361 0.08460527 -0.22382097 -0.35104793 0.04399124 0.50605744 -0.24756357 0.27974135
-0.67968893 -0.68366617 -0.78268564 -0.28403035 0.62331486 -0.5667264 -0.2801953 0.84381735
00000000: 6796 ca3e 8e13 823d 9d81 25be 9028 b63c
00000010: fe27 8bbe 4e6c e03d 5991 4abd 169a 01bf
00000020: fd2c 4f3f 9d1c 01bf b12f 06bd 6307 95be
00000030: 1917 bebe 10d4 70be c89e f2be e039 45be
00000040: 07d4 4b3e 4c95 69be e46d b73e 2132 acbe
00000050: 32cf 78bd df33 1abe 5622 dc3e 16d0 febe
00000060: 8dd3 b93e 6dcb 2cbe 624d 593d 3ecf a43e
00000070: 16b0 69be 81a8 05bd 3e0f 1a3f f574 acbd
00000080: 54b4 093e 86f0 293e 6e60 ecbe 501e c0be
00000090: 933a 01bf 6b0b 383e fedb 3dbe 788a 1abe
000000a0: ea0f 42be 2508 cebe 2a6e 3cbe 96a3 e4bd
000000b0: 22b6 633e 9462 3abe 2950 1dbe 733e 2b3f
000000c0: 5b01 0f3e 8745 ad3d 5331 65be 8ebc b3be
000000d0: 2930 343d fb8c 013f 4e81 7dbe 423a 8f3e
000000e0: 1800 2ebf bf04 2fbf 165e 48bf 6d6c 91be
000000f0: 9091 1f3f fb14 11bf c275 8fbe 6a04 583f

backbone.9.running_var f4 [64]
0.44193906 0.36698127 0.28778607 1.0522913 0.4851144 0.20340897 0.3433663 0.6207656
1.2532402 0.7479162 1.7219862 0.44503155 0.3672898 0.4338549 0.24648543 0.23201717
0.17656319 0.86854315 0.16099122 0.6815515 0.23957112 0.12302475 0.26602566 0.20305657
0.18958601 0.30369136 0.5887209 0.22662841 0.30187926 0.43264708 0.44040775 0.3271736
0.69235176 0.17323977 0.1830286 0.56684434 0.5387265 0.21224837 0.6280733 0.20961183
0.3268279 0.16410683 0.22449857 0.28513318 0.116030745 1.234849 0.46380824 1.4639643
0.25100073 0.18616536 0.31283444 0.10338891 0.23103125 0.7874234 0.51610565 0.42549312
0.49198353 0.79638016 0.91382545 0.55672747 0.58855474 0.44595367 0.19973062 0.95021236
00000000: d645 e23e f8e4 bb3e b258 933e 7bb1 863f
00000010: ea60 f83e 714a 503e b5cd af3e 7fea 1e3f
00000020: 2d6a a03f 7077 3f3f 0b6a dc3f 2ddb e33e
00000030: 690d bc3e 3b22 de3e ad66 7c3e e995 6d3e
00000040: fbcc 343e d858 5e3f e2da 243e 297a 2e3f
00000050: 2252 753e 66f4 fb3d 8434 883e 10ee 4f3e
00000060: d622 423e 6f7d 9b3e 6ab6 163f 4711 683e
00000070: eb8f 9a3e eb83 dd3e 207d e13e 4c83 a73e
00000080: f73d 313f c465 313e d96b 3b3e b61c 113f
00000090: fbe9 093f a357 593e 69c9 203f 7ca4 563e
000000a0: fd55 a73e 9f0b 283e f4e2 653e fafc 913e
000000b0: 87a1 ed3d 880f 9e3f 4678 ed3e 2f63 bb3f
000000c0: 2b83 803e 22a2 3e3e d62b a03e 91bd d33d
000000d0: 7593 6c3e 9494 493f 801f 043f 3cda d93e
000000e0: 44e5 fb3e 92df 4b3f 77f0 693f b185 0e3f
000000f0: 86ab 163f 0a54 e43e 2f86 4c3e 1e41 733f

backbone.12.weight f4 [128, 64, 3, 3]
0.009325986 -0.0176982 -0.045057107 0.013373414 -0.011729227 -0.051569376 0.009369532 -0.038864747
0.0022569697 0.004543934 0.039893717 -0.0063525504 0.002736178 0.013957155 -0.025979327 0.01971813
-0.013162434 0.032994393 -0.03059093 -0.016522547 0.013833928 0.0064927847 0.022305116 -0.031197906
-0.005097638 -0.009934823 -0.009993961 -0.04023413 -0.016709013 -0.030950194 0.018294003 0.008395518
0.030281808 -0.043955434 0.029514324 -0.026314322 -0.015996244 0.0049855034 0.0051014656 0.010598816
-0.027332671 -0.03831184 -0.04220907 -0.030711778 -0.03252331 -0.017197264 -0.022160124 -0.03633401
0.016050102 -0.03849914 -0.03444677 -0.009021385 0.004610209 -0.0009625389 0.0065240823 0.008862883
0.050829865 0.028752722 0.024627862 0.041492563 0.022444101 0.0011532201 0.0033803931 -0.020440709
0.011706997 -0.0101840105 0.04086856 0.02356296 -0.0014796571 -0.0074863113 -0.03508359 -0.035722494
-0.040918455 -0.0063421773 -0.027544273 -0.04817902 0.021114273 0.01037389 0.0074718613 0.023552133
-0.034066487 0.027707698 -0.03286058 -0.00096025085 0.03207045 -0.032598384 0.012564735 0.003128279
-0.0018093656 0.018593278 -0.012019143 0.03814732 0.019484999 -0.010677861 -0.011159324 0.034243546
0.028709752 0.020738086 0.047420535 0.0064980444 0.029639484 -0.02068264 0.033420473 0.008440784
0.0036832127 0.040914297 0.036010105 -0.0066638086 0.017957553 0.010353024 -0.0059991064 -0.001811396
-0.0022865797 -0.01925301 -0.03401612 0.009671111 -0.021643525 0.00045605248 -0.016798873 0.043755177
0.032724045 0.032805 -0.0014884245 -0.0043150173 -0.027800431 0.016801503 0.050867703 0.02875506
0.05009015 0.057845198 0.022463392 0.00099821 -0.017535921 0.01208803 0.034039125 0.037440505
0.014675429 0.023696354 -0.010908036 0.011607987 -0.02901966 0.0032092733 -0.033598293 0.019284936
0.02272237 0.016712993 0.0005816723 -0.027133828 -0.028219692 -0.0023922645 0.02158482 -0.034608707
0.025297536 -0.03827541 0.0028208564 -0.050978288 -0.0041179676 -0.04734889 -0.01920776 0.012592465
-0.04326206 -0.02123691 0.007859357 0.0078666415 0.06366969 0.027187813 0.024569819 0.043088023
0.024733813 0.0093181785 0.0094672525 0.0004642711 -0.021922408 0.014501507 -0.017854596 -0.0177999
-0.025992732 -0.02805457 0.018914975 -0.048033677 -0.038743082 -0.025221324 -0.022401102 -0.017992465
-0.0238086 -0.0019568999 -0.0016661373 -0.010808307 -0.011085849 -0.004768031 -0.0034162246 -0.01242757
-0.0050491705 0.0085862735 0.013013661 0.00782088 0.011675759 0.019588107 0.022642097 0.039814867
0.01339782 0.020569438 0.028436266 0.006065194 0.03343724 0.03637135 0.04776884 0.011803042
-0.034884904 -0.020341795 -0.023296967 0.035982095 -0.0014103939 0.020987451 0.029752346 0.009519515
0.0014507283 0.017666174 -0.021956787 0.03550451 0.03078483 -0.0011307799 0.008807637 0.026738232
-0.029969694 -0.005497619 -0.0026384548 -0.0074050175 -0.025578806 -0.019353827 0.025172114 -0.010612701
0.006180452 -0.011802539 -0.0019929386 0.016786715 0.029648606 -0.005032971 0.0012621377 -0.010888671
-0.0054111043 -0.016583083 -0.01699943 0.022655878 0.010126113 0.01651414 0.0008223994 0.017462665
0.026200794 0.020502534 -0.017123228 0.039156955 -0.028591491 0.007584917 0.015080197 -0.03647857
00000000: 05cc 183c d1fb 90bc cd8d 38bd 2a1c 5b3c
00000010: f22b 40bc 693a 53bd aa82 193c a430 1fbd
00000020: abe9 133b 48e5 943b 9867 233d 0e29 d0bb
00000030: 7351 333b 8dac 643c 99d2 d4bc ea87 a13c
00000040: 40a7 57bc 2125 073d d499 fabc 4b5a 87bc
00000050: b3a7 623c 6dc1 d43b 38b9 b63c c092 ffbc
00000060: 160a a7bb abc5 22bc b6bd 23bc 8bcc 24bd
00000070: 57e1 88bc 438b fdbc 4edd 953c 5b8d 093c
00000080: 8e11 f83c 9d0a 34bd 06c8 f13c 2291 d7bc
00000090: 8e0a 83bc 6f5d a33b 322a a73b a8a6 2d3c
000000a0: c4e8 dfbc e0ec 1cbd 6be3 2cbd 4497 fbbc
000000b0: 2a37 05bd 47e1 8cbc 2689 b5bc f9d2 14bd
000000c0: 817b 833c 46b1 1dbd 0e18 0dbd 6ece 13bc
000000d0: 3c11 973b e452 7cba f8c7 d53b a035 113c
000000e0: fa32 503d d48a eb3c 5fc0 c93c 1bf4 293d
000000f0: b1dc b73c a527 973a 9689 5d3b 4673 a7bc
00000100: b4ce 3f3c d6da 26bc cb65 273d 1c07 c13c
00000110: 0ef1 c1ba bb4f f5bb cfb3 0fbd c051 12bd
00000120: 1c9a 27bd 0ad2 cfbb 87a4 e1bc 5d57 45bd
00000130: d7f7 ac3c 40f7 293c 84d6 f43b 67f0 c03c
00000140: 4d89 0bbd 41fb e23c d198 06bd 58b9 7bba
00000150: 4e5c 033d e285 05bd 51dc 4d3c d003 4d3b
00000160: 3c28 edba ee50 983c f1eb 44bc 5d40 1c3d
00000170: 019f 9f3c 32f2 2ebc 99d5 36bc f642 0c3d
00000180: b730 eb3c ebe2 a93c 093c 423d 8ced d43b
00000190: 81ce f23c a46e a9bc e8e3 083d 374b 0a3c
000001a0: 0e62 713b c095 273d 557f 133d 145c dabb
000001b0: b81b 933c bb9f 293c 2794 c4bb 5d6c edba
000001c0: 71da 15bb 7db8 9dbc 7d54 0bbd 9473 1e3c
000001d0: c34d b1bc 541a ef39 ca9d 89bc a138 333d
000001e0: a609 063d 895e 063d 3d17 c3ba fd64 8dbb
000001f0: bbbd e3bc 4ea3 893c a75a 503d bb8f eb3c
00000200: 542b 4d3d 16ef 6c3d 2605 b83c 5fd6 823a
00000210: 7ea7 8fbc df0c 463c 9c6c 0b3d 375b 193d
00000220: 3671 703c db1e c23c 9eb7 32bc 6d2f 3e3c
00000230: a3ba edbc ac52 523b 5d9e 09bd 71fb 9d3c
00000240: 4424 ba3c b0e9 883c 5e7b 183a c347 debc
00000250: fc2c e7bc 8ac7 1cbb a6d2 b03c dcc1 0dbd
00000260: c73c cf3c adc6 1cbd 1ede 383b 9cce 50bd
00000270: 04f0 86bb e9f0 41bd 9859 9dbc a050 4e3c
00000280: 8f33 31bd 07f9 adbc 88c4 003c 16e3 003c
00000290: 4165 823d fab8 de3c a546 c93c 117d 303d
000002a0: 919e ca3c 46ab 183c 891c 1b3c 6a69 f339
000002b0: 9f96 b3bc bb97 6d3c cd43 92bc 19d1 91bc
000002c0: b6ee d4bc b3d2 e5bc 94f3 9a3c f6be 44bd
000002d0: 11b1 1ebd f39c cebc 8482 b7bc ef64 93bc
000002e0: 410a c3bc 553f 00bb 4a62 daba 5315 31bc
000002f0: 6ca1 35bc 253d 9cbb bde2 5fbb 029d 4bbc
00000300: 8373 a5bb 71ad 0c3c 4037 553c 2623 003c
00000310: af4b 3f3c 3d77 a03c eb7b b93c ea14 233d
00000320: 8882 5b3c 3d81 a83c 2cf3 e83c 89be c63b
00000330: 7df5 083d 20fa 143d 42a9 433d 8c61 413c
00000340: 79e3 0ebd d6a3 a6bc 48d9 bebc f661 133d
00000350: f7dc b8ba e0ed ab3c 31bb f33c bdf7 1b3c
00000360: 5d26 be3a a7b8 903c b8de b3bc 2d6d 113d
00000370: 7830 fc3c ad36 94ba e84d 103c 230a db3c
00000380: 0183 f5bc 5f25 b4bb ede9 2cbb caa5 f2bb
00000390: a58a d1bc eb8b 9ebc c035 ce3c e5e0 2dbc
000003a0: 6485 ca3b 705f 41bc f69b 02bb 4b84 893c
000003b0: a2e1 f23c 9feb a4bb 506e a53a 6566 32bc
000003c0: a24f b1bb 3fd9 87bc 6342 8bbc d298 b93c
000003d0: ffe7 253c a948 873c 4a96 573a dd0d 8f3c
000003e0: 0ca3 d63c eef4 a73c 0346 8cbc 0b63 203d
000003f0: b438 eabc e58a f83b ee12 773c 8e6a 15bd

backbone.13.weight f4 [128]
1.0840735 1.0940157 1.0896335 1.1068281 1.0856751 1.0809897 1.0860845 1.0903459
1.0712686 1.0824862 1.0867045 1.1027117 1.1146446 1.0898125 1.1042033 1.074815
1.1015335 1.1239594 1.0971746 1.1167856 1.0781229 1.1089268 1.0816085 1.0775948
1.0585476 1.0856622 1.1019373 1.0961504 1.1103579 1.079686 1.0572004 1.1058644
1.0831507 1.0959287 1.0900512 1.1027793 1.1157851 1.0839992 1.099903 1.0901697
1.0895468 1.0865678 1.0888151 1.0892782 1.0680544 1.0821159 1.0883181 1.0902048
1.0724138 1.1025903 1.0838697 1.1088669 1.109809 1.1108252 1.0750183 1.1169847
1.0733511 1.0891616 1.0887527 1.104225 1.1153922 1.1246191 1.0882677 1.0884047
1.0944391 1.0788802 1.1061119 1.1109327 1.0853738 1.0679839 1.0965873 1.0824239
1.0928069 1.0977539 1.0983437 1.0807987 1.0926011 1.0951896 1.0763645 1.0954834
1.0932918 1.1039549 1.1095042 1.0832595 1.1041348 1.1089195 1.0897369 1.0897967
1.0765399 1.0721477 1.1093805 1.1088772 1.0985992 1.1077098 1.109259 1.0901593
1.0860817 1.0969177 1.0903172 1.0972126 1.0847864 1.0817035 1.0851332 1.1029612
1.0751387 1.0564659 1.0710119 1.09174 1.0963922 1.0674394 1.0631361 1.0776261
1.1087025 1.0911932 1.0814215 1.0946332 1.0993142 1.08063 1.0965023 1.0953528
1.1256751 1.0885031 1.0942063 1.0967342 1.0919799 1.0848827 1.1022558 1.0772377
00000000: ecc2 8a3f b508 8c3f 1c79 8b3f 8bac 8d3f
00000010: 67f7 8a3f df5d 8a3f d104 8b3f 7490 8b3f
00000020: 541f 893f e88e 8a3f 2219 8b3f a825 8d3f
00000030: adac 8e3f fa7e 8b3f 8956 8d3f 8a93 893f
00000040: 0dff 8c3f e7dd 8f3f 3870 8c3f d5f2 8e3f
00000050: eeff 893f 50f1 8d3f 2672 8a3f a0ee 893f
00000060: 7d7e 873f fbf6 8a3f 480c 8d3f a84e 8c3f
00000070: 3520 8e3f 2733 8a3f 5852 873f f78c 8d3f
00000080: afa4 8a3f 6447 8c3f cc86 8b3f df27 8d3f
00000090: 0cd2 8e3f 7cc0 8a3f 9fc9 8c3f ae8a 8b3f
000000a0: 4576 8b3f a714 8b3f 4b5e 8b3f 786d 8b3f
000000b0: 02b6 883f c682 8a3f 024e 8b3f d58b 8b3f
000000c0: db44 893f ae21 8d3f 3ebc 8a3f 5aef 8d3f
000000d0: 390e 8e3f 852f 8e3f 339a 893f 5bf9 8e3f
000000e0: 9263 893f a669 8b3f 405c 8b3f 3f57 8d3f
000000f0: 2cc5 8e3f 85f3 8f3f 5b4c 8b3f d850 8b3f
00000100: 9516 8c3f bf18 8a3f 1395 8d3f 0b33 8e3f
00000110: 87ed 8a3f b2b3 883f f95c 8c3f de8c 8a3f
00000120: 19e1 8b3f 3383 8c3f 8796 8c3f 9d57 8a3f
00000130: 5ada 8b3f 2c2f 8c3f 50c6 893f cd38 8c3f
00000140: fcf0 8b3f 654e 8d3f 3c04 8e3f 3fa8 8a3f
00000150: 4a54 8d3f 13f1 8d3f 807c 8b3f 757e 8b3f
00000160: 0fcc 893f 233c 893f 2e00 8e3f b0ef 8d3f
00000170: e69e 8c3f 6fc9 8d3f 33fc 8d3f 578a 8b3f
00000180: ba04 8b3f cd67 8c3f 848f 8b3f 7671 8c3f
00000190: 48da 8a3f 4375 8a3f a5e5 8a3f d52d 8d3f
000001a0: 259e 893f 463a 873f eb16 893f 23be 8b3f
000001b0: 9456 8c3f dba1 883f d814 883f a7ef 893f
000001c0: f7e9 8d3f 38ac 8b3f 056c 8a3f f11c 8c3f
000001d0: 54b6 8c3f 1552 8a3f 305a 8c3f 8534 8c3f
000001e0: 1f16 903f 1254 8b3f f40e 8c3f c961 8c3f
000001f0: ffc5 8b3f 70dd 8a3f b816 8d3f ede2 893f

backbone.13.bias f4 [128]
0.047091942 0.046171125 0.06832806 0.0672556 0.047321167 0.055000424 0.06303991 0.07305058
0.046456415 0.05480962 0.039474744 0.05015836 0.078153275 0.08225227 0.059133343 0.047967236
0.057731595 0.051927842 0.0421632 0.096746564 0.057635278 0.06274909 0.05283948 0.057815272
0.025312698 0.028411562 0.05902026 0.041297242 0.08735664 0.06227839 0.04161682 0.06868937
0.0575238 0.057943437 0.042599883 0.050287288 0.06349165 0.06089144 0.0850733 0.05976054
0.070714034 0.032902304 0.04149669 0.05909114 0.047198784 0.04540097 0.04414356 0.08021331
0.056107 0.048185963 0.051974308 0.08326141 0.08660853 0.05447875 0.051484067 0.09278665
0.021240188 0.061970316 0.07580246 0.05484068 0.07472384 0.07220757 0.054592475 0.04087659
0.059016865 0.033553123 0.053207457 0.083193906 0.067778766 0.054294873 0.05319406 0.0352524
0.06745292 0.07719375 0.064543 0.057539124 0.05575217 0.042646304 0.0647382 0.051979
0.0468225 0.074795336 0.06115203 0.06756179 0.055811077 0.08185319 0.058452055 0.046463437
0.025769105 0.049472533 0.07122735 0.060692534 0.062373005 0.08073793 0.04818591 0.045937855
0.036098287 0.041788343 0.082256764 0.053795826 0.04595944 0.050818257 0.06837636 0.04364671
0.02556776 0.04608908 0.05547616 0.06100438 0.06475635 0.047276285 0.040213726 0.0687066
0.0620381 0.05115735 0.056384496 0.047347974 0.05325036 0.05271282 0.052671697 0.069194116
0.08233385 0.03751812 0.04236934 0.0672228 0.0371973 0.070011504 0.059289437 0.02049568
00000000: 7be3 403d ef1d 3d3d 95ef 8b3d 4ebd 893d
00000010: d7d3 413d 2048 613d 111b 813d 8b9b 953d
00000020: 1549 3e3d 0d80 603d 45b0 213d da72 4d3d
00000030: d30e a03d e173 a83d ce35 723d 4b79 443d
00000040: f777 6c3d 4ab2 543d 52b3 2c3d 1023 c63d
00000050: f812 6c3d 9882 803d 366e 583d b5cf 6c3d
00000060: 935c cf3c 5dbf e83c 3abf 713d 4c27 293d
00000070: 0ae8 b23d a017 7f3d 6676 2a3d 03ad 8c3d
00000080: 139e 6b3d 1956 6d3d 377d 2e3d 0bfa 4d3d
00000090: e907 823d 4d69 793d e93a ae3d 78c7 743d
000000a0: 85d2 903d 91c4 063d 6ff8 293d 8d09 723d
000000b0: 8353 413d 5ef6 393d e1cf 343d e046 a43d
000000c0: 74d0 653d a55e 453d 03e3 543d f584 aa3d
000000d0: d05f b13d 1c25 5f3d f5e0 523d ed06 be3d
000000e0: e7ff ad3c 96d4 7d3d 523e 9b3d 9fa0 603d
000000f0: d008 993d 90e1 933d 5c9c 5f3d 366e 273d
00000100: abbb 713d 006f 093d 10f0 593d 9161 aa3d
00000110: 98cf 8a3d 4d64 5e3d 04e2 593d d264 103d
00000120: c224 8a3d c217 9e3d 1f2f 843d 25ae 6b3d
00000130: 635c 643d e4ad 2e3d 7695 843d efe7 543d
00000140: f3c8 3f3d 4c2e 993d 8d7a 7a3d d65d 8a3d
00000150: 289a 643d a5a2 a73d 6c6b 6f3d 7250 3e3d
00000160: bb19 d33c b6a3 4a3d a5df 913d bc98 783d
00000170: d67a 7f3d ee59 a53d 975e 453d 5529 3c3d
00000180: ccdb 133d 412a 2b3d 3c76 a83d 0359 5c3d
00000190: f73f 3c3d ce26 503d e808 8c3d e5c6 323d
000001a0: 7b73 d13c e7c7 3c3d f83a 633d bbdf 793d
000001b0: fa9e 843d c7a4 413d 26b7 243d 0cb6 8c3d
000001c0: aa1b 7e3d 5f8a 513d 6ef3 663d f3ef 413d
000001d0: 0d1d 5a3d 66e9 573d 47be 573d a5b5 8d3d
000001e0: a69e a83d 9aac 193d 798b 2d3d 1bac 893d
000001f0: 325c 183d 3162 8f3d 7bd9 723d 8ee6 a73c

backbone.13.running_mean f4 [128]
0.25829285 0.41035554 0.10842516 0.6152913 -0.36922988 0.13020924 0.27758583 0.85007703
0.7665975 0.085482724 0.28440318 0.22274251 0.39776555 -0.19189449 0.39280477 -0.19296327
-0.06768973 0.050399873 0.10996468 0.23933879 1.1434395 0.5254707 0.845455 0.775641
0.16690193 0.13895506 -0.2608552 0.35020113 0.7121577 0.5254141 -0.007137888 0.23096271
-0.33306864 0.34865996 0.17186873 -0.03090574 0.23821995 0.19167793 0.32344514 -0.36955348
0.110558845 0.21746472 0.012358992 0.30967736 0.89892626 0.26450962 0.36998942 -0.22789817
-0.41382515 0.23911625 0.009948941 1.0134565 0.14093272 0.33562538 0.013687888 -0.0814563
0.3325567 0.6724434 -0.5750041 0.054622244 -0.2560885 0.26934475 0.5497924 0.3956292
0.9153204 0.37536135 0.36156836 -0.23296478 0.4205114 -0.009909463 0.33632028 -0.011172669
0.13797207 0.4141291 0.05106409 0.54481936 -0.37047452 0.07595955 -0.24641237 0.48535997
0.10617339 0.33094054 0.08999089 0.48892444 -0.43176597 0.10810982 0.6739978 0.7780322
0.63722885 0.018115181 0.049647946 0.39479584 0.16336614 0.44310912 0.6969477 0.65586716
-0.11809745 -0.020926509 0.05966645 0.4825938 0.17167635 0.49804944 0.2126478 0.04678342
-0.071291454 -0.017849425 0.03183728 -0.3124053 0.14232902 0.075738624 0.5620619 -0.54435974
-0.14811078 0.2183842 -0.0689551 0.2671349 0.41576672 -0.22558151 -0.15603851 -0.302678
0.9134688 0.51103073 -0.009096337 0.40992352 0.40313983 -0.45006505 0.40807673 0.19989334
00000000: f63e 843e 1f1a d23e 030e de3d bb83 1d3f
00000010: b30b bdbe 9255 053e bb1f 8e3e a69e 593f
00000020: bc3f 443f 9111 af3d 4b9d 913e 9d16 643e
00000030: eda7 cb3e fd7f 44be b51d c93e 2a98 45be
00000040: eaa0 8abd 1970 4e3d 2a35 e13d 3a15 753e
00000050: 3a5c 923f 3f85 063f bd6f 583f 6990 463f
00000060: 57e8 2a3e 3c4a 0e3e d08e 85be 904d b33e
00000070: f84f 363f 8a81 063f f2e4 e9bb 7d81 6c3e
00000080: f987 aabe 8f83 b23e 5bfe 2f3e 092e fdbc
00000090: eeef 733e 3847 443e 9a9a a53e 1d36 bdbe
000000a0: ad6c e23d 12af 5e3e 5f7d 4a3c 088e 9e3e
000000b0: 0820 663f ce6d 873e 416f bd3e 235e 69be
000000c0: e4e0 d3be e4da 743e e200 233c f1b8 813f
000000d0: ab50 103e 17d7 ab3e 2a43 603c 90d2 a6bd
000000e0: df44 aa3e 4025 2c3f 7833 13bf 93bb 5f3d
000000f0: 081e 83be 8ee7 893e 32bf 0c3f e98f ca3e
00000100: 7052 6a3f 5d2f c03e 7d1f b93e 528e 6ebe
00000110: 454d d73e 4d5b 22bc 2c32 ac3e 920d 37bc
00000120: 8d48 0d3e bb08 d43e 9428 513d 4879 0b3f
00000130: d6ae bdbe ae90 9b3d 8653 7cbe 1a81 f83e
00000140: 6f71 d93d 0a71 a93e 254d b83d 4e54 fa3e
00000150: 6e10 ddbe ae68 dd3d 1f8b 2c3f 1e2d 473f
00000160: 6e21 233f 4a66 943c a55b 4b3d ae22 ca3e
00000170: 7449 273e 33df e23e 2a6b 323f e9e6 273f
00000180: 13dd f1bd 126e abbc cf64 743d 8916 f73e
00000190: edcb 2f3e 5600 ff3e 58c0 593e f99f 3f3d
000001a0: 4101 92bd f538 92bc cf67 023d 96f3 9fbe
000001b0: b3be 113e da1c 9b3d 4ae3 0f3f 295b 0bbf
000001c0: 5aaa 17be 1ca0 5f3e 5538 8dbd e8c5 883e
000001d0: 60df d43e d7fe 66be 8fc8 1fbe 9cf8 9abe
000001e0: 17d9 693f e9d2 023f cd08 15bc 7fe1 d13e
000001f0: 5868 ce3e ed6e e6be 6fef d03e d7b0 4c3e

backbone.13.running_var f4 [128]
0.1190505 0.14944774 0.15976624 0.12908673 0.13106243 0.15357964 0.124589495 0.1307235
0.17387481 0.15396924 0.18471873 0.15787797 0.17198265 0.21105623 0.14012416 0.16364159
0.19506568 0.26164392 0.17473744 0.12301466 0.14497364 0.18638606 0.17218775 0.1728979
0.14443076 0.22752248 0.16345754 0.17437549 0.16853027 0.14197913 0.18400152 0.1291064
0.15145366 0.16872594 0.18015216 0.22636063 0.1958556 0.15495165 0.13060825 0.10531618
0.14578772 0.14185995 0.15853785 0.15983331 0.14095548 0.16649488 0.15170296 0.16602951
0.17281674 0.17136839 0.17690903 0.14302742 0.19931206 0.20783252 0.13233295 0.22549768
0.17867659 0.17372125 0.15170431 0.17074004 0.20143625 0.26484767 0.1339865 0.13144743
0.15099259 0.15403943 0.19264376 0.1700702 0.12305253 0.19529085 0.16483873 0.18555245
0.15157314 0.17016004 0.15831712 0.15374896 0.13999848 0.18506575 0.13865252 0.16398558
0.15815544 0.17825295 0.19396763 0.15554239 0.13363986 0.15475309 0.17765746 0.14271678
0.16577728 0.13501371 0.22324623 0.15835671 0.11572499 0.18577503 0.16950138 0.21170036
0.17514086 0.18016218 0.15441655 0.19686712 0.12644263 0.15810882 0.20830481 0.22127897
0.16701704 0.1128692 0.14291973 0.18776241 0.1499645 0.123202235 0.1434361 0.13227995
0.1574859 0.19333082 0.11998994 0.16039805 0.1643688 0.17870535 0.1562735 0.13899541
0.20338151 0.17071894 0.21013269 0.1495102 0.16594769 0.17399062 0.15862995 0.1686896
00000000: c0d0 f33d d408 193e c399 233e 502f 043e
00000010: 3b35 063e fb43 1d3e c728 ff3d 62dc 053e
00000020: 3d0c 323e 1daa 1d3e e826 3d3e c3aa 213e
00000030: 381c 303e 201f 583e b57c 0f3e a991 273e
00000040: 4cbf 473e 31f6 853e 5fee 323e 1cef fb3d
00000050: f873 143e fddb 3e3e fc51 303e 260c 313e
00000060: a8e5 133e a7fb 683e 6a61 273e 7d8f 323e
00000070: 3393 2c3e fa62 113e e56a 3c3e 7834 043e
00000080: ab16 1b3e 7ec6 2c3e cf79 383e 15cb 673e
00000090: 5f8e 483e a5ab 1e3e 2bbe 053e 02b0 d73d
000000a0: 6049 153e bc43 113e bf57 223e 58ab 233e
000000b0: a256 103e a27d 2a3e 0558 1b3e a403 2a3e
000000c0: dff6 303e 327b 2f3e a427 353e c875 123e
000000d0: 7618 4c3e 0cd2 543e 4a82 073e dde8 663e
000000e0: fff6 363e fce3 313e 6058 1b3e 7ad6 2e3e
000000f0: 4e45 4e3e 1d9a 873e c233 093e 289a 063e
00000100: cd9d 1a3e 83bc 1d3e 6844 453e e226 2e3e
00000110: f702 fc3d 53fa 473e 7ccb 283e 7601 3e3e
00000120: fd35 1b3e 6f3e 2e3e e21d 223e 5e70 1d3e
00000130: c35b 0f3e e081 3d3e edfa 0d3e d6eb 273e
00000140: 80f3 213e f187 363e 739f 463e 8146 1f3e
00000150: e3d8 083e 9877 1e3e d6eb 353e 5924 123e
00000160: 85c1 293e 0941 0a3e a99a 643e 4328 223e
00000170: 3901 ed3d cf3b 3e3e c591 2d3e fbc7 583e
00000180: 2058 333e 6f7c 383e 5f1f 1e3e 8997 493e
00000190: 2d7a 013e 47e7 213e db4d 553e f496 623e
000001a0: 8406 2b3e f827 e73d 8d59 123e ca44 403e
000001b0: 4b90 193e 7451 fc3d eae0 123e 6574 073e
000001c0: fc43 213e 84f8 453e 49bd f53d 633f 243e
000001d0: 4b50 283e 89fe 363e 2906 203e d054 0e3e
000001e0: 3e43 503e f2d0 2e3e 062d 573e 3419 193e
000001f0: 31ee 293e 992a 323e e46f 223e f7bc 2c3e
