results/cnn_feature/baseline/cnn_best.pt (torch, 472561 bytes, 24 tensors)

backbone.0.weight f4 [16, 1, 3, 3]
00000000: 4a2a 723e 76d1 973e 642f a5bd 2124 a83e
00000010: f6e2 ccbc c113 8e3d c0d4 06be f71f 6a3e
00000020: 66ed 923e c173 85be 83a9 7e3e 5f77 973d
00000030: 42a6 633e 2c68 143d 48a4 523e 5b22 d7bc
00000040: 2ce9 893e db0f ad3d 7881 0fbe 5fe6 ed3d
00000050: 2a8b f3bd d287 93bd 187e efbd 4033 583e
00000060: 559c abbe 5748 38be 0554 c8bd 7d37 54be
00000070: d854 083d c554 a8be 4bbc 993e bd98 90be
00000080: 1115 833e ce55 313d 7457 eebd 77c2 503e
00000090: 22a3 8c3d 89cc 8b3e 3f92 9f3d c033 cdbd
000000a0: fec8 1d3d 7334 58bd af46 173e c7f7 883e
000000b0: 3d4c 5b3e ae89 0abe d3fb 5c3e 7906 aa3d
000000c0: 8b67 363e 5559 4dbe ae56 a4be bd09 e8bd
000000d0: 6622 82be e8af 873e ff69 103e 2748 0e3e
000000e0: faab b33d eb29 683d 266c 993e 6ac1 63be
000000f0: 4e9c 9c3d be01 37be 7b12 fc3d de71 ddbd
00000100: b3ff e23d 3f0e 78bd 0e7e 903e e52e 49be
00000110: 2bbf 46be c298 52be 321f 973e c648 e43d
00000120: 5f46 a93e 69bf 87be f36d aebe 4efc 72be
00000130: ea03 5cbe 0d1f 103e 8538 093e 0507 923e
00000140: 9b79 2bbe 70cb 5fbe a2de 433e 9d90 fcbd
00000150: 3f4b 4f3e de41 95bd f550 483e 2738 84be
00000160: 041f 24be edf3 e23d 5279 863d 58b0 c0bd
00000170: ac33 3c3e 139a 623e d314 80be 6a13 43be
00000180: ad5f 973e d39c f1bd a3e7 04be 9ad4 9ebe
00000190: 60a3 16be ad9f 023e a957 3abd 5fd6 69be
000001a0: 1857 743c 8f4a 5bbe 4a0a 94be 9f91 45be
000001b0: c70e a5be f13e 7abe 76ad a63e 0c26 fa3c
000001c0: 57fe ca3d 8e88 92be 5ee8 82be a93e f2bd
000001d0: ef06 2e3d b6db a3be 22f5 1fbe e959 0cbe
000001e0: 985c 18bd e583 28be 2316 b53c 8339 6ebe
000001f0: e372 71be 35ff 37be 7b81 c8bd 5b97 7fbe
00000200: 6cb8 923e 9ade 77bd e8bc 943e 9ef6 d63d
00000210: ccfe 94be a1a1 673e 8d0d e2bd 733e e0bd
00000220: 7be6 b1be 5779 d0be dc6b 033e a74f 8abd
00000230: 9b4c ff3d 614c 62be a6e4 7f3e 341f 5fbe
0.23648944 0.29651994 -0.0806568 0.32840064 -0.025010567 0.069373615 -0.13167095 0.22863756
0.28696746 -0.26064876 0.24869351 0.07395815 0.22231391 0.03623216 0.20570481 -0.0262615
0.2693571 0.0845029 -0.14014232 0.116162054 -0.11891778 -0.0720364 -0.11693972 0.211133
-0.3351771 -0.17996345 -0.097816505 -0.20724292 0.03328404 -0.32877174 0.3002647 -0.2824153
0.2560201 0.04329472 -0.11637774 0.20386682 0.068670526 0.27304485 0.07791566 -0.10019636
0.03852176 -0.052784394 0.14773057 0.2675154 0.21415801 -0.13529083 0.21580438 0.08302016
0.17812936 -0.20053609 -0.3209738 -0.113299824 -0.2541687 0.26501393 0.14102934 0.13894711
0.08773036 0.0566806 0.29965323 -0.2224175 0.07647 -0.17871758 0.12308212 -0.10812734
0.11083927 -0.06056046 0.28221172 -0.19646795 -0.19408862 -0.20566085 0.29515988 0.11146693
0.330615 -0.26513222 -0.3406826 -0.23729059 -0.21485868 0.14074345 0.13400467 0.2852098
-0.16745608 -0.21854949 0.19127896 -0.1233227 0.20243548 -0.07287954 0.19562133 -0.2582409
-0.16027457 0.110816814 0.06566109 -0.09408635 0.18379086 0.22129087 -0.25015888 -0.19050375
0.29565182 -0.1179749 -0.12978987 -0.31021577 -0.1471076 0.12756224 -0.045493755 -0.22835682
0.014913343 -0.2141516 -0.289141 -0.19293831 -0.32237837 -0.24438073 0.32554215 0.03053572
0.09911793 -0.28619808 -0.25567907 -0.11828358 0.04248708 -0.32003564 -0.15620854 -0.13706173
-0.03719768 -0.16456564 0.022105282 -0.23264126 -0.23578982 -0.17968448 -0.097903214 -0.24960081
0.28656328 -0.060515024 0.29050374 0.10496257 -0.29100645 0.2262025 -0.11037741 -0.10949411
-0.34746155 -0.40717575 0.12834114 -0.06753474 0.12465783 -0.22099449 0.24989566 -0.21789247

backbone.1.weight f4 [16]
00000000: e50c 803f ed00 803f 361c 803f cec5 7c3f
00000010: eba0 7a3f 1909 7f3f abe3 7e3f 9ad4 7e3f
00000020: 28dd 803f 9eb2 813f 3673 853f 767f 803f
00000030: 8f32 7f3f 3ad5 7e3f e5d5 7d3f df3f 803f
1.0003935 1.0000283 1.0008609 0.98739326 0.9790179 0.99623257 0.99566144 0.99543154
1.0067492 1.0132635 1.0425785 1.0038898 0.9968652 0.9954411 0.991545 1.0019492

backbone.1.bias f4 [16]
00000000: faee a9bb fced d2bb 3937 43ba 5918 d1bc
00000010: 342e 853b b1fe 9abc 0870 3ebb 425a a63c
00000020: 20d0 78bb 292c a1bc fe63 c93c 04a7 aabc
00000030: aaa4 21bc e991 a2bc ac5b 1a3d b5ad fe38
-0.005185959 -0.0064370614 -0.00074468885 -0.025524305 0.0040643457 -0.018920274 -0.0029058475 0.02030671
-0.003796585 -0.019674378 0.024583813 -0.020831592 -0.009865919 -0.019844966 0.03768508 0.00012144019

backbone.1.running_mean f4 [16]
00000000: e550 be3c ebc2 6a3c afcd 7abc e6f5 0cbb
00000010: a078 8f3c a177 94bb a52d 2f3c 30f3 e739
00000020: 1982 a2bb 2d44 83bb b0cf 243b 44e4 cbbc
00000030: d9f0 77bc 3240 e8bc 71ee 0bba 73cc 8fbc
0.023231933 0.014328699 -0.015307828 -0.0021508872 0.017513573 -0.0045308624 0.010692035 0.00044240942
-0.0049593565 -0.00400593 0.0025148205 -0.024889119 -0.015133106 -0.028350923 -0.000533796 -0.017553544

backbone.1.running_var f4 [16]
00000000: 731d b83f 6994 3c3f 7ac0 0a3f a9d3 9a3c
00000010: 37c9 5d3f de4e a83d ea14 8d3e 76ee 9f3b
00000020: e4b8 fc3d 5bfb ce3c 0092 ae3c 36d5 d03f
00000030: 5565 083f c2cf 0240 7522 eb3c 316d 3d3f
1.4383987 0.73663956 0.54199946 0.018899756 0.86635154 0.08218168 0.2755502 0.0048807217
0.123399526 0.02526634 0.021309853 1.6315067 0.5327962 2.0439305 0.028702954 0.7399474

backbone.4.weight f4 [32, 16, 3, 3]
00000000: 16f7 98bc 5ac5 5d3c 19d8 1f3d d194 823d
00000010: 7c23 983d 56bf 8bbd 5526 983c 6346 10bd
00000020: 1589 3dbc 4490 8cbd 3548 903d 539b 83bd
00000030: 955c 203d 0f31 ef3c bf03 b13c 69be 3bbd
00000040: 94d9 9d3d e9f4 363c b39d dc3c 1ecd 80bd
00000050: 7982 0b3d a52c 0f3c 7b51 cbbc 4377 953d
00000060: 056a 123d 53bf 08bd d05a 06bd 2ece 4cbc
00000070: 1ab8 5e3d 359a d1bc 4cce 67bd a096 bfbc
00000080: 1511 b5bd fdb3 2f3d e829 6d3d 512b a1bd
00000090: 353a 683c bd47 163d 425d 2d3c 8b81 06bd
000000a0: f69e 303d 18ca 1e3d e59a ef3c e2c4 53bc
000000b0: 0c7b d4bc eacd a13c a3f3 5cbc 4e1e edbc
000000c0: 9956 833d fc97 933d b985 673a 0d3c 27bc
000000d0: e43f debb f0f1 b93a 2bcf 803c 082d 863c
000000e0: 8ef9 a4bd b8be 18bd e033 883d f1b0 f73c
000000f0: 0db2 39bc ee46 5bbd 7b90 65bd 4788 9bbd
00000100: e0ca 22bc b0f4 c13c f1e1 ea3c c1d1 1c3d
00000110: fc4d 82bd 1842 56bd ebf5 59bc 2f16 8c3d
00000120: b486 823c 01d5 d7bc 671c 213d 01e7 10bd
00000130: 3103 8bbd 3fd1 fc3c 8101 0bbd 04e7 98bc
00000140: bed9 aebd 8838 973d 0310 a73d d15d 613d
00000150: 8b2e 33bd ed9c 86bd 4f3d 95bd 2704 9b3d
00000160: de91 3d3d f083 ae3d 29fa 1c3c 29d5 fd3b
00000170: a1e6 88bc a40f dcbd 39b5 cdbd cf46 a3bd
00000180: c7a0 c13a d092 58bd 01f5 cfbc 4aac fdbc
00000190: 9a3f eebb e383 6bbd ab39 0cbd bc3e 293d
000001a0: 0e3a c2bc 4def 913d 9ea2 3dbc 2339 64bd
000001b0: a02b c93a ddd5 f0bc 1c66 adbc b217 73bd
000001c0: 92f2 773d 84b5 5dbd a4bb 753d 0ca5 573d
000001d0: 1f72 863d 3f5e 3fbd 811e 8a3d 8e4e 21bd
000001e0: 30f3 4f3d 1a07 b83d a4b0 4dbc c2c3 a13c
000001f0: b3fa 4cbb 3632 83bd 1d54 3f3d 9545 a8bd
00000200: 241f 373d 8f1c 623d 7e12 b13d 744a 20bd
00000210: 1bde 9cbd 5074 433c 1f4d bf3c 2407 94bd
00000220: 72d2 5dbc 339a 4abd d0cb ff3b 9a46 16bd
00000230: 89a0 16bd 4cf9 0bbc b4d0 8abd 90e1 8f3d
00000240: 0467 783d 3e40 dcba b2e2 503b 9f2a 1cbd
00000250: 67fc 8fbd 4be7 8fbd 94fe ed3c 2022 40bd
00000260: bd43 76bd f2e4 d4bb c5a9 5fbc a42e a9bc
00000270: c74a 583c 42da e0bb 91c0 88bc d0a8 0abd
00000280: 5c5c 9cbd 1ca9 7e3d 71af 07bd 70e4 893c
00000290: e935 37bd a020 1a3c 66d6 a33d 106f f43c
000002a0: 8808 84bd 5941 243d ffe0 a33d b5bf fc3c
000002b0: 81a2 4d3d 8f9d 7f3d 0fb3 913c 6fec 833d
000002c0: c1ae 0ebd 6c70 0bbd 4380 263d d03f 983c
000002d0: cc15 65bd 2cf0 59bd a576 2ebd 41f1 a1bd
000002e0: c56e 6abd 50e4 19bc 9782 793d 4c75 cf3b
000002f0: d779 8ebd afc0 58bd 59f9 523d 0c29 89bd
00000300: a619 4cbb d42b 4a3d 73d5 33bd fe8b ba3b
00000310: 57ac 113c 044c 1abc 6024 4fbd aa1d 6cbd
00000320: 6d37 4bbd 7086 69bd 59e8 ae3d 0d90 00bd
00000330: f3d3 4cbd 0d9a d13c 4d3e c33c 2fea 843c
00000340: a460 853d 871b 803d d5fd 89bd fc80 df39
00000350: 23e4 8b3d 04be 19ba 0694 81bd d465 5b3d
00000360: 1c8f 43bd 7e11 6abd e4ec 9ebd d15a 4a3a
00000370: 5bb3 cb3c 2221 1a3c 5cf2 573c dc33 89bd
00000380: 8ec2 bebd 7447 b53c 4a10 a83d 6155 343d
00000390: 70f3 3abc d0f0 e73c fb25 dabc cb20 72bc
000003a0: 18b6 203d 2c20 843d 627a 403d e1bd adbd
000003b0: 30a4 653d 3ec0 a1bd 9db5 363d 8afd 9d3d
000003c0: 97ae bbbb b797 e73d b0b8 8cbd 8a98 05bd
000003d0: c16f 263d 55ba 10bd f96e 88bc f79d 14bd
000003e0: 4e9a 3c3d 62a7 413d 8f89 013d 5c0b 4cbd
000003f0: 30b5 80bd b5bc 3d3b 4b7f 1f3c 8ee2 19bd
-0.018672507 0.013535822 0.039024446 0.06376041 0.07428643 -0.06823604 0.018572966 -0.035223376
-0.011568327 -0.06863454 0.070450224 -0.0642611 0.039150793 0.029198198 0.021608232 -0.045835886
0.07707515 0.01116679 0.026930666 -0.06289123 0.034059975 0.008738671 -0.024819126 0.07298138
0.03574564 -0.033385586 -0.03280145 -0.012500329 0.05437479 -0.025586227 -0.056593224 -0.023387253
-0.08841149 0.04289626 0.057901293 -0.0786959 0.014174034 0.03668951 0.010581316 -0.032838386
0.043120347 0.03876695 0.029248664 -0.0129253585 -0.02593758 0.019751508 -0.013485822 -0.028945114
0.064130016 0.07206723 0.0008831877 -0.010207188 -0.0067825187 0.0014186483 0.015723785 0.016378894
-0.08055411 -0.03729126 0.06650519 0.03023574 -0.0113339545 -0.05353444 -0.05604599 -0.07594352
-0.0099360645 0.023676246 0.02867219 0.038285974 -0.063625306 -0.052309126 -0.01330326 0.06840169
0.015933372 -0.026346685 0.039333727 -0.035376552 -0.06787718 0.030861495 -0.03393698 -0.018664844
-0.08537625 0.07383829 0.08157351 0.05502111 -0.04374556 -0.065729 -0.07287084 0.07569151
0.046281688 0.08521259 0.009581127 0.007746358 -0.016711535 -0.10745171 -0.10044331 -0.0797249
0.0014772647 -0.052874386 -0.025385382 -0.030965943 -0.0072707655 -0.057498824 -0.034234684 0.041319594
-0.023709323 0.07125721 -0.0115744155 -0.055718552 0.0015348084 -0.029398853 -0.021166854 -0.05934877
0.060534067 -0.054128185 0.0599934 0.052647635 0.065647356 -0.04672074 0.067440994 -0.039381556
0.05076903 0.089857295 -0.012554321 0.019746665 -0.0031277358 -0.06406061 0.046711076 -0.08216397
0.044707432 0.055203017 0.08646105 -0.039133504 -0.07659551 0.0119295865 0.023352204 -0.072279245
-0.013538944 -0.049463462 0.0078062788 -0.036688425 -0.036774192 -0.008543324 -0.06778088 0.070254445
0.06064512 -0.0016803814 0.0031873402 -0.038126584 -0.07030564 -0.070265375 0.029052056 -0.046907544
-0.060123194 -0.006497019 -0.013651316 -0.020652123 0.013201422 -0.006861956 -0.016693385 -0.0338524
-0.07634804 0.062172994 -0.0331263 0.01683256 -0.044729147 0.0094071925 0.07999878 0.029838115
-0.0644694 0.040101383 0.08001899 0.030853132 0.050203804 0.06240612 0.017785577 0.064415805
-0.034834627 -0.03404276 0.040649664 0.018585116 -0.05592899 -0.05320756 -0.042593617 -0.07907344
-0.057234544 -0.009392813 0.060915556 0.0063311215 -0.06956833 -0.052918132 0.051507328 -0.06697282
-0.0031143217 0.049358204 -0.043904733 0.005692958 0.008891187 -0.009417538 -0.0505718 -0.057645477
-0.049613405 -0.057012975 0.085404105 -0.031387378 -0.050006818 0.025586152 0.023833418 0.016224949
0.06512573 0.062552504 -0.06737868 0.00042629975 0.06830623 -0.00058648014 -0.06327061 0.053563908
-0.0477439 -0.057145588 -0.07760027 0.0007719221 0.024865797 0.009407314 0.013180342 -0.066993445
-0.09314452 0.022128798 0.08206232 0.044026736 -0.011410579 0.02831307 -0.026629439 -0.014778326
0.039236158 0.06451449 0.046991713 -0.08483482 0.056064785 -0.078979954 0.044606794 0.07714374
-0.0057276 0.11308234 -0.06871164 -0.032616176 0.04063392 -0.03533395 -0.016654478 -0.03628346
0.046045594 0.04727877 0.031625327 -0.04981552 -0.06284559 0.002895159 0.009734939 -0.037569575

backbone.5.weight f4 [32]
00000000: dcab 803f a0d0 813f a764 793f 9755 813f
00000010: 5c93 813f 7453 803f cfea 823f f9ed 7f3f
00000020: 2314 813f 6c7a 813f e949 7d3f 6a72 7f3f
00000030: 58d7 823f ca23 7d3f bf20 833f 3b7e 803f
00000040: 28ee 7f3f bd9b 803f 4ceb 7b3f 9e61 803f
00000050: 55bb 7d3f b91b 7e3f 626d 803f 0cdd 813f
00000060: cf5f 803f fb16 813f 112f 793f b683 803f
00000070: 4335 803f d772 833f 096b 803f 9340 7d3f
1.0052447 1.0141792 0.9741921 1.0104245 1.0123096 1.0025468 1.0227908 0.9997249
1.008427 1.0115485 0.989409 0.99783957 1.0221968 0.98882735 1.0244368 1.0038522
0.9997277 1.0047528 0.9840591 1.002979 0.9911397 0.9926105 1.0033381 1.0145583
1.0029238 1.0085138 0.9733744 1.0040195 1.0016254 1.0269421 1.0032665 0.9892666

backbone.5.bias f4 [32]
00000000: a63b b3b9 744c 8bbb 6ea0 d5bc d088 c639
00000010: 2c20 0ebc c2f3 3c3c 2b9d d33c 4485 dbbc
00000020: 3ce2 a23c 3640 43bc 6622 343c a8b0 74bb
00000030: c83e 753c c033 fdbc a4d4 203d 5e0f 8bbb
00000040: 0988 9bbc aabf 45bd 1864 26bc 9b2f 21bc
00000050: 2963 55bc 8703 553c 3f0f 00bc 5637 17bc
00000060: b157 8ebc ccb0 18bc 7663 823c 48d1 f33b
00000070: deb6 0dbc f4f3 12bc 40ea a8b8 75da 9bbc
-0.00034185982 -0.0042510573 -0.026077475 0.00037867436 -0.008674663 0.011532726 0.02583178 -0.026796944
0.019883268 -0.011917165 0.010994529 -0.003733674 0.0149685815 -0.030908465 0.03926529 -0.0042437753
-0.018985765 -0.04827849 -0.0101557 -0.00983801 -0.01302413 0.013001329 -0.007816135 -0.009229502
-0.017375799 -0.009319495 0.015916567 0.0074407198 -0.008649556 -0.008969296 -8.054497e-05 -0.019025067

backbone.5.running_mean f4 [32]
00000000: 2498 05be 60a7 3fbe 406f 213e b678 02be
00000010: 1a4a b03e 477e 83be bde8 05be ea71 e33e
00000020: 28aa 3dbe b286 433f 4382 003d 7c60 d53e
00000030: 959c cdbe bb63 bf3e 8d21 fbbe cb77 51be
00000040: cc54 bd3e 1032 973c ee41 553c 280c a9bc
00000050: 8395 983d 7eea fabd d32c bfbe 9201 c2be
00000060: 5611 083f 4c22 713e c698 8fbc 876e 04be
00000070: b185 cb3e 9ce4 a5be 2804 78be b981 e03e
-0.13046318 -0.18716192 0.15765095 -0.1274136 0.34431535 -0.2568228 -0.13077064 0.44422847
-0.1852194 0.76377404 0.031374227 0.41675174 -0.40158525 0.37380776 -0.49049035 -0.20455854
0.36978757 0.018456489 0.013016207 -0.02063568 0.07450392 -0.12251757 -0.37338886 -0.37891823
0.5315145 0.2354824 -0.017528903 -0.12932788 0.39750436 -0.32400978 -0.24220335 0.4384897

backbone.5.running_var f4 [32]
00000000: 9d0f ef3d be7a 673e 01bc 713f 2c90 813e
00000010: 9b3a 113e f811 0b3e a66c cb3d f91c 4c3e
00000020: c779 ab3d 7f1a 3d3e 5379 153e 955e cd3d
00000030: c156 3f3e ae58 4f3e d724 413e 7988 183e
00000040: 950a ed3d f42d f53d 17e4 bd3e ac4f c43d
00000050: 3299 a43e 00d3 ac3d 276a b93d b44b 093e
00000060: 71d5 5b3e 2084 ae3d a121 2f3e 8417 c93d
00000070: c365 bc3e c583 e33d b667 e53d f836 373e
0.116729 0.22605416 0.94427496 0.25305307 0.14182512 0.13581073 0.099328324 0.19932927
0.083728366 0.18467139 0.14597063 0.10027806 0.18685438 0.20248672 0.1886171 0.1489581
0.11574284 0.119716555 0.3708808 0.09585509 0.3214813 0.084386826 0.0905345 0.13407785
0.2146814 0.085212946 0.17102672 0.098189384 0.36796388 0.111091174 0.11201422 0.17892063

backbone.8.weight f4 [64, 32, 3, 3]
00000000: 02bd ceba 418b ac3c 164e 9b3d 1140 41bd
00000010: f265 aebc 81ce 823d ab91 d8bb 69d3 b5bc
00000020: 6bb2 8b3b ad9a b1bc 0875 053c 356b d0bc
00000030: 6ce9 d03c 6878 8fbb 2ff5 80bc 6421 2b3b
00000040: 1e6d 283d 5b7f 123d 35ea 61bd 5c83 0ebd
00000050: e99f 36bd e7f0 833c 9877 163d 0d27 77bd
00000060: 8dff f23b e19f 053c 4f45 01bd 4e21 26bb
00000070: 5799 1f3d 8811 203d 2713 ea3b c17d a7bb
00000080: 387d e8bc 8b48 a4bc 3244 a73b 2cdc 9fbc
00000090: cff5 ef3c d18c 83bd d6c5 d6bc e42f a8bc
000000a0: 0720 a6bb 21fc eb3c 9cc9 12bc 8618 053c
000000b0: 6103 26bd 58b0 86bd ae44 70bd d86f 1f3d
000000c0: a3d8 f7bc 05bf d33c a4ba 50bc a76a b53c
000000d0: 003d 0a3d cfa7 0f3c 668d 733c b6da 303d
000000e0: 1072 4bbd c991 fd3c 02a3 97bd 046b 7c3c
000000f0: f7a6 f7bc d81c f2bb 6cef 493c bed3 8f3b
00000100: c199 653d 51bf f4bb d0b1 49bd 34f0 1c3d
00000110: 9344 febc 541e d83c 4abe 603d fa47 403d
00000120: 3ad2 17bd e965 e9ba 2db0 88bd 51be 0fbd
00000130: ca4f 373c 0ef4 c5bc bcb8 6dba 0f9a 2d3c
00000140: 3ac5 a3bc 5be2 7fbc 0b6c 5f3d 9d73 9d3b
00000150: b475 483d 85b5 743d b46e 65bc 38fd 1abd
00000160: e8b2 8b3d 2ac3 0ebd 468a 6c3d c3ec e1bc
00000170: d1a1 e93c a84e 8d3c 9778 04bc 0c21 583d
00000180: 6b77 42bd 6ced 30bd 13cf 7ebc 3176 143d
00000190: 27de f03c 8853 113d 5065 c13c d681 4a3d
000001a0: 8669 59bc 17c8 a7bc 83f6 98bc 8f02 a23c
000001b0: 32df dcbb 9e2e e23c 0b21 af3c 7cd0 f63c
000001c0: 79d6 443d 9868 823c 0635 863d 3376 173c
000001d0: b9c3 09bd ae7a 7c3c 180a 813c 204c 293d
000001e0: 86cd c93c f485 0ebc ef53 70bd a367 18bd
000001f0: 108f d03c 1ba4 403d e289 48bc 189f bfbc
00000200: 3898 ce3c b919 1cbd 2771 f03c fc5e 16bd
00000210: df51 83bd a8a7 2abd 4200 0dbc b34d 1e3a
00000220: 76a3 fd3c ba86 6dbc 8557 9bba cf8e ad3c
00000230: 2450 0d3c 06f3 f4bb b489 2c3d 51a1 03bc
00000240: d902 a53c 5ed6 2f3d 0623 a63b 74b7 b23b
00000250: 8e66 32bd 8cd3 52bd 53a1 8a3a e905 023d
00000260: a0b6 783c 18be 4f3a 0b9f 6b3d 7ca2 0abb
00000270: 4558 09bb 2b70 f3bc 8412 ef3c 8106 103d
00000280: 943d 193c 40ec b73b b798 ecbc 4fba 42bd
00000290: 20bc 14bd 84e1 6ebd ec77 033d be8d cabc
000002a0: 1f5d 47bc bc8f 69bd 258d a2bc 5afe 6f3d
000002b0: 146f e5ba 5256 983b 48b0 4f3d fb27 733d
000002c0: 1356 8c3d 69ea 30bc 0376 f43c bc30 e8bc
000002d0: f96c 1cbd 999f 5a3d f7a7 17bd 5379 87bc
000002e0: ad06 033d a9e7 1f3d 470c 21bd 7ac2 babc
000002f0: 62fb b6bc 08e6 603d 6224 0b3d 74a2 2b3d
00000300: 1b64 633d 0d08 b3ba a05b 353d 413f 9c3c
00000310: 5853 c93c ce0f a5b9 3f68 1a3d 1747 123d
00000320: 0c76 f03b 6b51 b43d ab13 30bc e449 9abb
00000330: ffed 923d 0552 2d3c 3230 46bc b27f 723b
00000340: 1850 0e3d 5af7 9cbb 5ed7 023c eee6 163d
00000350: 09f8 3f3b 9d02 89bc 618b 06bd 0848 713d
00000360: 6f94 83bc 4e41 a3bc 46ff 23bd 85e4 273d
00000370: aab8 8d3c 249c ccbc 2bf1 89bd 197e e53c
00000380: 0fb7 9f3c 3c2b efbc 1429 89bd 4409 b63a
00000390: 9b65 55bd eddf 313c 6c9d 84bd 3100 6fbd
000003a0: 8d57 81bd ad13 0c3d 8e17 8c3d d842 81bd
000003b0: 6375 f13c e240 f9bc 10cb 56bd dfbb 7b3c
000003c0: 66ac 1a3d 1d3b d03c eb06 2bbb bddb 493d
000003d0: cd3a 68bd c550 163d a1f0 6fbc f995 98ba
000003e0: 6cc5 3c3d 23b1 f4bc 0e27 ba3c ba2d 82bc
000003f0: bd7e f53c f071 023b 96f1 273d e43a 383d
-0.0015772881 0.021062495 0.07583253 -0.04718024 -0.021288846 0.06387044 -0.006609162 -0.022195535
0.0042632124 -0.0216802 0.008145578 -0.025441745 0.02550193 -0.004378367 -0.015741913 0.0026112432
0.041119687 0.035765987 -0.055154998 -0.034793243 -0.044586096 0.016106082 0.036735147 -0.060339976
0.007415718 0.008155794 -0.03156024 -0.002534944 0.038964596 0.03907922 0.0071433964 -0.0051114266
-0.028380021 -0.020054122 0.005104565 -0.019514166 0.029292015 -0.06423343 -0.026217382 -0.020530649
-0.005069736 0.028806748 -0.0089592 0.008123523 -0.040530566 -0.06576604 -0.058659248 0.038925022
-0.030254668 0.025847921 -0.012739811 0.022145582 0.03374958 0.008768036 0.014865255 0.04317733
-0.049669325 0.030953305 -0.07404138 0.015406374 -0.030230982 -0.0073886923 0.012325149 0.0043892553
0.056054834 -0.0074690958 -0.04924184 0.038315013 -0.031038558 0.02638165 0.054868974 0.046943642
-0.037065722 -0.0017806861 -0.06674228 -0.03509361 0.011188457 -0.024164226 -0.000906836 0.010595812
-0.019991506 -0.015617932 0.054546397 0.004805042 0.048940375 0.059743423 -0.014003444 -0.037839144
0.06821233 -0.03485409 0.057749055 -0.027578717 0.028519543 0.01724942 -0.0080853915 0.05276589
-0.047477167 -0.043195173 -0.0155523 0.03624553 0.029402805 0.035480052 0.02360788 0.049440227
-0.013269788 -0.020481152 -0.018672233 0.01977661 -0.006740474 0.02761012 0.02137806 0.03012871
0.0480561 0.015919015 0.06553082 0.0092444895 -0.03363392 0.0154101085 0.015751883 0.041332364
0.024634134 -0.008698929 -0.058673795 -0.03720821 0.025458843 0.047031503 -0.012239905 -0.023391291
0.025219068 -0.03811047 0.02935083 -0.036711678 -0.064121 -0.041663796 -0.0086060185 0.00060388
0.030961733 -0.014497453 -0.0011851644 0.02118626 0.008625064 -0.0074752597 0.04212351 -0.008034066
0.02014296 0.042929046 0.005070093 0.005453998 -0.043554835 -0.051471278 0.0010576643 0.031743918
0.01518026 0.00079247495 0.057524722 -0.0021153977 -0.0020957154 -0.029716572 0.029183634 0.035162453
0.00935306 0.00561288 -0.028881414 -0.04754096 -0.036312222 -0.058320537 0.03209679 -0.024725791
-0.012168198 -0.05702184 -0.019842694 0.058592178 -0.0017504417 0.004648962 0.050705224 0.0593643
0.06852355 -0.010798075 0.029841429 -0.02834355 -0.038189862 0.05337486 -0.037025418 -0.016537344
0.03198879 0.039039288 -0.03931835 -0.022797812 -0.022336666 0.054906875 0.033970244 0.041902974
0.05551539 -0.0013659016 0.044276834 0.01907313 0.024575874 -0.00031483028 0.037697073 0.035712328
0.007338291 0.08804592 -0.010746877 -0.0047085155 0.071743004 0.010578637 -0.012096452 0.0037002382
0.034744352 -0.004790229 0.007985918 0.036841325 0.0029292128 -0.016724879 -0.032847766 0.058906585
-0.01606199 -0.0199286 -0.04003837 0.040989418 0.017299969 -0.024976797 -0.06735452 0.02801423
0.019496469 -0.02919542 -0.06697288 0.001388826 -0.05209885 0.010856611 -0.06475338 -0.058349792
-0.06315527 0.03419845 0.0684043 -0.063115776 0.02947492 -0.030426446 -0.05243975 0.015364616
0.03776207 0.025418812 -0.0026096653 0.049281824 -0.0566967 0.03669812 -0.014644773 -0.0011641375
0.046086714 -0.029869622 0.0227237 -0.015890945 0.02996766 0.0019904338 0.04100188 0.044978037

backbone.9.weight f4 [64]
00000000: 0471 7b3f 8926 7b3f 4326 7d3f 9504 7c3f
00000010: 8e91 803f c4e9 803f 21e6 7b3f dd4a 7f3f
00000020: 93d5 7f3f 1dfa 7f3f b30b 863f 6fc6 833f
00000030: 14ce 793f dd0f 7c3f be8b 7a3f 13ff 7c3f
00000040: e9eb 803f 9333 833f ebad 7e3f 2fe7 843f
00000050: f07d 7b3f 15ec 7e3f f77e 843f b705 793f
00000060: 92c8 803f 7aa8 813f 8afe 7e3f 844a 813f
00000070: 5d59 803f 53d7 803f 1bf6 7c3f df3b 803f
00000080: bd1d 833f 7be6 803f a1e9 813f 8116 7d3f
00000090: 6759 7f3f 81ba 7d3f f15f 813f 03b7 7d3f
000000a0: 4062 7f3f 6cfb 803f a39f 7b3f 49f0 803f
000000b0: aaf0 7c3f 2773 783f c0b2 7f3f e496 843f
000000c0: ea81 833f c8e9 7b3f d8fb 823f f9f7 823f
000000d0: 4175 7b3f bef1 803f f7a6 7f3f c929 7a3f
000000e0: eb6e 823f 002b 813f 1f50 803f 1c2b 7d3f
000000f0: ad68 7e3f aac9 7f3f 3b16 803f 889d 813f
0.98219323 0.98105675 0.9888651 0.9844449 1.004442 1.007134 0.98398024 0.9972361
0.99935263 0.9999102 1.047232 1.0294932 0.97580075 0.98461705 0.9786948 0.9882671
1.0071994 1.0250114 0.9948413 1.0383052 0.9823904 0.9957898 1.0351247 0.97274345
1.0061209 1.012954 0.99607146 1.0100865 1.0027272 1.0065712 0.9881303 1.0018271
1.024345 1.0070337 1.0149423 0.98862463 0.9974579 0.9911271 1.0107404 0.9910738
0.9975929 1.0076728 0.9829046 1.0073329 0.98804724 0.9705071 0.99882126 1.0358548
1.0274022 0.98403597 1.0233107 1.0231925 0.9822579 1.0073774 0.99864143 0.9772001
1.01901 1.0091248 1.0024451 0.98893905 0.9937847 0.9991709 1.0006784 1.01262

backbone.9.bias f4 [64]
00000000: cd0d 69bc 008c b9bc 8349 49bd 94ac 10bd
00000010: 9901 15bc 0d0e 03bd b510 1fbd 5b8b 05bd
00000020: b303 25bc 43de d0bb 8782 403b e874 c5bb
00000030: a561 81bd a0c9 f9ba 1edb 28bb 4b85 fbbc
00000040: b9ed 0ebd 7bfe 0c3b 902c 14bd a3a7 a33c
00000050: 4722 b5bc a43c b7bb f982 ebbc b8b6 2fbc
00000060: b4eb f3bc f8ce f7bc 16e9 bebc afe7 79bc
00000070: 3f3f a9bc 3646 32bc eca3 a8bc e978 f1bc
00000080: b909 1abd c84d 133c f28d 67bb fbf4 12bd
00000090: 9f7f 9bbc d865 cabc d99a d6bb 64ac fc3b
000000a0: fdc3 20bb 4610 42bc 951f 18bd 7f8c 0cbc
000000b0: f763 3bbd 5d1a f6bc ea42 30bd 0e8f 2b3c
000000c0: b193 f43b 44be 78bc a0e6 4cbd dde1 db39
000000d0: 92ea 55bc 9297 2fbc 0194 02bc 3139 e4bc
000000e0: 8d11 47bd 49ff 133c 850b 00bd e00e 8fbc
000000f0: f79d 6fbc b352 36bd 2ae5 013c 4c81 50bc
-0.014224482 -0.022649765 -0.049142372 -0.035320833 -0.009094619 -0.03199582 -0.038834292 -0.032603603
-0.010071683 -0.006374152 0.0029374675 -0.006025899 -0.06317452 -0.0019057281 -0.002576537 -0.030703207
-0.03489468 0.0021513987 -0.03617531 0.019977396 -0.022111071 -0.0055919457 -0.028748976 -0.010724716
-0.029775478 -0.030250058 -0.023304503 -0.015252992 -0.02066004 -0.010880997 -0.020585977 -0.0294766
-0.03760693 0.008990712 -0.0035332409 -0.035878163 -0.018981753 -0.024706766 -0.006549221 0.0077109803
-0.002453088 -0.0118447 -0.037139494 -0.008578419 -0.04574963 -0.030041868 -0.043032564 0.010471119
0.0074638953 -0.015182082 -0.05002463 0.00041939216 -0.013056414 -0.0107172895 -0.007969857 -0.027859302
-0.048600722 0.009033033 -0.031260986 -0.017463148 -0.014625064 -0.044512462 0.007928172 -0.012726139

backbone.9.running_mean f4 [64]
00000000: fb3d 0a3f b2ed 4f3f f7e0 3e3e 7496 a63e
00000010: f28b a8bd 3266 99be 4c39 333f 980f a53d
00000020: a87c 40be efac 20bf 6027 3a3d e85f 5fbf
00000030: 01f2 b33e f59e 0c3f 1bcd 3bbe 9d3e e83c
00000040: f603 813d 4098 f8bd 77cb 8ebe f145 70bf
00000050: 95ab 90be f387 0bbf 0b37 b5be 5961 ea3e
00000060: 6a57 14bf e2c4 2dbd c4b5 1abf 58fd dd3b
00000070: fa8d 68be 27e1 fdbc a3f0 a8be c960 583e
00000080: 5eba dd3d 107f 053d 164a 1abf b16b 8e3e
00000090: 84a2 3fbe 03d6 43be ecfd 93be 29ae bc3e
000000a0: dd0a 59bf 34c5 50be f2ee 143f 261a fbbd
000000b0: 2168 98be fc33 e33e 76d2 bf3d 59cc d1be
000000c0: aed4 f9bd 4152 c1be a520 abbe eb7a 06be
000000d0: c7e3 8cbe 7733 f5be de31 823b 1fad 633e
000000e0: ef9c f2bd dd06 1cbf 71c7 f9bd 0a71 5f3e
000000f0: edb0 28bd fca4 1bbe caae 99be 1b13 87be
0.54000825 0.8122207 0.18640505 0.32536662 -0.082298175 -0.2996078 0.70009303 0.08059615
-0.18797553 -0.62763876 0.045447707 -0.87255716 0.35145572 0.5493005 -0.1833996 0.028350169
0.062995836 -0.121384144 -0.27889606 -0.9385672 -0.28255907 -0.5450432 -0.35393557 0.45777395
-0.57945883 -0.04242409 -0.604336 0.0067745857 -0.2271041 -0.03099115 -0.3299609 0.2113067
0.10826562 0.03259188 -0.60269296 0.27816537 -0.18714339 -0.19124608 -0.28904665 0.36851624
-0.847822 -0.20387727 0.581771 -0.12260847 -0.29766944 0.44375598 0.09366314 -0.40976217
-0.121987686 -0.37758067 -0.33423343 -0.13132827 -0.2751753 -0.47890827 0.00397323 0.22234009
-0.11846339 -0.6094797 -0.121962436 0.21820465 -0.041184355 -0.15199655 -0.30016166 -0.26381764

backbone.9.running_var f4 [64]
00000000: 12e3 c23e 711f 613f 7629 803e 8482 9f3e
00000010: a811 cb3e e6c7 ed3e 61c9 2f3f cfac 0c3e
00000020: 1953 303e e54f f13e 8783 703e 8a63 b53f
00000030: 3760 173f 4b16 223f 6dec 533e 0df6 573f
00000040: e0a7 743e c765 103e 82eb f63d 8c8a f03f
00000050: a422 5d3e 423c b33e 2278 073e 48fc 6a3f
00000060: 05c1 933e 96ee 0e3e c4dc 9b3e 8df3 193e
00000070: 5f71 c13d 5df9 513e 2f81 673e b646 943e
00000080: ddda 103e 8530 e63e 1c0f 673f f47e 213f
00000090: a0e1 783e 3696 3a3e 9b4e ee3d f7f6 763e
000000a0: 7bd2 7a3f 7073 713e 4143 723f d46b 003f
000000b0: 07c3 023f 9c56 413f 5ec6 953e b736 1a3f
000000c0: 9b66 873e 02c9 273f 7502 143e c0df 453e
000000d0: 00b9 a63e 8e96 a13e 5e1c 333e bfb2 e03e
000000e0: 343c 4e3e 6012 6f3f 28ac 4b3e 1900 de3e
000000f0: e315 623e b7a2 4d3e ee1b 5c3e abcf c73e
0.38063866 0.879386 0.25031632 0.31154263 0.39661908 0.46441573 0.68666655 0.13737796
0.17219199 0.47131267 0.23487674 1.4171002 0.5913119 0.63315266 0.20695658 0.8435982
0.23892164 0.14101325 0.12056638 1.8792281 0.21595246 0.3500691 0.13229421 0.917912
0.288582 0.13958201 0.30441868 0.15034313 0.09445452 0.20505281 0.22607873 0.28960198
0.1414599 0.44958892 0.9025743 0.6308434 0.24304819 0.18221363 0.116360866 0.24117647
0.9797742 0.23579192 0.9463387 0.5016453 0.5107884 0.7552278 0.29252905 0.6023974
0.2644547 0.6554109 0.14454062 0.19323635 0.3256302 0.31560177 0.1749129 0.43886372
0.20140153 0.93387413 0.19889891 0.4335945 0.22078662 0.20081602 0.2149503 0.39025626

backbone.12.weight f4 [128, 64, 3, 3]
00000000: f1d9 12bd aff5 a43c 6319 70bc 8816 f23c
00000010: d273 16ba cd00 2fbc 4959 10bd 8e2c 0abd
00000020: 6201 bf3c 1b7e 003d d5e6 0e3c fa62 0039
00000030: 72d2 5ebc 9dbe 553d 3b73 473d 70cf 9bbb
00000040: e9ee 813c 08f9 11bd 7a06 aebc f4b5 61ba
00000050: de06 fbbc 2615 e7bc 734a 1cbc 5a79 01bd
00000060: 9088 2d3c 951f c3bc b50e e83c 8bf9 a03c
00000070: c8ea 033d 5844 40bd 3af2 b63c 831e f33c
00000080: f29e 643a 3e90 1dbc 8383 713c cdfd 5abb
00000090: 32c8 f73b c0ce a9bc 4041 61bc 1533 253d
000000a0: 7119 3a3d b287 8c3c 50b5 e43a dcd6 053d
000000b0: 3939 003c c675 233c 77bb 0ebd 7db7 843c
000000c0: 0896 f0bc adb8 66ba fbb8 063c 43c8 013d
000000d0: abbe 053d 2c9a f4bc d2eb ac3c 55b9 08bd
000000e0: 9884 e1bc b790 bd3c 193d 99bc 9d51 0b3d
000000f0: 0cbf 843c abea 423b e480 d33b a42e e7bc
00000100: add8 e33b 6699 923c f10a 0cbc 7b8a ad3a
00000110: ca86 f33c d481 103d 1961 ccbb c84d 043d
00000120: 4acb 093d f24e b7bc 38a9 1dbd 2b3b b93b
00000130: dcf5 9b3c c329 37bd 3926 c7bc 135b 983c
00000140: 0a71 07bd 3f65 4cbc 88db 59bb 97cc 033d
00000150: 59a6 313d 04e6 ab3c 46c3 113c 86bb 01bb
00000160: 52f2 f1bc 9a5e f23c 7507 5fba af6a 1b3b
00000170: 12c0 8dbc 6629 2ebd ce33 a93b 89fd a6ba
00000180: ecb9 e6ba fd9b b53b c7c1 a9bc 3521 e6bc
00000190: 864e dbbc b349 063c a3d0 dfbc 046d bd3c
000001a0: ad00 27bd 58ca 88bc ecf6 8e3b c7a6 10bd
000001b0: dd21 abbc b8e0 863c e2c5 febc 4faa b23c
000001c0: 84a3 9abc db57 a2bc d1ec 123c 8035 c5bb
000001d0: 8e5f 913c 975c 963c 7e1f 9a3c f665 38bc
000001e0: f154 583d 1729 643c d3e7 1c3d 1f04 8cbc
000001f0: 1c9a 0a3d 2d0a 2a3d bc81 583b aa15 a43c
00000200: 76ae b6bc ae96 0dbd fc46 433c 0b6f 173c
00000210: 3672 28bd 1220 d5bc 3461 c4bc 9eea 473c
00000220: 88ca 033d 4936 2e3d 638d 9d3c d157 92bb
00000230: c08e 5fbc 842d f43c 27db 5d3c d4b2 20bc
00000240: f3a3 ecbc e272 f4bc afad c73c f959 cbbc
00000250: 089c 16bd 4db6 1dbd f0be 04bd fecf 25bc
00000260: 3632 39bd d816 ca3c 9dcc 8c3b a1e4 bebb
00000270: ef0e 4abc fa64 42ba 594b 6a3d f308 4e3c
00000280: 6225 e63c c80d 44bc d38b 5d3c 9def 9eba
00000290: d04a 44bc 1f1e a93a 4648 a0bc 3cea 04bd
000002a0: 2af2 9dbc 88e5 ea3b fea6 bd3c 9bda aabc
000002b0: d51c a13b ec85 12bd 5d84 fa3c 8f92 73bc
000002c0: 2e66 5cbd 8f25 10bd d1ba e6bb a284 473c
000002d0: c1eb 343c 2fb9 503b 087a 7dbc 5d54 89bc
000002e0: db4c bf3b a6e5 0bbd 872c b03c c900 a4bc
000002f0: e845 23bd ef39 d83c b085 003d 8c0a a3bc
00000300: c71a 8dbb 2cd4 f63b 7e44 82ba c3b1 583d
00000310: bb02 ab3c 9cde 073c e172 3dbd 7690 65bd
00000320: a896 96bb 113e b6bc 23b0 36bc d86c cabb
00000330: 6322 9b3c d4ee 85bc bc48 e03a 04de d0bc
00000340: 82e4 1b3d a064 d9bc 0899 e13b 079f f7bc
00000350: b7ed dc3c b825 9d3b cf96 0fbd 9727 d5bc
00000360: db17 123d 5b90 dd3c a730 d73c fb89 09bd
00000370: bb7b afbc 47a2 9c3a ae20 5839 90a5 cfbc
00000380: 2998 233d 31f0 e4bb 4929 2f3d dec6 303d
00000390: 323c 77bc 62c3 8dbb e8bd 1b3b 1959 0c3d
000003a0: dc72 80bc d057 dd3c ed4e b5bc fc67 9bbb
000003b0: b4eb b0ba e260 2fbd cc33 d8bc 3e02 a13c
000003c0: 3c96 f3ba 07cf 983c 896a b93c 2501 55bc
000003d0: f194 f93c b35c 133d 28da b6bc d683 2b3d
000003e0: 12e2 3f3b d5d9 853a 4482 e1bc ec8b e23c
000003f0: 6ba8 ea3c 0594 b33c afd7 d93c c5d7 98bc
-0.035852376 0.020136682 -0.01465449 0.02955176 -0.00057393045 -0.010681343 -0.0352414 -0.033733897
0.023316089 0.031370264 0.008722027 0.00012243903 -0.013599979 0.052183736 0.048693877 -0.004754953
0.015860992 -0.035637885 -0.021243323 -0.0008610182 -0.030642923 -0.028208327 -0.009539234 -0.03160987
0.010591641 -0.02381877 0.028327325 0.019650241 0.032206327 -0.046940178 0.0223323 0.029677635
0.00087211945 -0.00961691 0.0147408275 -0.0033415437 0.007561707 -0.020728469 -0.013748467 0.04033192
0.04543442 0.017154548 0.0017449055 0.03267561 0.007826143 0.00997681 -0.03484675 0.016200775
-0.029368415 -0.00088013225 0.008222814 0.031685125 0.03265254 -0.029858671 0.021108542 -0.03337987
-0.027529046 0.023140294 -0.018705891 0.03401338 0.01620438 0.0029741924 0.006454574 -0.028220482
0.00695332 0.017895412 -0.0085475305 0.0013240123 0.029727358 0.035280064 -0.006237161 0.03230074
0.033641137 -0.022376511 -0.038491458 0.0056528053 0.019038133 -0.04471756 -0.024310218 0.018598115
-0.033066787 -0.012475311 -0.0033242423 0.032177534 0.043371532 0.020983703 0.0088966545 -0.001979561
-0.029534493 0.029586125 -0.0008507886 0.0023714711 -0.0173035 -0.04251995 0.0051636463 -0.0012740354
-0.0017603016 0.005542277 -0.020722283 -0.028092006 -0.026770841 0.008196282 -0.027321165 0.023123272
-0.04077213 -0.016698048 0.0043629315 -0.0353153 -0.02089017 0.016464576 -0.031100217 0.021809725
-0.018876798 -0.019817283 0.008967594 -0.0060183406 0.01774576 0.018354697 0.018813845 -0.011254778
0.05281538 0.013925812 0.038307022 -0.017091809 0.033838376 0.04151361 0.0033036312 0.020029861
-0.022299986 -0.034567527 0.011918779 0.009242783 -0.041124545 -0.026016269 -0.023972131 0.012201933
0.03217557 0.04253224 0.019232458 -0.004466035 -0.013644874 0.02980686 0.0135410195 -0.009808261
-0.02888677 -0.029839937 0.024374811 -0.024823176 -0.036769897 -0.038503934 -0.032408655 -0.01012039
-0.0452139 0.024669096 0.0042968527 -0.0058255945 -0.012332662 -0.00074155594 0.057200763 0.012575376
0.028093997 -0.011966176 0.013522106 -0.0012125854 -0.011980727 0.0012902654 -0.019565713 -0.032449946
-0.019280512 0.0071684755 0.023150917 -0.020856192 0.004916767 -0.03577225 0.030580694 -0.014866485
-0.053808384 -0.03519207 -0.007041313 0.012177618 0.011042536 0.003184866 -0.015470989 -0.01676386
0.0058380193 -0.034154557 0.021505607 -0.020019906 -0.03986159 0.026394812 0.031377494 -0.01990249
-0.0043061706 0.007532617 -0.0009938625 0.0529039 0.020875325 0.00829282 -0.046252135 -0.05604597
-0.0045955963 -0.022246392 -0.011150393 -0.006177526 0.018937295 -0.016349234 0.001711152 -0.02549649
0.03805972 -0.02653724 0.006884698 -0.030227197 0.02696882 0.004795756 -0.03505593 -0.026019854
0.03566728 0.027046373 0.026268316 -0.033578854 -0.021421304 0.0011950218 0.0002061154 -0.025347501
0.039940033 -0.006986641 0.042763982 0.043158405 -0.015090035 -0.00432627 0.0023764316 0.034264658
-0.01567977 0.027019411 -0.022132361 -0.0047426205 -0.0013497979 -0.042817004 -0.026391886 0.01965439
-0.0018584202 0.018653406 0.022633808 -0.013000761 0.030466529 0.035977077 -0.022320822 0.041873775
0.0029279036 0.0010212014 -0.027527936 0.02765461 0.028644761 0.021921167 0.026592104 -0.018657574

backbone.13.weight f4 [128]
00000000: 3e83 853f bb34 8b3f 2b96 8a3f 8d48 873f
00000010: 72d8 893f d2da 893f 2fcc 863f 9234 853f
00000020: 814b 833f a8c6 883f 3188 843f d79c 8a3f
00000030: bd8c 883f face 893f ac31 893f 99b5 8b3f
00000040: 5c02 883f 23d9 853f 9182 893f a762 893f
00000050: 4a75 863f f8cd 8a3f 6905 8a3f 6488 893f
00000060: 41a0 893f ba2f 893f e0db 883f b848 8c3f
00000070: 34ba 833f 28e6 893f e4cd 873f dd41 883f
00000080: dfa2 883f 9a05 8b3f 4025 893f ac65 863f
00000090: 8c2b 863f 004d 883f 69ac 873f 1bcb 8a3f
000000a0: 31b5 883f 3c1c 8a3f cb21 883f fa63 853f
000000b0: 1933 8b3f a328 893f 3206 8b3f 3701 8a3f
000000c0: 4b47 8a3f 1e48 873f 7a23 863f 2053 873f
000000d0: 4c63 8b3f 0edf 883f d619 8b3f 1486 893f
000000e0: 8cba 883f e321 8a3f a384 873f 4c0b 883f
000000f0: 7559 863f 8c78 873f 7f02 893f 0293 893f
00000100: 52e2 873f 131d 883f 5586 883f 51cf 873f
00000110: 3193 8a3f adca 8a3f c344 883f 474f 873f
00000120: d6cc 883f ef39 883f 74eb 8a3f 6a41 873f
00000130: 9610 863f 2cad 883f 1728 8a3f 88ab 893f
00000140: 2a7b 883f ca0f 8a3f 569d 883f 1db2 893f
00000150: 8b2b 863f f14d 883f 2ea1 853f f019 893f
00000160: b766 873f 1b43 863f 1e20 893f 2fd1 8a3f
00000170: 1c6f 853f 37b4 893f 7aba 883f a09a 883f
00000180: c01f 863f 1b37 893f 9fd4 873f 01dd 883f
00000190: ce34 873f 8e3c 853f 0896 863f 9e21 893f
000001a0: d1eb 8b3f 053e 8b3f e1a8 883f 717c 883f
000001b0: 41f4 873f c33b 873f 43e2 863f 5568 8a3f
000001c0: e081 893f 69fa 893f 2bf8 873f a21a 8d3f
000001d0: f6a3 883f ca7a 873f b7aa 893f d19c 873f
000001e0: 68b6 893f 32e0 853f e7e2 873f 485f 883f
000001f0: f48e 893f 2dd8 883f b7d0 883f 7996 873f
1.0430677 1.0875467 1.0827078 1.0569016 1.0769179 1.0769904 1.0531062 1.0406668
1.0257417 1.0685625 1.0354062 1.0829114 1.066795 1.0766289 1.0718284 1.0914794
1.062572 1.045689 1.0742971 1.0733231 1.0504544 1.0844107 1.0782901 1.0744748
1.0752031 1.071769 1.06921 1.0959692 1.02912 1.0773363 1.0609708 1.06451
1.0674704 1.0861084 1.0714493 1.0499778 1.048204 1.0648499 1.059949 1.0843233
1.0680295 1.0789866 1.0635313 1.0421135 1.0874969 1.0715526 1.0861266 1.0781621
1.0803007 1.0568883 1.0479577 1.0572243 1.0889678 1.0693071 1.086726 1.0744042
1.068193 1.0791591 1.0587353 1.0628448 1.049605 1.0583663 1.0703887 1.0747988
1.0615942 1.0633873 1.0665995 1.0610143 1.0826169 1.0843102 1.0645984 1.0571069
1.0687511 1.064268 1.0853105 1.0566838 1.0473812 1.0677848 1.0793484 1.0755472
1.0662587 1.0786068 1.0673015 1.0757481 1.0482038 1.0648786 1.0439813 1.071104
1.0578221 1.0489229 1.0712926 1.0845088 1.0424533 1.0758122 1.0681908 1.0672188
1.0478439 1.0719942 1.0611762 1.0692445 1.056299 1.0409105 1.0514536 1.0713384
1.093134 1.0878302 1.0676538 1.0662977 1.0621415 1.0565113 1.05378 1.081309
1.074276 1.0779544 1.062261 1.1023753 1.0675037 1.0584347 1.0755223 1.0594732
1.0758791 1.0459044 1.061612 1.0654078 1.0746751 1.0690972 1.0688695 1.0592796

backbone.13.bias f4 [128]
00000000: 72d7 093d e9e8 5f3d c77a 463d 9f5e a83c
00000010: e754 5f3d e9cf 413d 0ff5 223d 888e f13c
00000020: 0d6a 363c d4c5 4a3d 53b7 bc3c 4c95 6a3d
00000030: 15fb 743d 148f 213d d605 223d 43f2 573d
00000040: 7a8e 643d 8fea 153d a4b8 273d 6f2a 7b3d
00000050: aefa 2f3d ab45 1d3d dbf1 0b3d 5cf9 203d
00000060: 9761 0d3d 15b1 4c3d 768d b93c 8c1e 8b3d
00000070: efca a53c fd48 0e3d 0abd 0f3d db2a 0b3d
00000080: 7e3c d73c d3f8 603d cfc5 133d 4505 023d
00000090: db17 0d3d 7681 f53c 5e5c f23c d207 683d
000000a0: b913 9e3c 0789 643d 3bc1 013d 7e08 843c
000000b0: 4166 1a3d 501b 0c3d 8933 423d 04ce 813d
000000c0: c6f2 373d 0220 523d cc70 1a3d 4671 233d
000000d0: 0306 633d 8bda 2b3d d019 993d 7b17 233d
000000e0: 4d69 4a3d fa58 8e3d 4d22 523d 19be 303d
000000f0: e5ae bc3c e2f2 4a3d 0d26 dc3c 07eb ef3c
00000100: 0c03 c23c b865 243d 0aa2 113d 240f b73c
00000110: e5e7 323d f9a8 613d 0c5f 173d 61f5 f83c
00000120: 05e3 3e3d ced0 493d f669 1f3d 559e 373d
00000130: bab8 003d 6a9b 1a3d b227 023d a9e2 0f3d
00000140: 9f56 673d 26d6 823d 1cd4 163d 33d7 283d
00000150: 9937 a63c b48c 103d d367 0e3c 0df5 563d
00000160: 7fc4 3a3d 59f4 ff3c 2eb8 453d d272 253d
00000170: 4544 e03c 23de 053d aa54 b93c bc30 223d
00000180: b0ff 833c 24bd 393d b861 4f3d d2fd 333d
00000190: 51f4 423d af44 063d b47f 1e3d a1e3 f43c
000001a0: 98bf 663d dd90 463d 4c71 253d 7c17 6e3d
000001b0: 87a7 223d 23ea d83c 1e16 253d f302 593d
000001c0: 9262 723d 9989 4c3d 0846 063d bca7 823d
000001d0: 92de 693d 4d08 4a3d 046d 153d f2a9 083d
000001e0: feba 1c3d d3d7 e93c 3ee2 193d cd0d b73c
000001f0: 680f 033d 5a75 623d b106 743d 1cf5 2a3d
0.03365273 0.05466548 0.048456933 0.020552931 0.05452433 0.04731742 0.039784487 0.02948691
0.011133683 0.04950507 0.023036635 0.057271287 0.059809763 0.03944309 0.039556347 0.052721273
0.05579994 0.036600646 0.04094757 0.061319765 0.042963676 0.03839652 0.0341662 0.039300308
0.034516897 0.049973566 0.022650462 0.06792936 0.020238368 0.034737576 0.03509239 0.033976417
0.026273962 0.054924797 0.036077317 0.031743307 0.03444658 0.029968958 0.02958506 0.056648083
0.019296514 0.055794742 0.03167842 0.01611733 0.037695173 0.034205735 0.04741243 0.063381225
0.04490926 0.051300056 0.037705228 0.039902948 0.055425655 0.041956466 0.074756265 0.039817315
0.04941683 0.06950565 0.051302243 0.04315004 0.023032615 0.049548037 0.026873613 0.029286874
0.023683093 0.04013607 0.035554923 0.022346087 0.043678183 0.055092786 0.03695588 0.030390443
0.04660322 0.049271397 0.03891941 0.04482873 0.03142617 0.03774587 0.031776138 0.03512827
0.056479093 0.06388502 0.036823377 0.041220855 0.020290183 0.035290435 0.008691746 0.052479792
0.04559755 0.031244444 0.04827135 0.040392704 0.027376303 0.03268255 0.022623379 0.039597258
0.016113132 0.045346394 0.0506303 0.043943234 0.04759628 0.032780346 0.038696006 0.029893698
0.05633506 0.048477996 0.04039125 0.058127865 0.039710548 0.026478833 0.040304296 0.05298133
0.059176035 0.04993591 0.03278163 0.06379649 0.057097025 0.049324322 0.03648092 0.033365197
0.038264267 0.028545296 0.037569277 0.022345448 0.031997114 0.055287696 0.059576694 0.04173766

backbone.13.running_mean f4 [128]
00000000: 91d9 673e b6c7 8f3e 379e da3e a4c8 3a3f
00000010: aca3 b23e 95cb ca3d 638e 843d ef46 a83e
00000020: b9b8 8fbe a326 5c3e c6b7 2e3e cde8 7c3e
00000030: be93 0dbe d868 8c3e a020 c43e d09d 0e3e
00000040: 26c9 3ebe 6fc0 723d 02fb 293f 8891 b53e
00000050: 9d1b c23e 4122 ac3c f088 193e 329e 803e
00000060: 929f a3be b293 0d3f 1ae7 9d3e 6f7d 5f3e
00000070: 7214 4f3d eb95 d53e 7665 debd a39a 2b3f
00000080: 0cbf 9b3e afef d83b ca27 783e b145 303f
00000090: 54fb f23d b0cf 223d 965e dd3e 074f 993d
000000a0: a253 c63e f06b 873e 09ab 813f 97f6 e63d
000000b0: 96e2 5cbd 5ddf cf3e 927c 1a3e 1599 1d3e
000000c0: beda d83c a1d6 a93e 3f49 7ebd 7a0e 803f
000000d0: f76d 71bd f496 a43e 1fa3 fcbd a5c8 1f3d
000000e0: 06ca 87bd 1494 ccbe 88a7 eebe 8ca0 0d3f
000000f0: 5885 cb3e f11c 88be c690 843e b3d7 c13e
00000100: 3b80 1ebe 6b83 513e eb5f 393f f54f 063e
00000110: a9f8 97bb 798c 903e 06a2 103e e9e0 e33e
00000120: eb02 493e cf40 193d 9c5a 6b3e ab16 0a3f
00000130: 1b41 3e3e d03c 123f 3d89 a73e cd7c 9a3e
00000140: bf86 1e3b 277c c03e bd9f 0e3f 9b77 153e
00000150: d457 883d a279 ba3e 3336 213e 97f8 ab3e
00000160: 0761 313f ea2f d13e 7f03 5d3e 7f2e 7f3c
00000170: 7e36 0d3f ee36 f53d 1ac6 953e 190b 023f
00000180: 6c15 f93e d4e9 bd3b ba6d 2d3e 12f4 b03e
00000190: 0b6c 133f cceb 033f 3d7b 86bd 698f 053f
000001a0: 98b6 8a3e a32e b63e dad2 c43e 4127 9d3d
000001b0: 61f8 9b3e 2e63 633d 1caf 623e a879 2d3e
000001c0: d19a 82be 6eee 873e 0836 ea3e c7b2 ac3d
000001d0: 99f5 813e e92a 21be c51b 193f 85b2 9f3c
000001e0: fbf3 ea3e a202 26be 88ee eb3e 710f 283e
000001f0: 2808 7e3e 239f 773e 5f37 2bbd 3cd2 d93e
0.22641589 0.28082055 0.42698833 0.72962403 0.34890497 0.099021114 0.064724706 0.32866618
-0.2807062 0.21499114 0.17062292 0.24698181 -0.1382589 0.2742374 0.3830614 0.13927388
-0.1863142 0.05926555 0.6639863 0.35462594 0.37911692 0.021012427 0.14993644 0.25120693
-0.3195768 0.5530349 0.3084038 0.21825193 0.050556608 0.4171594 -0.10859196 0.6703283
0.30419195 0.0066203694 0.24233928 0.6885634 0.11864343 0.039748847 0.43236226 0.074857764
0.38735682 0.26449537 1.0130321 0.11277502 -0.053927027 0.406001 0.15086582 0.15390427
0.026471492 0.3317156 -0.06208157 1.0004418 -0.05894276 0.32146418 -0.123358004 0.03900971
-0.0663033 -0.39956725 -0.4661219 0.553231 0.3975017 -0.2658458 0.25891703 0.37859878
-0.15478604 0.20460288 0.72411984 0.13116439 -0.004637797 0.28232172 0.14124307 0.4450753
0.1963002 0.037415322 0.22983783 0.5394084 0.18579523 0.5712404 0.32721892 0.3017334
0.0024189202 0.3759472 0.5571249 0.14596407 0.06657377 0.36420923 0.15743332 0.33588096
0.69288677 0.40856868 0.21583365 0.01557505 0.55161273 0.11973368 0.29252702 0.50798184
0.48649156 0.0057956968 0.16936389 0.3456121 0.57586735 0.5153167 -0.065664746 0.5217195
0.27092433 0.35582456 0.38442117 0.07673503 0.30462936 0.055514507 0.22137111 0.1694094
-0.2550874 0.26549095 0.45744348 0.084325366 0.2538269 -0.15739025 0.59808 0.019494304
0.45889267 -0.16211942 0.46080422 0.1641214 0.24807799 0.241818 -0.041800853 0.4254321

backbone.13.running_var f4 [128]
00000000: 8e57 853e de4a 923e 4163 853e d697 8d3e
00000010: ed55 a23e f7ee 743e d3e8 6d3e 9c84 2c3e
00000020: 106c 843e f88e 743e 922d 873e 65f5 973e
00000030: 1ec2 783e 11c2 9b3e 81b9 463e 8be9 b83e
00000040: f871 6f3e 0a28 a23e f1e3 a83e 45cf 433e
00000050: 8ddf 523e e7e6 9a3e 87ce c53e 2d83 573e
00000060: 853a 773e 740e 7c3e ccf2 a93e ddbf 793e
00000070: 70b7 ad3e b134 c83e 6431 783e d539 b13e
00000080: d8c1 a13e b439 ce3e 6d09 a33e 4fa9 ac3e
00000090: 6024 b73e 8fda a23e 547c 833e 3953 703e
000000a0: 53b4 ce3e 6e0c 7c3e 8caf a33e 83ba 813e
000000b0: 9a7a ba3e 7e4f 733e 1695 8e3e ef13 8f3e
000000c0: 9061 8f3e 2641 c23e 87f4 4f3e dc9c a23e
000000d0: 3f0b 9b3e 094c a93e c1a0 803e 6bc3 863e
000000e0: a529 a13e 2193 8b3e 0067 693e 8f56 7b3e
000000f0: 249c 893e 649e 613e 711a aa3e 1f80 883e
00000100: d3aa a13e 04a8 683e fcfe 903e c221 593e
00000110: 485a 833e 6fd3 c73e 0884 833e 557f af3e
00000120: 7d63 7b3e 452a 263e 771c 8e3e 889a 553e
00000130: 5f7f 5e3e ec85 c13e 23bc 913e 773d 913e
00000140: 1bcd 543e 71d6 403e 58ba b33e 7855 d33e
00000150: b096 6e3e 53f0 7b3e d956 823e 18d5 a03e
00000160: 90d2 6b3e 8fe4 3c3e b813 b13e 08d1 af3e
00000170: 79ff a03e aa2f ac3e bf13 af3e 611b 9c3e
00000180: 37f6 993e e54a 6e3e dd18 9e3e 8552 8b3e
00000190: 2fc8 523e 628c 483e ff67 4e3e 062d b13e
000001a0: c83c c83e 1474 883e 47f2 643e 866f 7e3e
000001b0: 427d 913e 4d94 aa3e 8ff1 8d3e 9dcf a33e
000001c0: 7314 9f3e e549 6c3e 278c ce3e dde1 663e
000001d0: 5d6a 783e b9a5 163e e3ec 603e 0df6 4a3e
000001e0: a84e cf3e 4a4a 8e3e 6c69 6f3e 187f 9b3e
000001f0: 05eb a13e c78e 413e 7d30 473e 73cf 713e
0.2604336 0.28572744 0.26052287 0.27654904 0.3170618 0.23919283 0.23233347 0.16847461
0.25863695 0.23882663 0.26401955 0.2967941 0.242928 0.30421498 0.19406702 0.3611568
0.2338332 0.31671172 0.32986405 0.19122036 0.2059309 0.3025429 0.3863413 0.21046133
0.24143417 0.24614888 0.33193052 0.24389596 0.33929014 0.391027 0.24237591 0.34614435
0.31593204 0.402784 0.3184313 0.33722922 0.3576994 0.31807372 0.25680792 0.23469247
0.4037195 0.24614117 0.3196987 0.2533761 0.36421663 0.23760793 0.2784812 0.27944896
0.28004122 0.3794033 0.20308124 0.317603 0.30282018 0.33065823 0.25122645 0.26320967
0.31477085 0.27260688 0.22793198 0.24544738 0.26876938 0.22033077 0.33223298 0.2666025
0.3157564 0.22720343 0.28319538 0.21204284 0.25654817 0.390285 0.2568667 0.34276834
0.2454967 0.16227062 0.27756092 0.2085973 0.21728276 0.37797487 0.2846385 0.28367206
0.20781367 0.18831803 0.35103106 0.41276145 0.2329967 0.24603395 0.25456885 0.31412578
0.23029542 0.18446563 0.34585357 0.34339166 0.3144491 0.33630115 0.34194753 0.30489638
0.3007066 0.23270757 0.30878344 0.27211395 0.20584176 0.19584802 0.20156859 0.34604663
0.39108872 0.2665106 0.22358046 0.2484723 0.28415877 0.3331627 0.27723357 0.31994334
0.3107029 0.23075064 0.40341303 0.22547098 0.24259324 0.14711656 0.21965365 0.19820423
0.40489697 0.27791053 0.23380059 0.30370402 0.31624618 0.18902121 0.1945209 0.23614292
